week1/1.3/closed_loop_trained_model.pth (torch, 56245 bytes, 14 tensors)

encoder.weight_ih_l0 f4 [50, 4]
000000 a2 06 28 be 4e 56 f6 bc 4c 35 1b 3e d1 c7 f9 3d
       -0.1640878 -0.03007045 0.1515705 0.12196315
000010 75 76 e1 bd 3e 6b 5c 3c bc f3 91 ba 6d ba 8a bd
       -0.11008922 0.013453303 -0.001113526 -0.06773839
000020 f7 ca 5e 3d 8a d3 a7 3c 70 e3 7c bd 03 66 59 3d
       0.05439278 0.020486612 -0.06174034 0.0530758
000030 b6 52 f4 bd 94 3d a1 3d 88 1f 84 3d ae 48 b9 bd
       -0.11929838 0.07873073 0.064513266 -0.09047066
000040 9b c5 09 3d ba 15 f0 3c 49 85 18 3e 5b e6 71 3d
       0.033635717 0.029307235 0.14894594 0.059057575
000050 ab d4 5b bc 70 80 29 3d 6d fb f3 bd 28 48 73 3c
       -0.013417403 0.041382253 -0.1191319 0.014848746
000060 2d fc 4f bd 3f b2 c9 bd a2 c5 28 bd b5 a0 93 3d
       -0.050777603 -0.09848451 -0.041204102 0.07208387
000070 21 40 fe 3d 43 7d 31 bd 22 f8 6a 3d e7 e9 de bc
       0.12414575 -0.04333235 0.057365544 -0.027211143
000080 3b 9f d9 bd c8 a9 0e 3e 24 42 8d 3d a0 b6 4d bd
       -0.10626074 0.13931954 0.06897381 -0.050222993
000090 33 8f ee 3d 5d 7d 83 bc 99 d6 83 3d 40 98 79 3d
       0.11648407 -0.016050989 0.06437416 0.060936213
0000a0 ed 75 9c 3c bc 15 2b be 75 49 a1 bd a6 3f c6 3d
       0.0190992 -0.1670751 -0.07875339 0.09680109
0000b0 a3 42 a1 3b 24 39 5e 3d 49 f3 81 3c 86 0e 95 bd
       0.004921274 0.054253712 0.015863078 -0.07278161
0000c0 94 47 0c be a9 7f c7 bd c6 fe ee 3d 16 4e 67 3d
       -0.1369918 -0.09741146 0.11669688 0.056470953
0000d0 3c c2 45 bd c5 2b 48 ba e4 7b 1f 3e 6f 3f 4a bd
       -0.04828094 -0.00076359167 0.15574604 -0.0493769
0000e0 47 5d 19 3c 5c d9 a5 bd 62 31 a8 bc 4b 74 42 3d
       0.009360618 -0.08098099 -0.02053136 0.047474187
0000f0 f7 78 1d 3c e7 af 83 bd 03 91 f8 bd b8 63 5a 3c
       0.00961136 -0.06430035 -0.12137034 0.013329439
000100 1b ee 05 3e 3e af ad bd 75 37 35 3d 41 75 71 bd
       0.13079111 -0.084806904 0.04424234 -0.058949713
000110 04 7a 24 3d 7c 2a 67 bd 81 81 c5 3c 44 74 37 ba
       0.040155426 -0.056437 0.024109604 -0.0006998221
000120 6a c9 15 3e c8 13 28 3e f0 fa 88 bc 05 69 07 bd
       0.14627615 0.16413796 -0.016721219 -0.03305914
000130 c5 bb 32 be fd c8 97 3d e9 ed 25 bd 5e 6b 44 3d
       -0.17454441 0.07411382 -0.040510092 0.047953956
000140 c2 8e 30 bc 24 93 b9 bd eb 6f 26 3d 16 3a 8d bd
       -0.010776224 -0.09061268 0.040634077 -0.06895845
000150 6f 6b 1b bd f0 f3 12 be 58 65 33 3d d3 c7 24 3c
       -0.037944254 -0.14350867 0.04379782 0.010057407
000160 96 93 ea bd 35 a6 dd 3d d1 64 12 3e 2c f5 80 bb
       -0.11453931 0.10822717 0.14296271 -0.0039354768
000170 fc 9b 99 bd e1 e7 b4 3c 48 ee 13 be 20 93 e3 bd
       -0.07500455 0.022083225 -0.14446366 -0.11112046
000180 93 00 1a 3e 13 c9 5a 3d 07 6d 89 3d 33 cd 3f 3d
       0.15039282 0.053414416 0.067102484 0.046826553
000190 76 80 27 be 15 29 2f be 6b 2e ba 3d 82 19 7f bb
       -0.16357598 -0.17105515 0.09090885 -0.0038925116
0001a0 d2 dd 0d 3d 12 35 8e 3d 8c 66 e5 3d 97 fa a3 bd
       0.034635372 0.06943716 0.112012 -0.080067806
0001b0 48 64 00 be ff 7a cf 3a d2 92 f0 3d 2f 0c 8b bd
       -0.12538254 0.0015829502 0.11746754 -0.06789433
0001c0 f0 ea b9 bd 30 cc 27 be 70 a1 c0 bd 24 40 4f 3d
       -0.09078014 -0.16386485 -0.09405792 0.05059828
0001d0 3c 07 06 3e ff 89 4a 3d cf ad 02 be 0e ec c8 bd
       0.13088697 0.04944801 -0.12761615 -0.09810649
0001e0 d2 26 8a bd 7f 32 26 bd a4 48 23 be f5 93 ef 3d
       -0.06745686 -0.0405755 -0.15945679 0.116981424
0001f0 f7 dc bc bd d5 dd fd 3d 08 d4 f5 bd e9 5f cd bd
       -0.09221833 0.12395827 -0.120033324 -0.10028059
000200 86 d9 aa 3d cb fe 93 bd 5b a6 c6 bd 95 e9 96 bd
       0.083422706 -0.07226332 -0.096996985 -0.07368771
000210 14 eb 38 bd 12 40 51 bd bb bc 0b 3e ca d2 01 3b
       -0.045146063 -0.051086493 0.13646214 0.0019809478
000220 80 10 e9 3d ae 6f 13 3e b3 54 2f bd a4 9a 03 3d
       0.113801 0.14398071 -0.042805385 0.0321299
000230 24 7d 43 bd 1a 20 36 3d 6f 15 eb 3d d2 de cf ba
       -0.047726765 0.04446421 0.114786975 -0.0015859252
000240 cf 10 c2 bb 21 e5 97 bd 91 39 0a 3e 57 2d c2 3d
       -0.005922414 -0.0741675 0.13498522 0.09481304
000250 3f c6 ef 3d 69 76 cb 3d 6b 41 a6 3d d4 9a 6e bd
       0.11707734 0.09934694 0.08117946 -0.058253124
000260 55 db 87 3b 4d 44 5d bd 6e 3e dc bd 57 85 cd bd
       0.0041460195 -0.054020215 -0.10754095 -0.10035198
000270 14 59 09 3d 29 6a a4 bd 84 86 e0 3d fa a9 ab 3c
       0.033532217 -0.08028061 0.10963157 0.020955075
000280 b8 d6 af bd 13 90 f4 bc 86 32 d3 3c 44 82 de bc
       -0.08585876 -0.029853856 0.025780927 -0.027161725
000290 6f f1 07 be 09 62 27 be d7 b4 29 3d dd 44 f2 3b
       -0.13275693 -0.16345991 0.041432228 0.007393463
0002a0 fb c5 84 3d 35 2e 89 3d ed 69 8b bd dc 4a 1f 3c
       0.06483074 0.066982664 -0.06807313 0.009722438
0002b0 fb 55 28 3e 82 51 86 bb ee a2 d2 bd 79 0c c2 bd
       0.16439049 -0.004099072 -0.102849826 -0.09475035
0002c0 7e 53 92 3d 7b df 0b be 13 8e 94 3d 82 58 a3 3d
       0.07144831 -0.1365947 0.07253661 0.07975866
0002d0 73 30 5a 3c bc fc 0d be 34 a1 c9 bd 82 76 a9 3d
       0.013317215 -0.13865942 -0.098452 0.08274557
0002e0 4e 9a f0 3d e6 f0 bb 3d e5 51 f1 bc 48 d2 c5 3d
       0.11748181 0.09176807 -0.029457996 0.096592486
0002f0 92 19 ef 3d b7 64 0c be de 52 13 3e 4e cf fc 3d
       0.11674799 -0.13710295 0.1438708 0.12344228
000300 df 4f 94 bd cc c0 f0 3c 69 04 fd bd 90 18 e3 bd
       -0.07241797 0.029388808 -0.12354357 -0.11088669
000310 5c f9 26 3e ca 97 15 3e db e3 94 bd d2 3b 87 3c
       0.1630606 0.14608684 -0.072700225 0.016508017

encoder.weight_hh_l0 f4 [50, 50]
000000 a3 d7 27 3e 00 29 95 bc 40 cc 83 3d ee 85 8a 3d
       0.16390853 -0.018208027 0.06435442 0.06763826
000010 43 02 b7 bc e9 8b b0 bd 69 d3 e0 bd 3a 46 01 3d
       -0.022339946 -0.08620436 -0.10977823 0.031561114
000020 2e 54 2c be b3 02 31 bc 5e 3b cd bc 08 d9 68 3d
       -0.16828987 -0.010803866 -0.025052723 0.056847602
000030 f1 a7 4d 3d 16 0e a9 3d 78 64 ca 3d f6 57 a6 3c
       0.05020899 0.0825464 0.09882444 0.020305615
000040 5f b0 44 bd 84 bd 9f 3c 00 bc 0e be fa d8 af bd
       -0.048019763 0.019499548 -0.13938904 -0.08586307
000050 59 65 d8 3d f1 7e b6 3c b5 1a 70 bd 10 27 de 3c
       0.105662055 0.022277327 -0.05861922 0.027118236
000060 fe 19 cb 3d 37 2c 29 3e ab 83 32 bb e4 64 99 bd
       0.09917067 0.16520773 -0.0027239125 -0.074899465
000070 18 a8 b7 bd 8c ad 6e bd 1a 3f b3 bc b9 0c 60 3d
       -0.08967608 -0.058270976 -0.021880675 0.054699633
000080 d2 d3 04 3d 5f 3f 05 3e 2f 4c 1f be 54 64 26 bd
       0.03242857 0.13012455 -0.15556405 -0.040623024
000090 16 9e 13 3e 23 54 19 bd 35 15 c5 3c 00 9e d2 3d
       0.14415774 -0.037433755 0.024057964 0.10284042
0000a0 fb d4 2f bc 43 08 63 bd 9d 2b 21 be 2f 01 d6 3d
       -0.010731931 -0.0554278 -0.15739293 0.104494445
0000b0 39 55 cb bd be 07 ce bd e2 61 3d bd 2d 2a 9f 3d
       -0.09928364 -0.100600705 -0.046235926 0.07771716
0000c0 e5 2d b9 bd 07 31 89 bd a4 fe 28 bd 8a 8d cb 3d
       -0.09041957 -0.06698804 -0.04125847 0.09939106
0000d0 fb 55 35 3d d4 a9 2e be 4e b5 45 3d 2f 23 38 bd
       0.04427145 -0.17056972 0.04826861 -0.04495543
0000e0 8e a2 5e bd d0 78 28 3e ee b4 0e 3e d1 79 0f 3e
       -0.054354243 0.16452336 0.13936207 0.14011313
0000f0 4b 4d 62 39 ae cb b9 3d 55 a4 f7 bd b1 84 e8 bd
       0.00021581833 0.09072052 -0.12091891 -0.11353434
000100 5e 7f b5 bd f0 93 c1 bd c0 6d 21 bd 35 f3 c1 3a
       -0.08862184 -0.09452045 -0.039411306 0.0014797213
000110 9b 0f da bb a9 31 13 bd 69 a7 23 be 53 b6 df 3d
       -0.0066546923 -0.03593603 -0.1598183 0.109234475
000120 f4 57 bf bd c1 29 2a bd 33 52 16 bd e4 fe 3b bd
       -0.093429476 -0.041543726 -0.036699485 -0.04589738
000130 e5 8f b8 bd e8 c8 b4 3d dc 75 99 bd 3f ae b7 bd
       -0.09011821 0.08827382 -0.07493183 -0.08968782
000140 b0 4a d7 bd 8a 11 07 3e 0c 92 20 be 8b 62 a7 3d
       -0.105122924 0.13190284 -0.15680712 0.081730925
000150 33 c7 22 3e d0 0f bb bc 5c 48 2a be a6 80 10 3a
       0.15896301 -0.022834688 -0.16629165 0.0005512334
000160 f0 95 0f 3c df e7 07 be f9 ab fa bd 26 a6 10 bd
       0.008763775 -0.13272046 -0.122398324 -0.0353147
000170 0e 8e 36 bd 1f 6e c6 3d 46 8d dd 3d a7 d3 df bc
       -0.044569068 0.09688973 0.108179614 -0.027322603
000180 e4 ff 20 bd 1e 1e 86 bd 8c c9 71 3d 1b a2 98 bd
       -0.039306536 -0.06548713 0.0590301 -0.07452794
000190 7d 81 21 3e a0 d8 59 3d cf b9 b6 3d 75 64 42 bd
       0.15772052 0.053185105 0.08922159 -0.047459085
0001a0 04 bc bd 3d 46 2a e3 3b 54 8b bb 3d 6c 58 7b bd
       0.09264377 0.0069325296 0.09157434 -0.061363623
0001b0 3f 4a 21 be 5b a5 b5 3d 32 b3 1c 3e 58 54 80 bd
       -0.15750979 0.0886943 0.15302733 -0.06266087
0001c0 2e 6d dc 3b 22 4d d1 bd 6d b9 a2 bc 73 be 9f bd
       0.0067268824 -0.1021979 -0.019863809 -0.07799997
0001d0 e6 2f 04 bd 61 91 d6 3d 8d 77 bc bd 28 b2 89 3d
       -0.032272242 0.104769476 -0.0920249 0.06723434
0001e0 cc 82 34 bc 68 73 31 3e 85 58 d5 3d a0 92 ab 3d
       -0.0110175125 0.1732918 0.104172744 0.08377576
0001f0 f3 61 07 be 07 c0 0b bc 98 49 a9 3d b8 2a 65 bd
       -0.13220958 -0.00852967 0.0826599 -0.055948943
000200 d2 67 1c 3d 97 fe dd 3b a8 5d 38 3d 7d f1 dc bd
       0.03818495 0.0067747342 0.045011193 -0.10788248
000210 1b 8f ec 3d e0 f6 be bd 12 b8 15 3c d0 55 65 3d
       0.11550733 -0.093244314 0.009138124 0.05599004
000220 2e fe b9 bd b1 68 11 3d 13 cd 16 be 39 1e f7 3d
       -0.09081684 0.035500232 -0.14726667 0.120663114
000230 61 57 95 3d 9a d5 b2 bd 9a 15 9f bd 4d 5e 8c bc
       0.07292057 -0.087321475 -0.07767792 -0.01713481
000240 02 61 cf 3d 63 32 9a bd e2 8d c5 3d cd b3 da bc
       0.10125925 -0.07529142 0.096462026 -0.026697064
000250 ff 3b 36 3d 8a ed 5c bd 87 2c b6 bd 36 30 de bc
       0.04449081 -0.053937472 -0.08895212 -0.027122598
000260 7b 3f 50 3d fb 1a af bd 99 38 37 bd 90 7b e2 bd
       0.05084179 -0.08550068 -0.04473171 -0.11058724
000270 9b cb b4 bc d1 1e ad b8 e9 77 c6 3d 95 2f 8a 3d
       -0.022069743 -8.255023e-05 0.0969084 0.06747357
000280 17 48 f8 bc 9a fe a9 3c 9f 81 0a 3e 9c 15 1b 3d
       -0.030307813 0.020751286 0.13526009 0.037862405
000290 49 b9 a1 3d ea de 85 3d f1 c6 cf bd 75 8e a9 bc
       0.078966685 0.06536658 -0.10145367 -0.020697812
0002a0 e6 5f 09 be 93 57 33 3e 1a cc 14 3d 34 06 c0 bd
       -0.13415489 0.17513876 0.03632746 -0.09376183
0002b0 75 99 de 3d 9b 00 58 bc 03 ad 8f bd 83 c9 b2 3d
       0.10869113 -0.013183738 -0.07015421 0.087298416
0002c0 86 3d ca 3c 01 96 2a 3e b7 65 a3 bd 7e 06 c5 bd
       0.02468754 0.16658784 -0.07978385 -0.09620379
0002d0 da 11 88 bb 06 86 20 be 9e e3 d4 3d 38 1e c4 3d
       -0.0041525187 -0.15676126 0.10394977 0.09576076
0002e0 08 a7 dd 3c 6c ec 11 3e 23 98 0b 3e b8 d3 42 3d
       0.027057186 0.14250344 0.13632254 0.047565192
0002f0 03 bf c3 3c 23 f3 fd 3c 95 66 1e 3d 60 f5 ef 3c
       0.023894792 0.030999726 0.03867205 0.029291809
000300 1b 70 ed bd 52 01 f7 bd 6c 55 0e bd 5a 1a c3 3d
       -0.11593648 -0.12060799 -0.034749433 0.095265105
000310 da 60 21 3b 3e 36 b2 bd 9b 7f 56 bd b7 84 6e 3d
       0.0024624378 -0.08701752 -0.052367788 0.058232035
000320 a4 76 03 3e 4e 51 30 bd c1 3c c2 3d e4 6b f9 bb
       0.12838227 -0.04304629 0.09484244 -0.0076117385
000330 72 62 0e 3c 26 10 1c 3d 25 cb 81 3d d0 ea 21 bd
       0.008690463 0.038101338 0.06337575 -0.039530575
000340 7d 46 34 bd 48 0f 9e bd f7 f9 23 38 07 1b a0 3c
       -0.044012535 -0.077177584 3.9095026e-05 0.019544138
000350 9f 96 50 3d c3 1b 24 bd 6d 9e b4 3d a2 4b 02 be
       0.050924893 -0.04006554 0.0881928 -0.12724164
000360 11 1c 7b bc fb 15 7b 3c 4c aa dd bc c6 0b 6e 3c
       -0.015326516 0.015325065 -0.027058743 0.014529174
000370 52 8f 53 3d 52 8d 07 3d b0 9c c7 bc df 7e 80 3d
       0.051650353 0.033093758 -0.024366707 0.06274199
000380 93 f1 18 bd 75 d0 4d bd 24 c4 c2 3d 6d 97 e6 bb
       -0.037339758 -0.05024763 0.09510067 -0.0070370943
000390 f1 b9 a4 3d 08 da 5f bb aa cf 8c bd 34 96 e5 bd
       0.08043278 -0.0034157056 -0.06875546 -0.112102896
0003a0 2f 24 de bd ba 57 80 bd bd 74 23 be 6c a9 96 3d
       -0.10846745 -0.062667325 -0.15962501 0.073565334
0003b0 98 80 47 bd c5 24 06 be 2c c8 e9 bd 74 78 fb bd
       -0.04870662 -0.13099964 -0.11415133 -0.12278834
0003c0 da 92 e3 3d a4 3b 61 3d 1b 97 ef bb 1b 54 82 ba
       0.11111994 0.05498852 -0.0073117143 -0.0009943278
0003d0 a3 1d bd bd ea 63 29 bd 81 a7 0d be 37 8d ce 3a
       -0.092341684 -0.04135505 -0.13833429 0.0015758638
0003e0 86 ad dc bc 02 92 fc bd 47 a7 c2 bd f5 7c 28 bd
       -0.026938211 -0.12332536 -0.09504562 -0.041134793
0003f0 9d 0f 2d be 2e c8 9a 3d 93 55 0a be ec 5d 9e 3d
       -0.16900487 0.075577125 -0.13509206 0.07732758

encoder.bias_ih_l0 f4 [50]
000000 c9 f2 c7 bc e1 e2 0a 3e 56 51 de bd 44 94 0c be
       -0.024407761 0.1356311 -0.10855357 -0.13728434
000010 dc 01 76 bd 08 2b e4 3d 93 1d 7c 3d 80 95 a4 3d
       -0.060060367 0.1114102 0.06155164 0.08036327
000020 9a 89 77 3c ba dc fc 3d 04 21 0d bd ab a6 80 bd
       0.01510849 0.12346788 -0.034455314 -0.062817894
000030 e5 c0 ec bd 82 79 cd 3d 21 d5 ec 3d c6 55 ea 3d
       -0.11560229 0.100329414 0.115640886 0.11442141
000040 5b 36 30 3e 18 3d e2 3d 0f 66 e4 3d be c9 0e bd
       0.17208235 0.11046809 0.11152279 -0.034860365
000050 43 11 1a be a3 06 0b be cd 2e d6 bd 47 d2 5d 3d
       -0.15045647 -0.1357675 -0.10458145 0.054155614
000060 fa b3 a6 bd 3a 9f 1a be 57 2c 2c 3d 00 fd 96 bd
       -0.081397966 -0.15099803 0.042034473 -0.07372475
000070 ae 41 43 3d 38 15 b1 bc 9c 08 ee 3c 34 cc 06 3e
       0.04767006 -0.021616563 0.02905684 0.13163835
000080 69 78 2b be 06 94 63 3c f4 e5 d4 bc 70 96 a0 bc
       -0.16745152 0.013890272 -0.025988556 -0.019602984
000090 a4 74 ac 3d a8 5a 1b 3e 6b 73 3c 3d d9 3f 56 bd
       0.08420685 0.15171301 0.04600851 -0.052306984
0000a0 3d 90 a4 bc d4 07 8e bd 56 b2 2b bb e9 08 f8 bc
       -0.02008831 -0.06935087 -0.0026198826 -0.030277686
0000b0 86 af cf bd ec 77 c1 3d 09 a2 9d 3d 82 fd 0a be
       -0.101409 0.094467014 0.076969214 -0.13573268
0000c0 48 7d 04 3e 92 9e 12 3d
       0.12938416 0.035795756

encoder.bias_hh_l0 f4 [50]
000000 95 72 1c bd d3 c6 0a 3e b7 89 13 be 2b 5f f0 3c
       -0.03819521 0.13552408 -0.14408003 0.029342255
000010 a2 e3 50 bd 0c ec 10 3e 2e 30 d8 ba 00 de 03 bc
       -0.050998338 0.14152545 -0.0016493851 -0.008048534
000020 d5 01 60 bc ad 99 44 3d 63 60 f1 bd ea 68 27 be
       -0.013672312 0.04799812 -0.117859624 -0.16348615
000030 96 3b 1f be 57 d6 06 bd 4f 6c 05 3e 23 63 2e 3e
       -0.15550074 -0.032919254 0.13029598 0.17030005
000040 36 56 10 3e f2 7c 0f bd 6f 06 e3 3d 83 9a 05 be
       0.14095387 -0.035031267 0.110852115 -0.13047223
000050 65 00 19 3d 93 7c 87 bd 62 82 0d be 05 42 0b 3e
       0.037353892 -0.066155575 -0.13819268 0.13599403
000060 b5 b2 29 bc 67 d0 2f 3d d2 34 89 3d 47 5c 98 3d
       -0.0103575485 0.042923357 0.06699528 0.074394755
000070 b7 71 cd bd 45 ed 85 3b 1c 55 0a 3e aa d5 83 3d
       -0.10031455 0.0040871226 0.13509029 0.064372376
000080 3f 89 1d be cc 75 17 be 4c 7e 79 bd 15 6c cd bd
       -0.15384386 -0.1479103 -0.06091146 -0.10030381
000090 63 d3 25 be f1 57 92 3d b7 dd 2c 3d 2f 02 b4 bd
       -0.16193919 0.0714568 0.04220363 -0.08789479
0000a0 22 f8 20 be b8 31 37 3d e8 7d ce 3d 4a 67 08 3e
       -0.15719655 0.04472515 0.100826085 0.13320652
0000b0 e6 cf b8 bd b1 85 c0 bd d9 b2 83 3d 3d 48 9d 3d
       -0.090240285 -0.094004996 0.06430597 0.07679794
0000c0 7d cb 33 bb b1 20 30 3e
       -0.002743452 0.17199971

encoder.weight_ih_l1 f4 [50, 50]
000000 45 0d 17 3d a2 50 4d bd 67 c6 e1 bd 4f eb 29 be
       0.03687789 -0.050125726 -0.1102417 -0.1659367
000010 20 91 a6 bd 94 53 d9 bc 2a 12 42 bc 0e 4f 41 bd
       -0.08133149 -0.026529111 -0.011845151 -0.047194533
000020 8b 5a 9c 3b 6c 25 25 3e 4a a3 e7 bd d5 c0 1b bd
       0.0047715358 0.16127557 -0.11310442 -0.038025696
000030 6f bb cc 3d 8a b5 b0 3d 8a 6f 23 3d 01 04 f9 3d
       0.099966876 0.08628376 0.039901294 0.12158967
000040 45 2b 18 bd 40 6a ba bd e3 3f 29 3e 0a 15 8f bd
       -0.03715064 -0.09102297 0.16528277 -0.06986435
000050 e4 fb bb bd b7 92 2c be cc c3 d2 bd 2a 96 18 3e
       -0.09178904 -0.16852842 -0.102912515 0.14901033
000060 2a 3a 1b 3b e0 ee bd bc 96 e0 7a 3d 8e fe 37 be
       0.0023685792 -0.023185194 0.061249338 -0.17968199
000070 29 0a f3 bd fb a2 1d 3e 3d da fc 3d 31 9b 8a 3d
       -0.11867172 0.15394203 0.12346313 0.06767882
000080 5e 04 31 be 0e fc 25 be 03 d0 69 bd a5 e4 4f bd
       -0.17286822 -0.16209432 -0.05708314 -0.05075516
000090 f3 c7 2d bc 9c 8a ae bd b5 10 51 bd dc 3f d6 3d
       -0.010606754 -0.085225314 -0.051041324 0.10461399
0000a0 1c 48 59 bd 70 35 c7 bd e5 a8 32 3e 81 e8 f1 3a
       -0.053047284 -0.09726989 0.1744724 0.0018456132
0000b0 6b d8 56 3d 1d 04 fa bd 38 02 9b 3d 95 b4 9d bb
       0.052452486 -0.12207816 0.075687826 -0.004812787
0000c0 75 95 2e bd 85 53 07 3e 74 e6 b5 3d b9 a9 c8 bd
       -0.042623002 0.13215454 0.08881846 -0.09797997
0000d0 76 0b d4 3c c5 fd 05 be 58 eb 6b 3d 3a 1d 00 3d
       0.025884371 -0.13085087 0.05759749 0.031277873
0000e0 6c a3 d3 bd 2d f7 28 3d 26 01 3a bd 77 78 fc 3d
       -0.103339046 0.04125135 -0.04541125 0.12327664
0000f0 5a 3e 7a bd d8 a6 8b bd f6 3e 3d 3d 1d 71 29 be
       -0.06109462 -0.06818932 0.046202622 -0.16547056
000100 a2 be 90 3c bb 42 4c 3d ca 01 6b bc f4 5d 18 bb
       0.017669026 0.049868327 -0.014343688 -0.002324936
000110 00 a2 f8 3d 00 cb e2 bb df 8d 99 3c 34 33 c5 bd
       0.12140274 -0.006921172 0.018744407 -0.09628907
000120 70 3b a7 3d 46 7c a1 3d cf d6 fd 3d a1 d9 c6 3c
       0.08165634 0.078850314 0.12394487 0.024273695
000130 aa 0d ac bd d6 0e 9f 3d 93 0e 08 bd 5d 21 0d 3c
       -0.08401044 0.077665016 -0.033217024 0.008613911
000140 8b 83 cc bd e0 d6 5a bc af c7 56 3d 56 f7 d0 bc
       -0.09986027 -0.013356894 0.052436527 -0.025508564
000150 51 bd ea bd 1c d6 e4 bd 00 8d 5d 3d 28 fb 08 3e
       -0.114618905 -0.111736506 0.054089546 0.13377059
000160 99 8b b2 bc 82 0a ec bd 52 2f 04 be 7f 9f b4 3c
       -0.021795081 -0.11525442 -0.12908676 0.02204871
000170 d6 a4 e6 3d 5a ad 1f 3e 90 c9 93 3c 81 8f dd 3c
       0.11261909 0.15593472 0.018040448 0.027045967
000180 c5 fd 8b 3d d7 3d 42 bd 5a 6d 22 3e 84 f6 f0 3d
       0.06835512 -0.047422256 0.15862027 0.11765769
000190 7f 0a 19 be 4d 4d 49 3d d9 e7 2c be 7b ec 3b bd
       -0.1494541 0.049145985 -0.16885318 -0.045879822
0001a0 a2 c8 05 bd 13 3c ed 3d 73 7d d0 bd 65 36 01 3e
       -0.03266204 0.11583724 -0.101801775 0.12618406
0001b0 55 3c 6a 3d 88 8f 76 bd 47 09 32 3d b7 ee a3 bd
       0.057186443 -0.060195476 0.04346588 -0.080045156
0001c0 f6 7c 26 bd 9f d4 cb bd 83 01 66 bd b2 43 01 3d
       -0.040646516 -0.09952664 -0.056153785 0.0315587
0001d0 3a 6b c9 3d 4b 31 96 3d d3 cc 02 3d 0d ea 86 bd
       0.09834905 0.07333621 0.031933617 -0.065876104
0001e0 cd 7d 65 bd 23 95 a1 bb 76 74 61 bd 48 3f 33 3d
       -0.056028176 -0.0049311086 -0.055042706 0.04376152
0001f0 1c 2e 04 3e 09 50 a8 3b 53 73 a5 3b a2 e9 82 bc
       0.12908214 0.005136494 0.005049148 -0.015980545
000200 ba 79 0f be ad 4b ab bd 45 1b 89 3d 33 fd 0e 3e
       -0.14011279 -0.083640434 0.066946544 0.13963775
000210 e6 8d d4 bd df a6 31 bd 57 7d 30 3d 15 ea 84 3d
       -0.103786275 -0.04337203 0.043088283 0.0648996
000220 a2 a1 aa bd 86 a2 fd bb b4 8b 8b 3c e5 20 af 3d
       -0.0833161 -0.0077403216 0.01703439 0.08551196
000230 4d f5 68 3d 69 69 1b 3d 70 3f 05 3e 27 b2 7e bc
       0.056874562 0.037942324 0.1301248 -0.0155454045
000240 cd 8e bc 3d 20 33 ee bd 47 58 c2 3c 45 af 87 3a
       0.092069246 -0.11630845 0.023723735 0.0010351917
000250 90 32 0b bd 53 39 10 3d 4d 88 c3 bc 59 e0 da 3d
       -0.033983767 0.03521092 -0.023868704 0.10687322
000260 fa 6c dd bd 46 76 5e 3d 22 df 02 3e 62 70 9c 3b
       -0.10811801 0.054312013 0.12780431 0.0047741393
000270 07 e5 8a 3d c7 9e 1d be e8 e6 8e 3d 3c 7e 91 3d
       0.06781965 -0.153926 0.069776356 0.071041554
000280 f2 7c 26 3c 68 54 9b 3c 5a 09 f2 bd 89 1d 0b 3d
       0.010161625 0.018961146 -0.1181819 0.033963714
000290 96 32 81 3d 45 41 e8 bd 76 83 e2 3d 44 89 a9 3d
       0.063084766 -0.11340574 0.110602304 0.082781345
0002a0 5a ba c2 bd 92 ae 1e 3e 03 c5 9b 3d d0 62 d9 3c
       -0.095082 0.15496281 0.076059364 0.026536375
0002b0 26 70 d8 bd 2e 09 99 3d af 73 f4 bd 3d 61 d6 bc
       -0.105682656 0.07472454 -0.119361274 -0.026169414
0002c0 f0 70 81 3d ca b3 24 3e c2 85 8d 3d 95 75 69 bc
       0.06320369 0.16084209 0.06910278 -0.014249225
0002d0 7c 78 26 bd 51 3b 16 be f1 0e fe bc 05 af 04 3e
       -0.040642247 -0.14671065 -0.031012984 0.1295739
0002e0 6f e8 89 3d 10 bb 28 3d 8b 5c d7 bc 91 a3 fd bd
       0.06733786 0.04119402 -0.026289245 -0.123847134
0002f0 f3 d1 07 be 79 84 5b 3d 08 b8 db 3d 11 98 f0 3d
       -0.13263683 0.053593133 0.107284606 0.11747754
000300 aa b3 18 be 7a 6c c7 bd 28 02 13 bc 36 ce 22 bd
       -0.14912286 -0.09737487 -0.008972682 -0.03974744
000310 4c 78 0c be 32 c5 d8 3d 1b 2f ce 3d df da 06 be
       -0.13717765 0.10584487 0.100675784 -0.1316943
000320 d3 f0 4f 3c a0 2d 34 be 1b 4a f3 b8 97 55 b5 bd
       0.012691694 -0.1759553 -0.00011600946 -0.088542156
000330 e6 d1 9c 3d 89 6f 94 bb 27 57 c3 bd 0b 4b 0b be
       0.076572224 -0.0045298976 -0.09538107 -0.13602845
000340 dd 3b 2f 3d 7d c5 5b bd fb a8 8a bb 6c 70 75 3d
       0.0427817 -0.053655136 -0.00423157 0.059921667
000350 ce 6c bb bd af eb d9 3d 0f cf 38 3d e6 b3 2e be
       -0.09151612 0.10640656 0.04511934 -0.17060813
000360 c4 11 3f bd eb 8c 15 bd 58 08 14 be aa 49 ca bc
       -0.046647802 -0.036511343 -0.14456308 -0.024693329
000370 6e 1b 58 bd 6f 58 89 bc 32 35 f3 3d 71 46 4c 3d
       -0.052760534 -0.016765801 0.118753806 0.049871866
000380 2d 7d f5 bd a5 ea f3 3d f6 3c b7 3d ce bd 0f 3e
       -0.11986766 0.11909989 0.08947174 0.14037248
000390 30 02 14 3e da 0c 88 bd 8b bc 49 3d d8 bd 52 bd
       0.1445396 -0.06643076 0.049252074 -0.05145058
0003a0 93 dd 8d bd 65 75 2f bd 5c 22 a7 3a eb 6b 44 bd
       -0.069270276 -0.042836566 0.0012751329 -0.04795448
0003b0 46 50 06 3e db 2d 9b bd 8b 28 06 be af 7c 9b 3c
       0.1311656 -0.075771056 -0.13101403 0.018980352
0003c0 b5 9f 52 3d 81 06 da 3d 6e b2 c0 3d fe 37 cb bd
       0.05142184 0.10645772 0.09409033 -0.09922789
0003d0 4e 81 9c 3c be aa 32 bd c5 e2 7f bd ce 69 48 3d
       0.019104626 -0.043619864 -0.062472124 0.04892903
0003e0 13 69 cd 3c 52 94 bb bd eb 9c a4 3c 3a 57 25 3e
       0.025074517 -0.09159149 0.020094356 0.16146556
0003f0 ca 4d fe bd be 68 23 bd e2 4d b4 3d 3e 21 7e 3d
       -0.12417181 -0.03989481 0.088039175 0.06204342

encoder.weight_hh_l1 f4 [50, 50]
000000 c6 4d bb bc 13 2b f6 3d 3b 76 e2 bd 44 31 1e bd
       -0.022864234 0.120199345 -0.11057707 -0.038621202
000010 ef eb 04 be a0 29 7a 3c d6 cb 88 bd 21 98 9d 3d
       -0.12980627 0.015268713 -0.066795036 0.07695032
000020 62 0e 2c 3e 49 e8 10 3b 71 cb f4 3d fe 06 86 bd
       0.16802362 0.002211111 0.11952866 -0.065443024
000030 4b b6 3e 3c a7 0b 7d bd af ba 18 3d 06 04 d5 bd
       0.011640142 -0.06177869 0.03728741 -0.10401158
000040 c9 00 d0 3d ae 00 d6 bd 72 3c 08 3e 4c b5 ac bd
       0.101564 -0.104493484 0.13304308 -0.08433017
000050 f3 dc 3d 3d fc ad 7b bd a3 16 c5 bd 47 c0 23 bd
       0.04635329 -0.06144522 -0.09623458 -0.03997829
000060 2d cf 32 3d 7b 2c 1d be 8d 20 df bc 73 ed 1c 3d
       0.04365461 -0.15348999 -0.027237201 0.038312387
000070 fd 6e 22 3d 67 88 3d bd 4b e8 04 3d a3 24 87 3d
       0.039656628 -0.04627266 0.032448094 0.06598785
000080 30 f4 71 3d 46 4b 81 bc a1 74 b7 3d 2f 05 41 bd
       0.059070766 -0.015782963 0.08957792 -0.047124084
000090 9b c2 70 bd 39 a3 a5 3b 58 b2 e0 bc 67 25 d5 bd
       -0.05877934 0.005054858 -0.02742879 -0.104075246
0000a0 ee 79 12 bd c2 e2 9e bc c6 f1 1e 3d c7 e7 e0 bd
       -0.035760812 -0.019395236 0.038804792 -0.10981708
0000b0 1e 54 88 bd 0f 25 84 3d df af 1d 3d d2 4f 24 be
       -0.06656669 0.06452381 0.038497802 -0.16046074
0000c0 48 4e a2 3d 5e d0 d2 3d af 94 30 3e 10 59 2a 3d
       0.07925087 0.10293649 0.17244218 0.041588843
0000d0 7d 2c 5f bd 27 e2 b3 bb 06 a2 26 be 49 42 55 3d
       -0.054485787 -0.005489606 -0.16272745 0.052065168
0000e0 43 d9 75 bd 19 3b de bb db 38 ba bd e8 11 35 be
       -0.06002165 -0.0067819473 -0.090928756 -0.17682612
0000f0 92 36 1a 3e 6e 00 62 3c 40 5f 65 3b b3 a0 a5 3d
       0.1505988 0.013794048 0.00349994 0.080872916
000100 8f e0 12 3e 8e 26 e6 3c 24 4b f6 bc 54 8d 06 3d
       0.14343475 0.028094556 -0.030065127 0.032849625
000110 7b a9 2e 3e e7 0f ce 3c 3e 22 c6 3d 9a 52 04 3e
       0.17056839 0.025154067 0.096745 0.12922135
000120 0e 67 d0 bc 3a af 1a 3e 8c 6e 20 bd 15 6a 06 bd
       -0.025439765 0.15105906 -0.039167926 -0.03281601
000130 f2 6f 6c bc 9e 7d 21 bd 7a 4c f5 3c 8b a9 8a bb
       -0.014430987 -0.03942644 0.029943693 -0.004231637
000140 de 37 19 3d 0f c0 64 3c 38 95 60 bd 85 a2 1a be
       0.037406795 0.013961806 -0.054829806 -0.15101059
000150 b0 45 07 3e 7e 11 6d bd 23 24 b6 3d 19 dc 68 bd
       0.13210177 -0.05787801 0.08893611 -0.056850526
000160 ff 95 eb 3d d1 4d 9b 3d be 53 94 bd 85 66 83 3d
       0.11503219 0.07583202 -0.07242535 0.064160384
000170 de d8 86 bd 86 37 08 3d ab bc 93 3d 3c 40 c6 3c
       -0.06584333 0.033256076 0.0721372 0.024200551
000180 9c f1 4c 3d 1c 94 57 bd 7c c1 91 3c e1 89 f3 3d
       0.050035104 -0.052631482 0.017792456 0.11891533
000190 ac 41 04 3e b6 0b c4 3c 3d 96 22 bd 61 c0 16 be
       0.12915677 0.023931365 -0.03969406 -0.14721824
0001a0 f6 89 bf 3d 12 36 df bd 49 39 90 bd 59 6b a2 3d
       0.09352486 -0.10898985 -0.07042176 0.07930631
0001b0 ec a1 a8 bd fc 1e 2a be 93 d4 d4 3c ca 87 d5 bc
       -0.08234009 -0.16613382 0.02598027 -0.026065726
0001c0 4a 8e 49 bd 31 ee 8e bd 71 0b c2 bd 84 53 62 bd
       -0.049207963 -0.06979025 -0.094748385 -0.055255428
0001d0 49 ee 6d ba 4f 29 d2 bd 80 32 c5 3d 86 78 1b 3d
       -0.000907634 -0.10261785 0.09628773 0.037956737
0001e0 ed 0d 29 3e 5a de 6d bd 75 43 f9 bc cd a2 05 3e
       0.16509219 -0.05807338 -0.030427674 0.13050385
0001f0 44 66 a9 3d 31 84 b3 bd 64 ec fa 3d 7b 26 95 3b
       0.08271459 -0.08765448 0.12252119 0.0045517064
000200 e0 80 45 3c 8e 0c f4 3d f0 35 93 3b 49 ca ac 3d
       0.012054652 0.11916457 0.004492514 0.0843702
000210 c3 f9 d0 3d 3d 00 8f bd 4e 8c 20 3e f0 33 e8 3c
       0.10203888 -0.06982467 0.15678522 0.028345078
000220 d9 dc 1c be 21 25 1a 3d 77 cb 0a be cf 7c f1 3b
       -0.15318622 0.037633065 -0.13554178 0.0073696147
000230 af 23 3f 3d dc 17 06 be 48 2f f9 bd 89 6d f7 bd
       0.04666489 -0.13095039 -0.12167221 -0.12081439
000240 59 fb e8 3d 68 6e 2e bd c9 33 83 bd 54 53 81 3c
       0.11376066 -0.04258576 -0.064063616 0.015786804
000250 35 17 0b 3e e1 87 5f bd dc b9 bf bd d5 85 22 be
       0.13583072 -0.054572944 -0.09361622 -0.15871365
000260 c4 22 36 3d 16 fd 02 3b c3 52 f2 3c d3 04 96 bd
       0.04446675 0.0019987277 0.02958048 -0.07325139
000270 3a 72 0b be 13 3d 68 3d 95 e6 24 bc 59 f8 6b bd
       -0.13617793 0.05669887 -0.010064741 -0.05760989
000280 de 82 b4 bd a7 ae ae bc cf 8f c7 3d c5 b1 34 bd
       -0.088140234 -0.021323515 0.09744226 -0.044114847
000290 0e be a0 bd 35 8e 12 be 52 34 12 3e b8 fd 8d bd
       -0.0784875 -0.1431206 0.14277771 -0.06933159
0002a0 20 52 40 bd 02 4b 12 bd 1e e1 9b 3c 7b 48 a7 bd
       -0.04695332 -0.035716064 0.019028243 -0.081681214
0002b0 f7 87 b1 bd fd 0b 72 bd 5e 2a 9b 3b bb a7 95 ba
       -0.08668511 -0.059093464 0.004735275 -0.0011417785
0002c0 e7 2b 4d 3d 5c 29 2d 3d 9d 82 8e bd d1 09 97 bd
       0.050090697 0.04227577 -0.06958506 -0.07374919
0002d0 48 a8 a2 ba 32 7e 9a 3d 9a 5d 9e 3c cd 4f d8 3d
       -0.0012409771 0.07543601 0.019331742 0.10562096
0002e0 ad 4b 13 be 0c ca 97 3d 0d 82 84 3d e8 20 db bd
       -0.14384337 0.07411584 0.06470118 -0.10699636
0002f0 18 cc b5 bd 12 c9 0d 3e e9 e2 00 bd ca e8 6b bd
       -0.088768184 0.13846233 -0.0314664 -0.05759505
000300 38 28 d9 bd 79 e9 0b bd 3a 79 c7 bd 77 ca 8d bb
       -0.10603374 -0.034158204 -0.09739919 -0.004327114
000310 e8 ac 1c bc ab c3 d8 3d 84 9a b5 bc 50 5e e0 bc
       -0.009562708 0.10584196 -0.022168405 -0.027388722
000320 01 25 0e be 37 d5 1c be c6 89 85 3c a8 eb c5 bd
       -0.13881303 -0.1531571 0.016301047 -0.096640885
000330 b0 c1 9a 3d 0a cc de 3d 42 b0 6b bd 21 66 e8 bd
       0.07556474 0.10878761 -0.05754114 -0.113476045
000340 68 15 2e be 96 52 c9 bc 03 6b 91 bd c6 c0 9e bd
       -0.17000353 -0.024575513 -0.07100489 -0.07751612
000350 46 0d 52 3c 22 8d c7 bd 02 97 d1 3d ff 6c b2 bc
       0.012820547 -0.09743716 0.102338806 -0.021780489
000360 29 00 1c 3e 8d dc ac bd 3b 22 2b be 3f d4 dc 3d
       0.15234436 -0.08440504 -0.16712277 0.1078267
000370 bd 2d e8 bd 0f 9d 71 bc 0d 8e 06 be 8a 0c 90 3d
       -0.11336849 -0.014746918 -0.13140126 0.07033642
000380 80 c3 a9 3d 2e ce 9c 3c 5c 1a 85 bd 39 d9 e2 3c
       0.08289242 0.019141283 -0.06499168 0.02769147
000390 80 ae 29 3d 74 2d 04 3d 07 f9 ca 3c ab e4 8a bd
       0.04142618 0.03226991 0.024776949 -0.06781896
0003a0 bb d1 9a bd 4c d8 c2 3d 72 13 a0 bd d4 55 c9 3c
       -0.07559534 0.095139116 -0.07816209 0.024577059
0003b0 6c 04 59 b9 8c 80 7b 3d 45 17 fe 3d f8 29 5f 3d
       -0.0002069638 0.06140189 0.12406782 0.054483384
0003c0 8d 8b f4 bd 89 25 fd 3d 47 3c ae 3c fa cc 50 3d
       -0.1194068 0.12360675 0.021268977 0.05097673
0003d0 e6 15 3f bc e1 89 1a 3e 82 5f 3b 3d 52 ac 00 3e
       -0.011662936 0.15091659 0.04574538 0.12565735
0003e0 c5 f0 0e be e1 9f 76 3c 7b ae e1 bd d7 97 6a 3d
       -0.13959034 0.015052767 -0.11019608 0.057273712
0003f0 46 09 27 bd ba cb a0 bd 65 41 e7 bd 93 67 63 bd
       -0.04078033 -0.07851358 -0.1129177 -0.055518698

encoder.bias_ih_l1 f4 [50]
000000 0a 84 41 bb ad 5f c8 bc a4 7c 2b 3d 88 f5 a1 bd
       -0.0029528164 -0.024459684 0.041866913 -0.079081595
000010 02 01 54 3c 0e 78 7c 3d f9 52 12 3e ad 71 01 3e
       0.012939693 0.06163793 0.14289464 0.1264102
000020 2f 35 9b 3d 5d 53 47 bc 9d a9 f9 3d fd 76 78 bd
       0.07578503 -0.012165871 0.12190554 -0.06066035
000030 bf 02 74 3d 30 aa 4b bd 72 1c 7e bd af c8 10 bc
       0.05957293 -0.04972285 -0.062038846 -0.008836909
000040 13 c7 21 be 38 7e e6 3d 76 cc 21 3e 54 eb dc bb
       -0.15798597 0.11254543 0.15800652 -0.0067419205
000050 4d 3b 13 3e 97 6a 06 3e a1 78 86 3d b8 df 4f bd
       0.1437809 0.13126598 0.06565977 -0.050750464
000060 3e b4 0f 3e b0 f4 0c be 94 0d 9e bd bf ef e6 3d
       0.140336 -0.13765216 -0.077174336 0.11276197
000070 f8 b1 a0 3d 59 f4 91 bd 87 fb bd bd b7 04 db bd
       0.07846445 -0.07126684 -0.09276491 -0.10694259
000080 21 b0 f5 bd 47 5e 3e 3d 11 79 e6 3d e7 11 0d 3d
       -0.119964845 0.04647663 0.1125356 0.0344409
000090 86 d9 b5 bd dd f9 cb 3d 1a 8d 04 be e9 bb f9 bd
       -0.0887938 0.09959767 -0.12944451 -0.12194044
0000a0 61 8e fd 3c ea b1 81 bd a7 9c eb 3c 51 ca e6 3c
       0.03095168 -0.063327625 0.028761221 0.028172644
0000b0 aa 87 db 3d d2 41 d8 3d b8 46 ae bc 93 01 fe bd
       0.10719235 0.10559429 -0.021273956 -0.12402644
0000c0 60 e1 04 3e 0b c2 0e 3e
       0.12976599 0.13941209

encoder.bias_hh_l1 f4 [50]
000000 28 7d 37 bd 0d 43 22 3e 1c 00 9d bc 9f b6 72 bd
       -0.044797093 0.1584589 -0.019165091 -0.059256192
000010 8f 0b 01 be df d6 9f 3d 4a d9 f7 3d 71 5b e9 bd
       -0.12602066 0.07804655 0.121019915 -0.11394394
000020 0c 51 b2 3c 07 1b 93 bc 6a 7d 7c bc 75 b6 fa bd
       0.021767162 -0.017957224 -0.01541076 -0.12241832
000030 fb d3 ca 3c 2a d4 c3 3c cb dd 9c 3d 50 2e 26 3e
       0.024759283 0.023904879 0.07659491 0.16228604
000040 fb b7 11 be a8 56 b3 bd ed ec 6b 3c 90 21 9a bd
       -0.14230339 -0.08756763 0.014399749 -0.07525933
000050 de b9 77 bd 8b 7b 8b 3d cc 02 a4 3c 44 78 e4 3d
       -0.06047999 0.06810673 0.020020865 0.11155751
000060 9b ba fd 3d e4 e6 20 3d 2a 3a 1e 3e ff 45 65 3c
       0.12389108 0.039282694 0.15451875 0.013993739
000070 7d 28 1e 3d 89 90 17 3d c9 2f cb 3d 65 90 cc bd
       0.03861283 0.037003074 0.09921224 -0.099884786
000080 fe c6 bb 3d 4b 87 be bc cd 0f e1 bc 1a 84 c7 bd
       0.09168814 -0.023257872 -0.027473355 -0.09741993
000090 fe 2d 29 be 07 19 87 bd 2b 65 8b 3d ad 2d 42 bc
       -0.16521451 -0.065965705 0.06806406 -0.01185171
0000a0 04 d2 03 3d 87 8d c4 3d 56 d7 29 be a9 c5 26 be
       0.03218271 0.09597307 -0.1658605 -0.16286339
0000b0 c8 7d 76 bd 20 32 0f 3d 2c bf 86 bd 72 35 99 bd
       -0.060178548 0.034959912 -0.06579432 -0.07480897
0000c0 47 3e 1d 3e 59 eb 00 3e
       0.15355788 0.12589778

decoder.0.weight f4 [50, 52]
000000 2a da e1 3d 26 94 bb 3d a3 21 18 bd 10 6c ea bc
       0.110279396 0.091591164 -0.037141453 -0.028615981
000010 27 76 2a be 9d c6 8e 3d df ae 05 3e 34 df 8d 3d
       -0.16646634 0.06971476 0.1305499 0.06927338
000020 e4 95 24 3d b8 a2 14 be 44 48 ab bd c1 5f 81 bd
       0.04018201 -0.14515197 -0.08363393 -0.06317092
000030 f4 a6 1c 3e 07 9d 25 be 41 69 00 3e 85 87 ce 3d
       0.15298063 -0.16173182 0.12540151 0.10084442
000040 bb 02 1d bd f7 3d 34 3d 21 37 c0 bc 8c 98 6a 3d
       -0.038332682 0.044004407 -0.023463788 0.057274386
000050 5d 1f bf 3d 2c 80 29 3e da 44 1a 3e 02 38 04 bd
       0.09332154 0.165528 0.15065327 -0.032279976
000060 bb 8a 2b 3e b9 24 93 bd f2 29 5d 3d d7 83 2d bd
       0.1675214 -0.07184739 0.05399508 -0.04236206
000070 28 c4 f0 3d 4a 44 d3 3b c5 20 9c 3d d7 7c 15 3d
       0.11756164 0.0064473497 0.07623438 0.03649601
000080 34 dd 91 bd 28 27 3e 3d e1 eb 39 3e 5c 02 fb bc
       -0.07122269 0.04642406 0.18156387 -0.030640773
000090 23 8e 35 be da 13 c9 3c b6 20 61 bd 04 62 70 bc
       -0.17730002 0.024545599 -0.054962836 -0.014671806
0000a0 23 6a 62 bd 77 eb 35 bd 96 6d 0e be e2 2b ee bd
       -0.055277 -0.04441401 -0.13908991 -0.11629464
0000b0 dc 4f 2f 3d 0b 10 2b bd 19 e5 02 be df bb f9 bd
       0.04280077 -0.041763347 -0.12782706 -0.12194037
0000c0 0f 1c 74 3d 3a d6 50 bd 9c 93 5d bd 64 ec fc bc
       0.05959707 -0.050985552 -0.05409585 -0.030874439
0000d0 e4 60 73 3d 18 e5 f6 3c 03 0f 96 bd 92 f7 12 be
       0.059418574 0.030138537 -0.07327082 -0.14352253
0000e0 1a b2 56 3d fe 83 ad bd 66 ad cf 3d 8f 8f d2 3d
       0.052415945 -0.08472441 0.10140495 0.10281288
0000f0 85 3f c7 3c dc 1c d3 ba 7a 84 dc 3b 2f 0f e3 bc
       0.02432228 -0.0016106623 0.0067296596 -0.027717201
000100 6a 49 d4 3d 5c 20 ed bd 89 b8 68 3d b6 83 1b 3e
       0.10365565 -0.11578438 0.05681661 0.15186962
000110 38 51 c4 3c f6 a2 23 3e 1d f9 8a 3d cc 20 c7 3d
       0.02396451 0.15980133 0.06785796 0.097230524
000120 d1 d3 3e bd 6e cc f2 3d 9f f6 39 3e 19 b0 0c bd
       -0.046588723 0.11855398 0.18160485 -0.034347627
000130 da c3 0a 3e 1d fe 26 bd 4d 11 35 3d 22 7d 34 3e
       0.13551274 -0.040769685 0.044205952 0.1762586
000140 9c 7c 04 3e 4f 9f c2 bd b3 f4 87 bc da 1f a6 3c
       0.1293816 -0.09503042 -0.016596174 0.02027886
000150 93 b9 47 bc e0 7e bd 3d 4c 5f 23 3e 29 69 b3 3d
       -0.01219024 0.09252715 0.15954322 0.08760292
000160 09 3b d0 bd 2e 6a 70 3d fb 8e 64 3b 06 eb 35 3d
       -0.1016751 0.05869501 0.0034875262 0.04441359
000170 6e 95 24 3d 33 7c e6 bd 5c fd f3 bd 86 ec 3a 3d
       0.04018157 -0.11254158 -0.11913559 0.045635723
000180 55 46 0c 3e bd 6e 1b bc 74 6b 96 3d 93 12 bd bd
       0.13698705 -0.009486851 0.07344714 -0.092320584
000190 03 a7 3c bc 1e d2 3c 3e e4 d0 fe 3d 33 99 be 3c
       -0.011514428 0.18439528 0.124421865 0.02326641
0001a0 fc 18 75 bd c2 8c 63 bc 89 58 0e 3e d6 b0 90 bd
       -0.05983828 -0.01388854 0.13900961 -0.07064979
0001b0 a2 24 1b be c4 3e a9 bd 45 9f 18 3e 7a d1 03 3e
       -0.15150693 -0.08263925 0.14904507 0.12872878
0001c0 ed 39 28 3d a3 3a 4d 3d 91 8e 23 3e ed 23 63 3c
       0.041070867 0.05010475 0.15972354 0.013863546
0001d0 01 9e ed 3d 78 33 ba bd 5c 30 97 3d dd 57 9e bc
       0.116024025 -0.09091848 0.07382271 -0.019329006
0001e0 2f 2d 05 be dc 22 12 3e 45 05 8c 3d 7a 42 52 3d
       -0.13005517 0.1427111 0.068369426 0.05133293
0001f0 42 d3 03 bd c5 93 ee 3d 00 22 97 3d bf 2e d6 3d
       -0.032183893 0.116492786 0.07379532 0.10458135
000200 ce 6d 3b 3d af 32 59 bd f4 9d d4 bc 5d 55 a7 3c
       0.045759015 -0.05302685 -0.025954224 0.020426447
000210 4a c5 e2 3d 97 eb 2c bd 0b 43 5c bd 17 d3 6e 3b
       0.11072786 -0.042216863 -0.053774875 0.0036441737
000220 a7 30 ac bd 88 9f 90 3d 01 dd df 3d cb a6 da 3c
       -0.08407717 0.07061678 0.10930825 0.026690861
000230 25 ab a4 3c 8b 42 d6 bb 16 9c 5e 3d 17 b9 88 bc
       0.02010114 -0.0065386943 0.054348074 -0.01668982
000240 5d 87 54 3c 63 e1 cc bd 98 db 88 3d 0d 3c f2 3c
       0.012971726 -0.100039266 0.06682509 0.02956965
000250 ad 8d 10 3d b6 4c b9 3d 44 97 83 bd 5c 13 74 bb
       0.035291363 0.090478346 -0.06425336 -0.0037242984
000260 74 1f 76 bc 47 64 62 bd 64 59 86 bd e4 9c 3c bd
       -0.015022147 -0.055271413 -0.06560019 -0.04604806
000270 36 b9 7b 3c fa 26 be 3c c6 9e ed bd 7c 84 64 bc
       0.015363982 0.023211945 -0.11602549 -0.013947602
000280 26 38 15 be 03 b7 bf bd 8e d9 05 3e 51 24 ea bb
       -0.145722 -0.093610786 0.13071272 -0.0071454425
000290 63 8d 23 3d 19 cb 30 3d ac 6d 1e 3d 2a 01 ae 3d
       0.03992976 0.04316244 0.03867881 0.08496316
0002a0 40 29 d5 3c c5 92 1f be 82 09 3b bd 4b 26 42 3c
       0.026020646 -0.15583332 -0.045663364 0.01184995
0002b0 49 6c 9e bd 95 c2 cf 3b 6b 6d db 3d ed 29 09 3e
       -0.077354975 0.0063403347 0.10714229 0.133949
0002c0 9a 76 75 3b a4 4b 4d 3d 09 1f e6 bb 7d db ad bd
       0.0037454725 0.050120965 -0.0070227426 -0.0848913
0002d0 03 49 82 3d b5 28 6b bc 22 a8 82 3b a6 ae e7 bd
       0.06361582 -0.014352967 0.003987328 -0.113126084
0002e0 96 7a 8a bd fa 5a 01 3e 88 c4 ef bd ad 41 a5 3c
       -0.06761663 0.12632361 -0.11707407 0.020172918
0002f0 0b bb 4c bd c3 cd 8b 3d bf 53 c2 bd 90 a0 ce 3d
       -0.049983066 0.06826355 -0.094886295 0.100892186
000300 93 af 17 be 86 d8 89 bd 1c f6 92 bd e6 b5 e2 bc
       -0.1481307 -0.06730752 -0.07175848 -0.027674627
000310 46 20 02 3e b4 e0 8f bd c1 30 92 3d 71 97 04 be
       0.12707624 -0.070252806 0.07138205 -0.12948395
000320 d3 40 db 3d 31 7a cc bd b9 78 9c 3d ea 22 28 bd
       0.107057236 -0.09984244 0.076402135 -0.04104892
000330 97 f0 ab 3b f4 71 19 3b ca 2a 57 bc bf 03 9e bd
       0.0052471864 0.0023413869 -0.01313276 -0.07715558
000340 f6 3f c0 bc bc cc a1 3d 4e ca e4 3d f2 0c 9c bd
       -0.023467999 0.07900378 0.11171399 -0.076196566
000350 c1 ee e6 bd 4c de 47 3c 22 87 a6 3c 24 99 02 be
       -0.112760074 0.012198996 0.020328108 -0.12753731
000360 95 70 ec bc 97 51 dd bd b5 d1 78 3d 29 a6 f4 3d
       -0.028862277 -0.10806578 0.060746867 0.11945755
000370 ec 4e d9 bd 05 40 d3 3d b8 16 e5 3c c0 a5 c0 bd
       -0.10610756 0.10314945 0.027964935 -0.09406614
000380 ac a1 59 3d d8 17 af 3d 66 21 da bd 6a d2 0d 3d
       0.053132698 0.0854947 -0.106509015 0.034624495
000390 b5 37 2c bd ae 1b b5 3d 66 8c 8c 3d ec d4 05 3e
       -0.042045314 0.0884317 0.068627164 0.13069504
0003a0 ce 17 d8 3c e8 29 3b bc 94 5e 4a bd a0 b6 fd 3d
       0.026378538 -0.011423565 -0.049406603 0.123883486
0003b0 27 a1 a4 bb cc dd 96 3d 01 cc e7 3b e1 f4 ae bd
       -0.0050240937 0.07366523 0.0070738797 -0.08542801
0003c0 d9 5c c6 3d 51 a0 f7 3c 07 a9 9d 3d 64 d1 1f 3c
       0.09685678 0.030227812 0.07698255 0.009754512
0003d0 aa 40 b1 3c b8 97 43 bc 20 31 22 bd 5b 43 5b 3d
       0.02163728 -0.011938028 -0.03959763 0.053531032
0003e0 ed 6e 11 3d f2 5a b0 bd c0 22 d7 3c 5c 95 22 3c
       0.035506178 -0.086110964 0.026261687 0.009923305
0003f0 0e 34 45 3b f3 25 f4 bc 1e 63 33 be fd 57 da bc
       0.0030090841 -0.029803252 -0.17518279 -0.026653284

decoder.0.bias f4 [50]
000000 60 e5 b3 3d e3 a7 2c 3e 30 91 8b 3d 90 5b ad 3d
       0.08783984 0.16860919 0.06814802 0.0846473
000010 0c 3e 39 3d 20 44 72 bd d0 91 97 bd eb 3e 12 3e
       0.045225188 -0.059147 -0.074008584 0.14281814
000020 1b 03 ee 3c b7 78 ff 3d 6e c6 61 3c e6 39 3c bd
       0.029054215 0.124741964 0.0137802195 -0.045953654
000030 a2 03 ec 3d 94 cd e6 bd 0c 78 73 bd 42 3a 11 3e
       0.115241304 -0.1126968 -0.059440657 0.1418238
000040 8c e8 88 3d 4b fe ee 3c f8 e0 6e bd 00 88 07 3d
       0.0668498 0.02917399 -0.058320016 0.033088684
000050 58 2f 2a bd b8 86 86 3c 68 8f b1 bd bd 53 d6 ba
       -0.041549057 0.01642166 -0.08669931 -0.001635186
000060 13 51 94 bc 33 d6 b3 3d 3e b9 7e 3d 12 59 89 3d
       -0.018105065 0.0878109 0.06218838 0.06706442
000070 3c 64 13 3e 77 84 cf bd c6 20 0f bd d2 e1 af bd
       0.14393705 -0.101326875 -0.034943365 -0.08587994
000080 31 dd a3 bc 93 f1 2b 3e 8d 99 e7 3d 69 63 f5 bd
       -0.020002933 0.16791372 0.11308584 -0.119818516
000090 8b 29 91 3d 5f 7d ae 3d aa 3e 0b be 1b 20 c8 bb
       0.07088002 0.085200064 -0.13598123 -0.006107343
0000a0 b7 ca 8f bd 32 d8 34 bb 10 a6 fd 3d e5 c0 e6 3d
       -0.07021087 -0.0027594683 0.123851895 0.112672605
0000b0 c3 dd 14 be 25 3e 3f 3c c3 3d ef 3d 4d e5 09 3d
       -0.1453772 0.011672531 0.11681702 0.033665944
0000c0 5f 36 b7 3c fb 0f f5 3d
       0.022364793 0.11965939

decoder.2.weight f4 [50, 50]
000000 00 d5 d6 3d 17 ae cd bb f9 59 da 3c 0b 5f 11 3c
       0.10489845 -0.0062768566 0.02665423 0.008872758
000010 30 16 9a 3d 3e 51 24 3e 9c 9e 33 3e 04 ae 21 bd
       0.07523763 0.16046616 0.17540973 -0.039472595
000020 3b ff b7 3d 4f 60 00 3e f0 97 c1 bd f8 ce c0 3c
       0.08984228 0.12536739 -0.09452808 0.02353619
000030 ea 4f 71 bd 94 0f b9 3d 87 d6 29 3e ae a5 99 3d
       -0.058914103 0.090361744 0.16585742 0.07502304
000040 d1 ac 0b 3e 7f 30 59 bd d2 19 32 3e e9 99 d9 3d
       0.13640143 -0.053024765 0.17392662 0.10625059
000050 0e 8e 50 3d 69 f8 b5 3d 19 af fd 3d a6 c2 9e 3d
       0.050916724 0.08885271 0.12386913 0.0775197
000060 a3 d4 c5 bd 37 51 d4 bb f2 20 a7 bd 46 2f 1d 3e
       -0.09659698 -0.006479408 -0.08160581 0.15350065
000070 f6 e0 b4 bc 45 02 0c 3e 4f dc b3 3b c6 cd 1b 3e
       -0.022079926 0.13672741 0.0054889093 0.15215215
000080 8b 33 00 bd 11 00 8b bd 8b 97 3a bd b1 48 46 bc
       -0.031299155 -0.06787122 -0.04555468 -0.012102292
000090 eb b0 ae 3c f4 04 d0 bd 07 41 96 bd 59 f7 a6 bd
       0.021324595 -0.10157195 -0.07336622 -0.081526466
0000a0 af 35 8b bd 99 26 1b 3e 1f f4 0a bd 7c 0a cf bc
       -0.06797349 0.15151443 -0.03392422 -0.025273554
0000b0 f6 b2 75 3d ee 04 fb 3c fc 41 10 3e e7 d9 ac bd
       0.059985124 0.030642 0.14087671 -0.08439999
0000c0 b1 49 db bd 7d 50 86 3d 7e 8a 2f 3e df fd 12 3e
       -0.10707415 0.06558321 0.17142674 0.14354657
0000d0 e5 32 2c 3e d8 7e 63 bd 89 f8 3f 3e 89 29 12 3e
       0.1681629 -0.05554089 0.18747152 0.14273657
0000e0 f3 2b 1a 3e 9f 1e 9f bd f4 c0 b7 3d e4 35 a3 3d
       0.15055828 -0.077695124 0.0897235 0.07969263
0000f0 bf ee f3 3d e5 10 95 bd 19 e4 11 bd ae 2c c7 3d
       0.119107716 -0.07278613 -0.03561792 0.09725319
000100 d4 c9 b5 3d cc 17 35 3e f4 48 c7 bc 2c f9 9b 3c
       0.08876386 0.17684859 -0.024326779 0.019039713
000110 05 19 26 3e e4 d3 06 3e 19 25 1b 3c d7 d1 93 bb
       0.16220482 0.13166767 0.009469294 -0.004511099
000120 4a b4 d0 bc 8e df 3d 3e e7 70 b7 3c 80 ce dd 3d
       -0.025476594 0.1854231 0.022392703 0.108304024
000130 2f ed 7a bd 39 f0 4c bd c2 0a 55 3d 4f 18 3c 3d
       -0.061261352 -0.05003378 0.052012213 0.04592162
000140 14 24 17 bd c8 8b 80 bc 88 08 a6 bd a5 a8 86 bd
       -0.03689964 -0.015691653 -0.08107096 -0.06575135
000150 ea df 94 3d b5 02 9c 3d f3 24 17 3e 81 87 48 3c
       0.07269271 0.07617704 0.14760189 0.012239338
000160 4b 45 b1 3d c0 51 1e 3b a0 51 34 3e 4a 5b 85 bd
       0.08655795 0.0024157614 0.17609262 -0.06511553
000170 23 7e 10 3e 31 1c 4e bd b7 b9 03 3e 42 79 8a bd
       0.14110617 -0.050319854 0.12863813 -0.06761409
000180 c0 7b 1c bd 21 dd 4d bd e3 72 aa bd c4 61 50 3d
       -0.038203955 -0.050259713 -0.08322694 0.050874487
000190 ec c1 68 bd aa 67 07 3b a7 de e0 3d 23 d9 ec 3d
       -0.056825563 0.0020661154 0.109799676 0.11564853
0001a0 5b c0 93 bd 1b fb 46 3d 83 4a da bb 4e 4b 42 bd
       -0.07214423 0.048579317 -0.0066617145 -0.047435097
0001b0 d8 23 7b 3d cb 30 86 3d c4 fc db 3d 9f c4 b7 bd
       0.06131348 0.06552275 0.107415706 -0.08973049
0001c0 e6 20 2c 3d a1 cd bd bd c2 67 f6 3d 4e a6 bc 3d
       0.042023562 -0.09267736 0.12031509 0.092114076
0001d0 40 bb 2c 3e 81 88 38 ba 37 4f 53 bd 73 6c ab bc
       0.16868305 -0.00070393836 -0.051589217 -0.020925736
0001e0 bd 92 c3 3d 9b d9 7a bd 7d 1a 5a 3c 94 d4 30 3e
       0.095494725 -0.06124268 0.013311979 0.17268592
0001f0 95 a4 ca 3b 2e 35 c2 3d 19 de ea 3c 24 12 bc bd
       0.0061841705 0.094827995 0.028670358 -0.091831475
000200 0b 83 98 3d 14 a1 8c bd b4 9e 2e 3e c8 08 73 bd
       0.074468695 -0.06866661 0.17052728 -0.059334546
000210 37 50 cd bd 7c 95 19 bd 35 5f 23 3e 3f 1f a5 bd
       -0.100250654 -0.037496075 0.15954287 -0.080626
000220 7a 9b 6d 3c f5 a1 8e bd 0f 73 8f bd 96 78 86 3d
       0.0145024005 -0.069644846 -0.070043676 0.06565969
000230 3d 7a d9 3d 93 3d 2c 3e ed ab 9c bd 0c f8 03 3e
       0.10619018 0.16820364 -0.0764998 0.12887591
000240 2f f2 dc bd f3 8f 00 3e a6 76 b9 3d 97 f7 f8 3c
       -0.1078838 0.12554912 0.090558335 0.030391498
000250 26 af f8 3d e5 5f 1f 3d c6 75 0c 3d 83 10 c4 bc
       0.12142782 0.03890981 0.034292005 -0.023933655
000260 86 3a 96 bb e7 10 ac 3c b7 d6 02 3e 19 10 1a 3e
       -0.0045846133 0.021004153 0.1277722 0.15045203
000270 03 4e 86 bd 92 05 2b 3e e0 74 3b 3e 5e 4e 9e bd
       -0.06557848 0.16701344 0.18306303 -0.07729791
000280 ba db 9e 3d b6 6f fe bc c2 9e 84 3d 75 73 44 3d
       0.07756753 -0.031059127 0.06475593 0.04796167
000290 58 63 37 3d a8 af 95 3d 4b 19 65 bb 87 dd 5c bd
       0.044772476 0.073088944 -0.0034957703 -0.053922202
0002a0 e6 e8 f0 3d e4 17 f8 bc c2 9d 37 3e ca 76 8c bd
       0.11763172 -0.03028483 0.17931274 -0.06858595
0002b0 88 0d 05 3c 9c 65 9b bb 4d 0d 84 3d 28 a2 60 bd
       0.008120902 -0.0047423374 0.064478494 -0.054842144
0002c0 5f 42 73 3d 33 66 4a 3c 1f 9a 99 3d 61 54 96 3d
       0.05938947 0.012353468 0.075000994 0.07340313
0002d0 8b 69 68 3d 91 ee 6a 3d d0 e1 0a 3e 05 79 a6 bd
       0.05674128 0.05735642 0.13562703 -0.081285514
0002e0 8c 73 25 3e 83 b4 2b 3e 83 e2 75 bd df 88 84 3d
       0.16157359 0.16768079 -0.06003047 0.064714186
0002f0 e3 96 17 3e 56 9b f2 3d ac e4 27 3e ce 7a 63 bd
       0.14803652 0.11846034 0.16395825 -0.055537038
000300 62 08 ac bd ca 15 ab bc d9 5a 80 bd 27 58 d3 3d
       -0.084000364 -0.020884413 -0.06267328 0.10319548
000310 9e 6a 90 3c 32 4b fe 3d 19 94 9a bd e6 1a d2 3d
       0.017628964 0.12416686 -0.07547779 0.10259037
000320 83 57 f5 3d 30 e8 85 3d f8 c4 02 bd ba ee e3 3d
       0.11979582 0.06538427 -0.031926125 0.11129518
000330 82 b5 c4 bd ba c3 17 3e 3c a4 13 3e 21 17 13 3e
       -0.09604932 0.14820758 0.14418119 0.14364292
000340 e0 fd e2 3d 79 cf 82 bc 3e 8d 7a 3d 5f e5 48 3d
       0.11083579 -0.015968071 0.061169855 0.04904687
000350 06 e7 c5 3d dd c7 9d 3d fb 83 25 3e 87 b5 02 3e
       0.09663205 0.077041365 0.16163628 0.1276456
000360 c4 79 30 3e f5 69 50 3d 4b e9 4a bd d3 b8 40 3d
       0.1723395 0.0508823 -0.04953889 0.047051262
000370 b4 bd 41 3d 1d 8c 38 3e 2d d3 7c 3d 96 32 bb 3d
       0.047300056 0.18022199 0.06172483 0.09140508
000380 42 74 f2 3d ba 26 96 bd 6b bf 20 3e b9 a4 63 3c
       0.11838581 -0.07331605 0.1569802 0.013894253
000390 b4 8b 2d bd af 4c 9c bd 2d 01 35 3d b1 07 93 3d
       -0.04236956 -0.07631814 0.044190574 0.071792014
0003a0 ea 07 0d 3e 5a c5 31 bc 5b d4 88 bc 00 d9 80 3d
       0.1377255 -0.010850275 -0.016702821 0.062913895
0003b0 f2 dc 98 bc 0c d5 a7 bd b0 63 42 3d ae f1 fb 3d
       -0.018660042 -0.08194932 0.04745835 0.12301956
0003c0 4a 03 73 bc 41 53 8a 3d 49 e2 e8 3d 0d 3e 8f bc
       -0.014832327 0.06754161 0.113712855 -0.017485643
0003d0 d7 19 42 3d f6 73 11 3e ec d6 4c 3c 7c 85 a1 bc
       0.047387924 0.14204392 0.012502413 -0.01971697
0003e0 5c 50 0c 3e 3b 5d a1 bd 93 dc 04 be 9f 41 a2 3d
       0.1370253 -0.078791104 -0.12974767 0.079226725
0003f0 14 13 1f be 53 5e c6 bd f2 c1 78 3d 44 0b bc 3d
       -0.15534621 -0.0968596 0.060731836 0.09181836

decoder.2.bias f4 [50]
000000 c8 a8 ce bd a4 46 3d 3e 0d ff 3a bd 62 b6 fe 3d
       -0.10090786 0.18483979 -0.04565339 0.124371305
000010 86 41 13 bd 28 6c 7c 3d 03 ab 71 3d 9f a3 09 3e
       -0.03595116 0.061626583 0.05900098 0.13441323
000020 85 32 06 be ad 82 da 3d a6 c1 84 3d 11 40 77 bd
       -0.13105209 0.10669456 0.06482248 -0.060363833
000030 da 00 e6 bd bb 61 a8 3d 78 bf 03 3d 13 b7 ef 3d
       -0.11230631 0.082217656 0.03216502 0.117048405
000040 68 60 ed bd f9 52 8c bd 6d e6 2f 3e 64 1a 15 be
       -0.11590654 -0.06851763 0.17177744 -0.14560848
000050 56 2e 57 bd 58 3f 39 3d b0 81 b1 3d 64 4b d3 bd
       -0.052534424 0.045226425 0.08667314 -0.10317114
000060 e6 4a d3 bd 14 0c 46 bd 35 bd 51 bd e2 80 18 be
       -0.1031702 -0.048351362 -0.051205833 -0.14892915
000070 c9 66 a4 3d 3f c7 bd bd c4 37 b3 bc 6d 5d a2 bd
       0.08027417 -0.09266519 -0.021877177 -0.07927976
000080 84 21 c7 3c b2 ff db 3d 27 6c 43 3d 95 46 12 3e
       0.024307974 0.107421294 0.047710564 0.14284737
000090 f4 f7 db 3d fa ed 2c bd 40 78 12 be 78 25 29 3e
       0.10740653 -0.04221914 -0.14303684 0.165182
0000a0 7c 49 11 3e a1 77 ae 3d a3 c1 a1 3d 6a bd 46 3d
       0.14188188 0.08518911 0.078982614 0.048520483
0000b0 86 8f 11 bd 6e b1 94 bd 56 83 2a 3b 6f 36 ea 3d
       -0.035537265 -0.072604045 0.0026018224 0.11436164
0000c0 38 d1 9c bd a0 34 2c 3e
       -0.07657093 0.1681695
