week1/1.3/closed_loop_trained_model.pth (torch, 24835 bytes, 8 tensors)

net.0.weight f4 [50, 4]
0	0xbf94e94a	-1.1633694
1	0x3f014eb9	0.50510746
2	0x3de953ef	0.11392962
3	0x3f3090c2	0.6897088
4	0xbf2d44a1	-0.67682844
5	0x3f3a78f7	0.7284083
6	0xbf0b2f5a	-0.5436913
7	0x3cbb30c3	0.0228504
8	0xbee2c7f4	-0.44293177
9	0xbf0e5215	-0.55594
10	0x3e986a54	0.29768622
11	0x3ea1d846	0.31610316
12	0xbed4bd70	-0.4155078
13	0xbfd5f99b	-1.6716799
14	0x3ec67a6f	0.38765284
15	0x3d59bbf6	0.05315777
16	0xbe9ff005	-0.31237808
17	0x3f32844e	0.6973313
18	0xbea2ebd1	-0.3182054
19	0x3c95f9b8	0.018307552
20	0xbf2dc17b	-0.6787335
21	0x3f315e20	0.6928425
22	0xbf0ed999	-0.5580078
23	0x3f3958cc	0.7240112
24	0xbf6f97da	-0.9359108
25	0x3d99069d	0.074719645
26	0x3df2cd42	0.11855556
27	0x3f2df897	0.67957443
28	0x3f9b3f46	1.2128685
29	0x3df2dd23	0.11858585
30	0xbdca3147	-0.0987268
31	0xbf275254	-0.6536
32	0x3f6db527	0.9285454
33	0x3f667404	0.90020776
34	0xbeae1c86	-0.34006137
35	0xbf274fa4	-0.65355897
36	0x3f82f8c4	1.0232167
37	0x3d17aaaa	0.037027992
38	0x3e10edf2	0.14153269
39	0xbf2a89ad	-0.66616327
40	0xbf4f2bc5	-0.8092616
41	0xbe7af87c	-0.24508852
42	0xbcf2a20b	-0.029618284
43	0x3f204597	0.62606186
44	0x3f4a5161	0.79030424
45	0xbf550e5c	-0.83225036
46	0x3f151394	0.58233
47	0xbd92ca67	-0.071675114
48	0xbef19365	-0.47182766
49	0x3f9db1eb	1.2319921
50	0xbf67c3c4	-0.9053309
51	0x3e06b467	0.13154756
52	0x3f7fad17	0.9987349
53	0xbf8fbc18	-1.1229277
54	0x3f0770b2	0.52906334
55	0xbf208182	-0.62697613
56	0x3f62a73c	0.8853643
57	0x3ea7daa9	0.32784012
58	0xbd6a9b13	-0.057276797
59	0xbed71a48	-0.42012239
60	0x3f97c6ce	1.1857545
61	0xbf29918d	-0.6623772
62	0x3ec5f603	0.38664255
63	0xbf0e995f	-0.55702776
64	0x3f9bd979	1.2175742
65	0x3f0ae995	0.5426267
66	0x3eda3e94	0.42625868
67	0xbe00791b	-0.12546198
68	0xbe965b05	-0.29366317
69	0xbe2de514	-0.16981918
70	0x3ebb1b64	0.36544335
71	0x3f2bfba5	0.67180854
72	0x3f44b423	0.76837367
73	0xbf900c94	-1.1253839
74	0x3f3c9671	0.73667055
75	0xbeb60524	-0.35550797
76	0xbf6bf845	-0.92175704
77	0x3f14bfae	0.5810498
78	0xbd2adbba	-0.041713454
79	0x3ea72870	0.3264804
80	0xbf6cd140	-0.9250679
81	0x3f8f3d7c	1.1190639
82	0xbf0ab707	-0.5418553
83	0x3f300337	0.68754905
84	0x3f799ace	0.9750184
85	0x3e7164ac	0.2357356
86	0xbeda32a6	-0.42616767
87	0xbf215009	-0.6301275
88	0xbf5c3634	-0.8602021
89	0xbf974e75	-1.1820818
90	0x3f151796	0.58239114
91	0x3e465f60	0.1937232
92	0xbe0cdca6	-0.13756046
93	0xc000f44d	-2.014911
94	0x3f728d67	0.9474701
95	0xbea72728	-0.3264706
96	0xbf1499de	-0.5804728
97	0xbed9afb5	-0.42516866
98	0x3dcad151	0.09903205
99	0x3e2ba2eb	0.16761367
100	0x3f48eae5	0.7848342
101	0xbf0664a2	-0.52497303
102	0x3ed5248e	0.41629452
103	0xbf1ce842	-0.612919
104	0x3ee4bd16	0.4467551
105	0xbf8ee865	-1.1164671
106	0x3f235538	0.6380191
107	0xbeb0bc7f	-0.3451881
108	0x3f83764c	1.0270476
109	0x3f6fe290	0.9370508
110	0xbe3d1da8	-0.18468344
111	0xbeb15058	-0.3463161
112	0x3f90809b	1.1289247
113	0xbe4c93f0	-0.19978309
114	0xbe04fb68	-0.12986529
115	0xbf30204d	-0.6879929
116	0xbf94740b	-1.1597914
117	0xbe277d7a	-0.1635646
118	0x3e5ccf3e	0.21563432
119	0x3ed05623	0.40690717
120	0xbf5d2bb0	-0.86394787
121	0xbeeb804e	-0.45996326
122	0x3d5f9271	0.054583017
123	0x3f43e95c	0.76527953
124	0xbdd23d24	-0.10265568
125	0x3febb494	1.8414483
126	0xbf2882a4	-0.6582434
127	0x3f32732d	0.69706994
128	0x3f2c64d2	0.6734134
129	0xbf232a7f	-0.6373672
130	0x3e57acbf	0.21061991
131	0xbe140138	-0.1445359
132	0xbf6209ea	-0.8829638
133	0x3bcdadc9	0.0062768203
134	0x3e79676e	0.24355862
135	0x3f4b075e	0.79308116
136	0x3f3450bb	0.70435685
137	0xbf9a0da0	-1.2035408
138	0x3ef13174	0.47108042
139	0xbf13d506	-0.5774692
140	0xbf06a6a1	-0.52598006
141	0x3db05441	0.0860982
142	0xbf020ccf	-0.50800794
143	0x3eacbe74	0.33739054
144	0xbf4049ce	-0.75112617
145	0x3f666c44	0.9000895
146	0xbea0951b	-0.31363758
147	0x3eafbc02	0.34323126
148	0x3dc79c3f	0.097465985
149	0xbfade75d	-1.3586231
150	0x3f6a335d	0.91484624
151	0xbe3bc486	-0.18336686
152	0xbf4c4153	-0.79787177
153	0x3f83653f	1.0265273
154	0xbee95b15	-0.45577303
155	0x3f095bb4	0.5365555
156	0x3f70f0b5	0.9411729
157	0x3e4887fe	0.19583127
158	0x3f1a8981	0.60366064
159	0xbf123544	-0.57112527
160	0x3f86d653	1.0534157
161	0xbead7668	-0.338794
162	0x3e35a664	0.17739254
163	0xbf328548	-0.6973462
164	0x3f846bc5	1.0345389
165	0xbf18b839	-0.596561
166	0x3e266adc	0.16251701
167	0xbf15cedd	-0.58518773
168	0x3f834bef	1.0257548
169	0x3ee01323	0.437646
170	0xbe9eeed1	-0.31041577
171	0xbe99bde6	-0.30027694
172	0x3f87d987	1.0613259
173	0xbf155401	-0.58331305
174	0x3e8caea9	0.27477005
175	0xbef97048	-0.48718476
176	0xbefae156	-0.49000043
177	0x3fcb6ee3	1.5893215
178	0xbea5934a	-0.32338935
179	0x3e44f57b	0.19234268
180	0xbefefb8e	-0.49801296
181	0x3f954269	1.1660892
182	0xbe73f3cf	-0.23823474
183	0x3f0d9a93	0.55313987
184	0x3f1e5e37	0.6186251
185	0xbf1fce64	-0.624243
186	0x3ecab6d4	0.39592612
187	0xbde42fa2	-0.11141898
188	0xbf82d4bd	-1.0221173
189	0x3ed1536f	0.40883967
190	0xbe88f2a8	-0.26747632
191	0x3f0c7df8	0.54879713
192	0xbf290389	-0.6602102
193	0x3fa4411e	1.2832372
194	0xbee306b7	-0.4434106
195	0x3e9f1c91	0.31076482
196	0xbf95bf7e	-1.1699064
197	0x3e2536d2	0.16134194
198	0x3d7a71f2	0.061143823
199	0x3f17dff6	0.5932611

net.0.bias f4 [50]
0	0x3d682aa8	0.056681305
1	0x3e349e61	0.17638542
2	0x3e05d1c7	0.13068305
3	0xbda85cae	-0.08220802
4	0xbedd3b49	-0.43209293
5	0xbe9f9bb5	-0.31173483
6	0x3dc0bdf0	0.09411228
7	0xbe8d880a	-0.27642852
8	0xbeccb508	-0.39981866
9	0xbe7bf577	-0.24605356
10	0x3e554c5a	0.20829907
11	0x3c82316d	0.015892709
12	0xbee4b210	-0.446671
13	0x3e3d3274	0.18476278
14	0xbeb5c9e4	-0.35505593
15	0x3e19f714	0.15035659
16	0xbe32e2f6	-0.17469391
17	0x3e3039a1	0.17209484
18	0x3e65ffbb	0.22460835
19	0x3d2db4f0	0.042408884
20	0xbe9d339a	-0.3070343
21	0xbefe7a1c	-0.49702537
22	0x3ea8cf34	0.32970583
23	0x3f055db5	0.5209611
24	0x3def0145	0.11670164
25	0x3cf2e316	0.029649299
26	0x3d960a2d	0.073261596
27	0xbe86ddcb	-0.2634109
28	0xbead134b	-0.33803782
29	0x3e88197c	0.26581943
30	0x3e7b8d96	0.2456573
31	0xbf01c364	-0.5068877
32	0xbe82963d	-0.25505248
33	0x3ea8a28e	0.3293652
34	0xbe0c04f9	-0.13673772
35	0xbed130af	-0.40857455
36	0xbe267998	-0.16257322
37	0x3e217670	0.15767837
38	0x3d00483e	0.031318896
39	0x3e298372	0.16554049
40	0xbd21f756	-0.03954252
41	0xbe3d5a35	-0.18491443
42	0xbec7096b	-0.38874373
43	0xbdb88bff	-0.09011077
44	0xbe683a93	-0.22678594
45	0xbe2f5eab	-0.17125957
46	0xbeadbaf2	-0.3393169
47	0xbe65497d	-0.22391315
48	0xbe3be655	-0.18349583
49	0xbd8390fe	-0.064241394

net.2.weight f4 [50, 50]
0	0x3d077541	0.033070806
1	0xbde2e7d1	-0.11079372
2	0x3d92e604	0.07172778
3	0x3eadbe54	0.3393427
4	0x3d00dfc5	0.031463403
5	0xbcd0e01a	-0.025497485
6	0x3e7ea40a	0.24867263
7	0xbe820494	-0.25394118
8	0xbe91daab	-0.28487143
9	0xbde71c43	-0.11284687
10	0x3db83d59	0.08996076
11	0x3ddca88a	0.10774334
12	0xbeb515b3	-0.35368118
13	0x3eb7cf1a	0.35900193
14	0xbddb1ab9	-0.10698456
15	0x3d421777	0.04738566
16	0xbe90d344	-0.28286183
17	0x3e4fb653	0.20284395
18	0x3e42f8da	0.19040242
19	0xbd1d7b6a	-0.038447775
20	0xbeab15b0	-0.33414984
21	0xbe48f3cc	-0.19624251
22	0x3e99657b	0.29960236
23	0x3ee332bc	0.44374645
24	0x3e6eb5e9	0.2331158
25	0x3e68d139	0.22736062
26	0x3ebd7a7f	0.3700752
27	0xbedbcfb1	-0.42931893
28	0xbe372f94	-0.17889243
29	0x3ea6a5d2	0.32548386
30	0x3e02075b	0.12698118
31	0xbf0787d9	-0.5294166
32	0x3d4a7c5b	0.049435
33	0x3d40fdd3	0.047117066
34	0x3e97d487	0.29654333
35	0xbdddc19e	-0.10827945
36	0xbe321204	-0.17389685
37	0x3e8db082	0.27673727
38	0xbe79f44c	-0.24409598
39	0xbd8b77ec	-0.06809983
40	0x3e000113	0.1250041
41	0x3e9fb7be	0.31194872
42	0xbe7faed6	-0.24969038
43	0x3dc60ba3	0.09670188
44	0xbe8f42f3	-0.27980766
45	0xbeb6d51f	-0.35709473
46	0x3e089002	0.13336185
47	0x3b64ca98	0.0034910794
48	0xbe72d685	-0.23714645
49	0x3e4a9572	0.19783571
50	0xbe8bd6f0	-0.27312422
51	0xbde3fa59	-0.111317344
52	0xbd54e0f5	-0.05197235
53	0xbe9b35c1	-0.30314448
54	0xbdebea68	-0.11519319
55	0xbe112866	-0.14175567
56	0xbe876502	-0.2644425
57	0x3c375c0b	0.011191378
58	0x3e3e0b47	0.1855899
59	0xbd9bdf4a	-0.076109484
60	0xbe44da4b	-0.19223897
61	0xbe68d31a	-0.22736779
62	0xbda0b609	-0.078472205
63	0xbd36fd9f	-0.044675466
64	0x3e36fd52	0.17870072
65	0xbe2919da	-0.16513768
66	0x3e02fa73	0.12790851
67	0xbe56cea1	-0.2097726
68	0xbe75ef49	-0.24017061
69	0xbe2efaf9	-0.17087926
70	0xbdd829b0	-0.10554826
71	0x3c96c45c	0.018404178
72	0xbe41033b	-0.18848889
73	0xbe5d2593	-0.21596365
74	0xbe47e6ee	-0.19521686
75	0x3d4455ca	0.047933377
76	0xbb26f739	-0.0025476946
77	0x3d23a9ae	0.03995674
78	0xbbb93804	-0.0056524295
79	0xbe766ccc	-0.2406494
80	0xbd500ba4	-0.05079235
81	0x3db46087	0.08807474
82	0xbdd71dc4	-0.10503724
83	0xbe6f2917	-0.23355518
84	0xbc8f8758	-0.017520592
85	0xbe5bc72f	-0.21462701
86	0xbdcd159f	-0.100138895
87	0xbd8dd109	-0.06924636
88	0xbe10a12b	-0.1412398
89	0x3be64e9d	0.0070284144
90	0xbd217abc	-0.03942369
91	0xbc9a7392	-0.018853936
92	0xbd0c2d3e	-0.034222834
93	0xbe10cff4	-0.14141828
94	0x3d1a1955	0.037621815
95	0xbe39c887	-0.18142901
96	0xbd5d12b9	-0.053972933
97	0xbe097ff6	-0.1342772
98	0xbde7420b	-0.112918936
99	0xbdb652f8	-0.08902544
100	0xbef64a1a	-0.4810341
101	0xbe704c23	-0.23466544
102	0x3cb9fc87	0.022703422
103	0x3df29e80	0.11846638
104	0xbe162e8c	-0.14666194
105	0xbeb8c8c1	-0.36090663
106	0xbea5bf8e	-0.32372707
107	0x3e9f4bef	0.3111262
108	0xbdae2bf7	-0.085044794
109	0x3e694dc3	0.2278357
110	0xbe334586	-0.1750699
111	0x3e615b6a	0.22007528
112	0xbeb86e46	-0.36021632
113	0x3ec5c235	0.3862473
114	0x3e775445	0.2415324
115	0x3e40e0af	0.1883571
116	0x3e7ffc7c	0.24998659
117	0xbdf346b9	-0.11878724
118	0x3ebbc11d	0.3667077
119	0xbed42e90	-0.41441774
120	0xbf10348d	-0.56330186
121	0x3d93fbae	0.072257385
122	0x3d0acc60	0.033886313
123	0x3ecec8b1	0.4038749
124	0x3d3ba13e	0.04580807
125	0x3e987186	0.29774112
126	0x3e8722cd	0.26393738
127	0x3e0a1c34	0.13487321
128	0x3ec99e7c	0.39378726
129	0xbe506810	-0.20352197
130	0xbe1a3b6e	-0.15061733
131	0xbea28385	-0.31740966
132	0x3e740694	0.23830634
133	0xbe71c031	-0.23608471
134	0x3efbca41	0.49177745
135	0xbe1bfd4b	-0.15233342
136	0xbee1b82e	-0.4408583
137	0x3dcc2144	0.099672824
138	0xbeb66580	-0.35624313
139	0x3dbad0a0	0.09121823
140	0x3e4bb014	0.19891387
141	0x3ebb9ca5	0.36642948
142	0x3e34d486	0.17659196
143	0x3e65e6e1	0.22451355
144	0xbeef2bcf	-0.4671311
145	0xbeeec369	-0.4663346
146	0x3e351635	0.17684253
147	0xbec593e2	-0.38589388
148	0xbe99c966	-0.30036467
149	0xbebabbe8	-0.36471486
150	0xbef9106c	-0.4864534
151	0xbe50c749	-0.20388521
152	0x3d807328	0.06271964
153	0x3d8557ae	0.06510864
154	0x3d108012	0.035278387
155	0xbe5b25bf	-0.21401118
156	0xbe50321a	-0.20331612
157	0x3ea6db9c	0.32589424
158	0x3e9004b2	0.28128582
159	0x3ed4b2bb	0.4154261
160	0xbdd4371f	-0.10362076
161	0x3ea84cf8	0.32871222
162	0xbe64be4e	-0.2233822
163	0x3ee94faa	0.4556859
164	0x3e4f9429	0.20271362
165	0x3ed51399	0.41616514
166	0x3e2b5ac7	0.16733848
167	0xbe63cdbc	-0.2224645
168	0x3deae7f7	0.11470025
169	0xbea91d73	-0.3303028
170	0xbef39ef9	-0.47582224
171	0x3eb4acee	0.35288185
172	0xbdd71a45	-0.105030574
173	0x3e74b3ed	0.23896761
174	0xbe2293f4	-0.15876752
175	0x3ea72c75	0.32651106
176	0x3dba440b	0.090950094
177	0x3e194d20	0.14970827
178	0x3f055291	0.5207911
179	0xbebd61b1	-0.36988595
180	0xbe5a630d	-0.21326847
181	0xbea1d9d2	-0.31611496
182	0x3e062ed1	0.13103797
183	0xbeacf8fd	-0.33783713
184	0x3e4f67b9	0.20254411
185	0xbe6674db	-0.22505514
186	0xbe5e32ea	-0.2169911
187	0x3cf76621	0.030200066
188	0xbe2cafab	-0.16863887
189	0x3eb24961	0.3482161
190	0x3ea09a0a	0.31367522
191	0x3ec7345b	0.38907132
192	0x3e0168ac	0.12637585
193	0x3e650a2c	0.22367162
194	0xbebcd990	-0.36884737
195	0xbe84cd78	-0.2593801
196	0x3e83aff1	0.2572017
197	0xbec6f73b	-0.38860497
198	0xbeaa2089	-0.33227947
199	0xbf05c7a7	-0.5225777
200	0xbef94245	-0.48683372
201	0xbe6a3942	-0.22873405
202	0xbcf09bd4	-0.02937118
203	0x3d97bc2d	0.074089386
204	0x3d69ad0d	0.0570498
205	0xbe1dfb34	-0.15427858
206	0xbe355c21	-0.17710926
207	0x3ebdb803	0.37054452
208	0x3e5c69a9	0.21524681
209	0x3eaa9776	0.3331868
210	0xbe596e6f	-0.21233533
211	0x3e010bb4	0.1260212
212	0xbe5b1702	-0.21395496
213	0x3ea87385	0.32900634
214	0x3e4d79b0	0.20065951
215	0x3ecb86de	0.39751333
216	0x3e70b223	0.23505454
217	0x3d5c46e9	0.053778563
218	0x3e87494b	0.26423106
219	0xbe975c69	-0.2956269
220	0xbecbdeb1	-0.39818338
221	0x3e164abf	0.14676951
222	0xbc8ece60	-0.017432392
223	0x3e42dd1a	0.19029656
224	0x3d7c338d	0.0615726
225	0x3ebe56f7	0.37175724
226	0x3e584778	0.21121013
227	0x3e500de6	0.20317802
228	0x3ee9a53e	0.45633882
229	0xbebcb674	-0.3685795
230	0xbe838ac6	-0.25691813
231	0xbe3be144	-0.18347651
232	0x3e53b860	0.20675802
233	0xbe6d69fa	-0.23184958
234	0x3e5ecafc	0.2175712
235	0xbdbfc9ed	-0.09364686
236	0xbe969686	-0.29411715
237	0xbc63216d	-0.01386295
238	0xbe9b3c32	-0.30319363
239	0x3e7cb70c	0.24679202
240	0x3ecc7eb4	0.39940417
241	0x3e605c8d	0.21910305
242	0x3e3b3161	0.18280555
243	0x3eb9ff07	0.36327383
244	0xbeaea68b	-0.34111437
245	0xbe747e7f	-0.2387638
246	0x3de5c450	0.11219084
247	0xbe9dfb52	-0.30855805
248	0xbe854c4d	-0.26034775
249	0xbef30b3b	-0.47469506
250	0xbdcc93e6	-0.09989147
251	0xbe4b9d2f	-0.1988418
252	0xbd711bf1	-0.058864538
253	0x3e4de18d	0.20105572
254	0xbe64fcb7	-0.22362028
255	0xbdfa14af	-0.12210976

net.2.bias f4 [50]
0	0x3d55cd7f	0.05219793
1	0x3a273f1b	0.0006379948
2	0xbca44655	-0.020053068
3	0x3d8564a6	0.06513338
4	0x3d9a5287	0.07535272
5	0xbde59149	-0.112093516
6	0xbdf45721	-0.11930681
7	0xb9e4b796	-0.0004362433
8	0xbd927ae4	-0.07152346
9	0xbe1709bd	-0.14749809
10	0x3d39f128	0.045396
11	0xbd336b76	-0.043803655
12	0xbcc75230	-0.024331182
13	0x3ccbf421	0.024896683
14	0xbd30e991	-0.043191496
15	0x3de260b4	0.11053601
16	0xbba53a9f	-0.0050423886
17	0xbd87ce29	-0.06631119
18	0xbe310f3c	-0.17290968
19	0xbdebbb68	-0.11510354
20	0xbd86fc0f	-0.06591045
21	0x3d9a6af3	0.0753993
22	0xbd1cac00	-0.03824997
23	0xbd8a951d	-0.06766722
24	0xbe935d05	-0.28781906
25	0xbdbb5ef0	-0.09148967
26	0x3e7c569d	0.24642415
27	0xbe01c43f	-0.12672518
28	0x3e3484d9	0.17628802
29	0xbdb911f1	-0.09036625
30	0xbd96acee	-0.073572025
31	0x3dc8dc9b	0.09807702
32	0x3c884866	0.016636085
33	0x3d83dd21	0.06438661
34	0xbbac7117	-0.005262505
35	0x3de6bb3a	0.112661794
36	0xbda69ceb	-0.081353985
37	0xbe21aa51	-0.15787627
38	0xbe01d310	-0.1267817
39	0x3aad1de2	0.0013207758
40	0xbda7e850	-0.08198607
41	0xbe314bd6	-0.17314085
42	0xbaaa4a80	-0.0012992173
43	0x3e688de6	0.2271038
44	0xbca92186	-0.020645868
45	0x3d82e13e	0.06390618
46	0xbd86f64f	-0.065899484
47	0x3db581e7	0.088626675
48	0x3c194ff8	0.009357445
49	0x3d08c208	0.033388168

net.4.weight f4 [50, 50]
0	0xbe0eea2e	-0.1395652
1	0x3d8cacf3	0.06868925
2	0xbe120875	-0.14261039
3	0xbe111c20	-0.14170885
4	0xbe0ce999	-0.13760985
5	0xbe0c1479	-0.13679685
6	0xbe423818	-0.1896671
7	0x3d99b86f	0.07505881
8	0xbdd05fdf	-0.10174536
9	0xbe7be7bc	-0.24600118
10	0x3d05c215	0.032655794
11	0xbddd7c69	-0.10814745
12	0xbd96b191	-0.07358087
13	0xbde4f142	-0.11178829
14	0xbdcd18fc	-0.10014531
15	0xbda52b63	-0.08064916
16	0xbcc30099	-0.023803996
17	0xbe2c33dd	-0.1681666
18	0x3d258486	0.040409587
19	0xbd2db928	-0.042412907
20	0xbe31008e	-0.17285368
21	0xbe2d5f27	-0.16930829
22	0x3d655192	0.055985995
23	0x3d8baa7c	0.06819627
24	0xbe200490	-0.1562674
25	0xbd3a9ce8	-0.045559794
26	0xbd2c7ed5	-0.042113144
27	0xbe2d03b6	-0.16895947
28	0xbe1df173	-0.15424137
29	0xbe556dda	-0.20842686
30	0xbe0c963b	-0.13729183
31	0xbce892fa	-0.028390396
32	0xbe4d0ba1	-0.20023967
33	0xbe780e8d	-0.242243
34	0x3ca71dc4	0.020399936
35	0x3d7af57a	0.06126926
36	0xbd1aead8	-0.03782162
37	0xbdbd7020	-0.09249902
38	0xbd477435	-0.048694808
39	0xbddec73d	-0.108778454
40	0xbe1a06e4	-0.15041691
41	0xbc3b45b7	-0.0114301955
42	0xbd2fef1a	-0.042952634
43	0x3d899f7f	0.067198746
44	0xbcaa9f45	-0.020827899
45	0xbde76939	-0.112993665
46	0xbe05c02f	-0.13061593
47	0xbe4b93af	-0.19880556
48	0xbbc5c3cf	-0.006035305
49	0xbbbdb63e	-0.005789547
50	0xbd267518	-0.040639013
51	0xbd32018e	-0.043458514
52	0x3e2eaef8	0.17058933
53	0x3d3cb1a3	0.046067845
54	0x3e2da5ca	0.16957775
55	0x3c476af7	0.0121714985
56	0x3ddb7230	0.10715139
57	0x3d406ab0	0.046976745
58	0x3d8e307d	0.06942842
59	0x3e02c905	0.12771995
60	0x3d0ca804	0.03433992
61	0xbd56f0ae	-0.052475624
62	0xbd1239ce	-0.035699658
63	0x3da98a70	0.08278358
64	0xbd85f22c	-0.06540331
65	0x3ba69620	0.0050838143
66	0xbe390703	-0.18069081
67	0x3d791072	0.0608067
68	0xbd98dd21	-0.07464052
69	0xbb80a8b9	-0.0039263633
70	0x3ace7734	0.0015752078
71	0x3d4d750f	0.050160464
72	0x3d6c2011	0.05764777
73	0xbdc34bd9	-0.09535951
74	0x3c9dd9fd	0.019268984
75	0x3dffe487	0.1249476
76	0xbd9b4264	-0.075810224
77	0x3dccc537	0.09998553
78	0xbcaadaea	-0.02085634
79	0x3e39279b	0.18081515
80	0x3c434bba	0.01191991
81	0xbe25c172	-0.16187075
82	0x3d312e96	0.04325732
83	0xbdbef7b5	-0.0932459
84	0x3dd3f43a	0.10349317
85	0x3db32afd	0.08748434
86	0x3ca3cd27	0.019995285
87	0xbcd5e583	-0.026110416
88	0x3d867af1	0.06566418
89	0xbe0abb81	-0.1354809
90	0xbd595096	-0.05305537
91	0x3ca38c07	0.019964231
92	0xbce00f1d	-0.027350957
93	0xbdf00b5d	-0.117209174
94	0x3e396779	0.18105878
95	0x3bf093cf	0.007341839
96	0xbdbec387	-0.09314638
97	0x3e06f745	0.13180263
98	0x3df5ab6a	0.11995585
99	0x3db2ded0	0.08733904
100	0xbe83dd5e	-0.25754827
101	0xbdfa03b0	-0.122077346
102	0xbe99c074	-0.30029643
103	0xbe249fca	-0.1607658
104	0xbd3a6516	-0.04550656
105	0xbdb91e60	-0.09038997
106	0xbe378e17	-0.17925297
107	0x3e0be190	0.13660264
108	0xbd66cc3f	-0.056347128
109	0xbeadfcdd	-0.33981982
110	0x3e78c237	0.24292837
111	0xbecb271f	-0.39678285
112	0x3e6b2cc3	0.22966294
113	0xbe1e5303	-0.15461354
114	0xbc140868	-0.009035207
115	0x3e4b16e0	0.19832945
116	0x3d9d9300	0.07694054
117	0xbca5c443	-0.020235186
118	0xbd232949	-0.039834294
119	0x3d219677	0.039450135
120	0xbe4e7a0c	-0.20163745
121	0x3d3f1103	0.046647083
122	0x3dcb1a35	0.09917108
123	0xbe028911	-0.12747599
124	0xbdf9d143	-0.12198117
125	0xbe3db72d	-0.18526907
126	0x3d2432b1	0.040087406
127	0xbd939290	-0.07205689
128	0xbe7734fa	-0.24141303
129	0xbdb5e20d	-0.088810064
130	0xbe349ad6	-0.1763719
131	0x3df97bdc	0.121818274
132	0xbe91775d	-0.2841138
133	0xbe04f2a1	-0.1298318
134	0x3cd52158	0.026016876
135	0x3e8f4388	0.2798121
136	0xbe61268a	-0.21987358
137	0xbe0a238b	-0.13490121
138	0xbc525843	-0.012838426
139	0xbcefc7bc	-0.029270045
140	0xbd510d82	-0.051038273
141	0xbd2561e1	-0.040376548
142	0x3dbb4658	0.091442764
143	0x3e1f575d	0.1556067
144	0x3d2eec89	0.042706046
145	0xbc4941bb	-0.012283738
146	0x3e582c4b	0.21110646
147	0xbea21159	-0.3165386
148	0x3e46b324	0.19404274
149	0xbe886d1c	-0.26645744
150	0xbe59460d	-0.21218129
151	0xbd63009c	-0.055420503
152	0x3dfa968a	0.12235744
153	0xbb8c44a1	-0.004280642
154	0x3e4a8d16	0.19780383
155	0xbe23cbda	-0.15995732
156	0xbd9e3441	-0.077248104
157	0x3e2c68a4	0.16836792
158	0xbd83f9aa	-0.06444104
159	0xbbfdf98a	-0.0077506946
160	0x3da727e4	0.081619054
161	0xbe339d40	-0.17540455
162	0x3e8fe577	0.28104755
163	0x3e0f69d4	0.14005214
164	0x3d8e2902	0.06941415
165	0xbd8879eb	-0.06663879
166	0xbec84b8b	-0.39120135
167	0xbde17a09	-0.110096045
168	0xbe195cae	-0.1497676
169	0xbdd33054	-0.10311952
170	0x3deafa99	0.11473579
171	0x3de67ad4	0.11253896
172	0x3d9cd21d	0.076572634
173	0x3d5d9183	0.05409385
174	0xbdfd64a8	-0.12372714
175	0x3d9310ea	0.071809605
176	0xbe35ab3d	-0.17741103
177	0x3d467253	0.04844887
178	0xbe820f77	-0.25402424
179	0x3dc74344	0.09729627
180	0x3cfc58e3	0.030804103
181	0xbe476194	-0.19470817
182	0xbe81914d	-0.25306168
183	0xbe5c7261	-0.21528007
184	0x3e86de1e	0.26341337
185	0xbdd0c738	-0.10194248
186	0xbcb319b3	-0.02186284
187	0x3c13ed24	0.009028707
188	0xbda16f20	-0.078825235
189	0xbe93a4d9	-0.28836706
190	0x3e2323dd	0.1593165
191	0xbe1d23e6	-0.15345725
192	0xbc7f1748	-0.0155695155
193	0xbd861997	-0.065478496
194	0x3e824d05	0.25449386
195	0xbe1076c6	-0.14107808
196	0x3e340998	0.17581785
197	0xbd7b000f	-0.061279353
198	0x3dbdd714	0.092695385
199	0xbe8d14d4	-0.27554953
200	0x3de779f1	0.11302555
201	0x3d8a3340	0.067480564
202	0x3e10a553	0.14125566
203	0x3e33140d	0.17488118
204	0x3e1cb4c4	0.15303332
205	0x3e1a02a8	0.15040076
206	0x3d2c53ca	0.042072095
207	0x3e338eff	0.17535017
208	0xbe14817a	-0.14502516
209	0x3e4fb95e	0.20285556
210	0x3db58a0f	0.08864223
211	0xbc73f6cc	-0.014890384
212	0x3d91fb02	0.07127954
213	0x3d073f26	0.033019207
214	0xbe1414fe	-0.14461133
215	0xbde0a3d0	-0.10968745
216	0xbe85741b	-0.26065144
217	0xbbc68285	-0.0060580396
218	0xbd6a0c98	-0.057140917
219	0x3dc37a33	0.09544792
220	0x3e2b226e	0.16712353
221	0x3d7a13d2	0.06105406
222	0x3d14dc5b	0.03634296
223	0xbd01c213	-0.031679224
224	0x3d4722d7	0.04861721
225	0xbd8041c2	-0.06262542
226	0x3d074852	0.033027954
227	0x3d0184b7	0.031620707
228	0xbe4979a9	-0.19675316
229	0x3c7ea46b	0.01554213
230	0x3e08adf3	0.13347606
231	0xbe8176b2	-0.2528587
232	0x3e0b33f0	0.13594031
233	0xbd4ea5ed	-0.050451208
234	0x3e4c58f5	0.1995581
235	0xbe0d5d84	-0.13805205
236	0xbca04f1a	-0.019568969
237	0x3e81d32d	0.25356427
238	0x3de84f73	0.11343279
239	0xbd17db78	-0.037074536
240	0xbceb5e64	-0.028731532
241	0x3d58e0b5	0.052948672
242	0x3e054c1b	0.13017313
243	0xbdb1c871	-0.08680809
244	0x3e39004d	0.18066521
245	0x3dc6dc3d	0.09709976
246	0xbcbdae1c	-0.02315431
247	0xbcbe0ef1	-0.023200484
248	0x3e494d87	0.1965848
249	0xbd9324ed	-0.071847774
250	0xbda02cc4	-0.07821038
251	0x3d7edb1e	0.062220685
252	0xbe6ce73d	-0.23135085
253	0xbbfae3f9	-0.007656571
254	0xbda8a121	-0.08233858
255	0x3d9cbf75	0.07653705

net.4.bias f4 [50]
0	0x3d809d35	0.06279985
1	0xbd08a196	-0.033357225
2	0xbb9e5b90	-0.0048326924
3	0xbc664718	-0.014055036
4	0x3a9a7b5b	0.001178603
5	0x3d0024e3	0.031285178
6	0x3d94fb41	0.072744854
7	0xbe277814	-0.163544
8	0xbde1e1d7	-0.11029404
9	0xbddd4084	-0.10803321
10	0xbdaf5497	-0.08561056
11	0xbe265dc1	-0.16246702
12	0x3d752e78	0.05985877
13	0x3b3f3b4e	0.0029179635
14	0xbda88af0	-0.08229625
15	0xbe0acf0f	-0.13555549
16	0xbddc7532	-0.10764541
17	0xbde22dbd	-0.1104388
18	0x3d56f1c8	0.052476674
19	0xbe3b4a14	-0.18289977
20	0xbd0623a8	-0.03274885
21	0xbcca0569	-0.024660783
22	0x3de2b6d9	0.11070032
23	0xbd975fd0	-0.07391322
24	0x3d071e07	0.03298762
25	0x3dd83467	0.1055687
26	0xbd24599f	-0.04012453
27	0x3d076ee3	0.033064734
28	0x3d5dfcc1	0.054196123
29	0x3b77f357	0.003783425
30	0x3d390c9a	0.045178033
31	0xbcee308f	-0.029075889
32	0x3dfcb6fd	0.1233959
33	0xbdd3992a	-0.10331948
34	0xbd99b7c8	-0.075057566
35	0xbd4a956e	-0.049458914
36	0x3d089d40	0.03335309
37	0x3da09bd5	0.078422226
38	0xbcfccfa7	-0.030860735
39	0x3d3a9a75	0.045557458
40	0x3d46a526	0.04849734
41	0x3c3ad124	0.011402402
42	0x3de3377a	0.11094566
43	0xbd92b9e7	-0.07164364
44	0xbdfb9579	-0.12284369
45	0xbd939055	-0.072052635
46	0xbc2f0b8b	-0.010683904
47	0xbdde7e5a	-0.108639434
48	0xbde30f22	-0.11086871
49	0x3d68daad	0.05684917

net.6.weight f4 [2, 50]
0	0xbd732f67	-0.05937138
1	0x3ddc69d2	0.10762371
2	0xbe5aa07d	-0.21350284
3	0xbd881acc	-0.06645736
4	0x3cc802e0	0.024415433
5	0xbdc0b90b	-0.09410294
6	0x3c52033c	0.012818154
7	0xbd463b02	-0.048396118
8	0x3cec3667	0.028834535
9	0x3da1f222	0.07907511
10	0xbe04264d	-0.12905236
11	0x3c18a3ff	0.009316443
12	0xbe413f46	-0.18871793
13	0xbdae959f	-0.08524632
14	0x3e13f479	0.14448728
15	0xbd963696	-0.0733463
16	0x3d9daf95	0.07699505
17	0x3de11bec	0.10991654
18	0xbdd007df	-0.10157751
19	0x3d62bbc9	0.055354867
20	0x3c881db7	0.016615732
21	0xbe1ccfab	-0.15313594
22	0xbe0f4cb1	-0.13994099
23	0xbd9f2598	-0.07770842
24	0xbd9edd08	-0.07757002
25	0xbe10964a	-0.1411983
26	0xbdaacd0d	-0.083398916
27	0x3e115a3f	0.14194582
28	0x3d27d6ee	0.040976457
29	0xbba11291	-0.0049155434
30	0x3dbbaa24	0.09163311
31	0xbdefd502	-0.1171055
32	0xbe1d835e	-0.15382144
33	0xbd02b65f	-0.031912204
34	0xbe092cd6	-0.1339601
35	0x3d5f3fcf	0.054504212
36	0xbd844e35	-0.06460229
37	0xbdc80124	-0.097658426
38	0xbe2cae6c	-0.16863412
39	0xbe0c2c96	-0.13688883
40	0xbdb75a7d	-0.08952806
41	0xbd322da7	-0.04350057
42	0x3d104bc2	0.0352285
43	0x3dfe8ece	0.124295816
44	0x3cf7a6da	0.030230928
45	0xbd63465d	-0.055487026
46	0x3dc36386	0.09540467
47	0xbe1fb2e5	-0.15595587
48	0xbdb5102e	-0.08840977
49	0xbdefa596	-0.11701505
50	0x3cf1bcb7	0.029508932
51	0xbdb99eb7	-0.090634756
52	0xbcd09feb	-0.02546688
53	0xbe0f336e	-0.13984463
54	0xbe1b31ea	-0.1515576
55	0x3d1528d2	0.036415882
56	0x3da770f0	0.08175838
57	0x3ce9f62f	0.028559772
58	0x3d58af4c	0.05290155
59	0xbdcfd407	-0.10147863
60	0x3e01e862	0.12686303
61	0xbd157078	-0.03648421
62	0x3d1490fa	0.036271073
63	0x3e05adb7	0.13054548
64	0x3e0baea5	0.1364084
65	0x3df02444	0.11725667
66	0xbd2ddc29	-0.04244629
67	0x3e120c6e	0.14262554
68	0xbe2909db	-0.16507666
69	0x3d78ec9e	0.06077253
70	0x3ddfe2ad	0.10931907
71	0x3dc46154	0.09588876
72	0xbe2aa298	-0.16663587
73	0x3dbf404f	0.09338438
74	0xbdfbd658	-0.12296742
75	0xbe0ea566	-0.13930282
76	0xbdf6bae0	-0.12047362
77	0xbda850dd	-0.082185484
78	0x3dfec0a6	0.124390885
79	0xbdca8e8c	-0.0989047
80	0x3de168eb	0.1100634
81	0xbe15054b	-0.145528
82	0xbd021082	-0.031754024
83	0x3d87752e	0.06614147
84	0xbe0b2c85	-0.13591202
85	0x3dcc4037	0.099731855
86	0x3c317831	0.0108318785
87	0x3d89ba30	0.067249656
88	0x3dd42646	0.103588626
89	0xbcaa8973	-0.020817494
90	0x3bcaedc2	0.0061928937
91	0xbdad404a	-0.08459528
92	0x3e098727	0.13430463
93	0x3e1fb3f7	0.15595995
94	0xbdd1300b	-0.102142416
95	0x3cef59c3	0.029217606
96	0xbc0b5215	-0.008503457
97	0x3e11e0af	0.14245866
98	0x3c9d9827	0.019237591
99	0x3dfa6f4c	0.122282594

net.6.bias f4 [2]
0	0x3bb3a6dd	0.005482538
1	0x3da3da39	0.08000607
