week1/1.3/closed_loop_trained_RNN_model.pth (torch, 22664 bytes, 20 tensors)

ffnn.0.weight f4 [20, 4]
-0.050244734 -0.5012217 -0.13256131 0.15126348 -0.13330351 -0.7311093 -0.8263494 0.17112508
-0.50258833 0.39649618 0.56166744 -0.5274386 0.26763082 -0.7055982 -0.71054083 -0.078533724
0.32597494 -0.45073685 0.0007588367 0.02929856 -0.26370975 -0.7107717 -0.14555801 -0.031698752
0.17292422 0.7559159 0.69067085 0.064960025 -0.09769844 0.83458006 0.44889343 0.24477153
-0.5496448 0.6586563 0.22074632 0.13981774 0.11734036 -0.24004252 0.12331531 0.038569227
0.06992496 -0.40421993 -0.7564053 -0.17847274 0.30874175 0.5728136 0.59294504 -0.01822575
0.52329916 -0.4408994 -0.7036389 0.10203616 0.28618598 -0.7579252 -0.38952395 0.019303784
-0.55185896 0.5314641 0.8098779 -0.38301405 0.0571901 -0.50072825 0.10719668 -0.22125107
0.112974435 0.54938 0.4405617 0.11569271 0.1766251 0.5010536 -0.07409383 0.22570367
0.49292484 -0.6037207 -0.7418119 0.42837155 0.74522316 -0.49522343 -0.3051773 0.6014557
00000000: 6ccd 4dbd 1150 00bf 27be 07be d0e4 1a3e
00000010: b780 08be fb29 3bbf a28b 53bf 6a3b 2f3e
00000020: a1a9 00bf 8c01 cb3e 70c9 0f3f 3706 07bf
00000030: e806 893e 15a2 34bf 01e6 35bf 4ad6 a0bd
00000040: 30e6 a63e fbc6 e6be abec 463a 8903 f03c
00000050: f704 87be 22f5 35bf 290d 15be 8dd6 01bd
00000060: 0c13 313e b483 413f cecf 303f c309 853d
00000070: 1f16 c8bd 0aa7 553f 5cd5 e53e 63a5 7a3e
00000080: 86b5 0cbf b39d 283f 530b 623e 622c 0f3e
00000090: 2550 f03d b5cd 75be bd8c fc3d c4fa 1d3d
000000a0: d134 8f3d eaf5 cebe c7a3 41bf 8fc1 36be
000000b0: 6613 9e3e e9a3 123f 3fcb 173f 2b4e 95bc
000000c0: eff6 053f 91bd e1be ae21 34bf 56f8 d03d
000000d0: f886 923e 6307 42bf af6f c7be f822 9e3c
000000e0: a146 0dbf 080e 083f 2854 4f3f 6b1a c4be
000000f0: 2b40 6a3d ba2f 00bf ef89 db3d a48f 62be
00000100: 245f e73d 2ba4 0c3f 4e91 e13e 4df0 ec3d
00000110: 36dd 343e 0c45 003f 82be 97bd dd1e 673e
00000120: a560 fc3e 718d 1abf 62e7 3dbf 8453 db3e
00000130: f2c6 3e3f ed8d fdbe 3340 9cbe 00f9 193f

ffnn.0.bias f4 [20]
-0.14853793 -0.092415564 0.41195905 -0.15725322 -0.23486947 -0.2358646 0.03343187 0.08797937
0.08359939 -0.24892594 -0.34362847 0.03154947 -0.20934613 0.28423822 0.12092178 0.1406694
-0.018108955 0.38876832 0.18998952 -0.2138757
00000000: 541a 18be 5f44 bdbd 4cec d23e fd06 21be
00000010: 9f81 70be 7d86 71be dbef 083d 872e b43d
00000020: 2836 ab3d 71e6 7ebe 12f0 afbe 043a 013d
00000030: d55e 56be ac87 913e d7a5 f73d a40b 103e
00000040: 3b59 94bc a40c c73e 9d8c 423e 3b02 5bbe

ffnn.2.weight f4 [20, 20]
-0.2239143 -0.32852504 0.38239527 -0.2278427 -0.16663472 -0.25624254 0.31565383 0.118233636
0.36215076 -0.06886826 -0.23898254 0.33576515 -0.27860597 -0.17667988 0.26257572 -0.2988717
0.11883477 0.11106512 -0.3365317 -0.30215204 0.008108685 0.45360166 -0.18182041 0.29967892
0.14769775 0.26808915 -0.05780866 -0.07004886 -0.0585047 -0.097003326 0.25086582 -0.2775404
0.21229304 0.2775157 -0.08364365 0.3054469 0.055158876 -0.23750478 0.03127178 0.32208365
0.1559526 0.5057045 -0.32491872 0.40195084 0.361251 0.039650355 -0.22693445 -0.23475197
-0.22244415 0.08974504 0.48112586 -0.11542713 0.0938265 0.15738282 -0.47768 0.1484214
-0.2915755 -0.28316513 0.08346568 0.29316503 -0.12180596 -0.3583879 0.15593576 -0.42273083
-0.31642917 -0.14656506 0.28805524 0.1964289 -0.028447425 -0.047866147 -0.3805049 0.41479707
-0.36100715 -0.21983075 0.2615285 -0.003999135 0.35432085 0.0047995304 -0.05653396 -0.07624431
-0.35881644 -0.39998505 0.31482232 -0.28057575 -0.3275879 -0.18100719 0.19900699 0.41280186
0.18175755 0.031006938 -0.4351229 0.1721971 -0.17781602 -0.27559072 0.0880825 -0.009304833
0.027653646 0.33909827 -0.07231078 -0.2971093 0.16448468 0.54951924 -0.2890925 0.48547605
0.14448683 0.23255353 -0.3643808 -0.123081446 -0.33398783 -0.07770976 -0.014652636 -0.0022698091
0.1761633 0.45754007 -0.15530547 0.21212916 -0.010704881 -0.12600014 0.4575256 0.43672705
-0.15813607 -0.16642107 0.12831926 -0.16665234 0.021399295 -0.38345814 0.11926121 0.4068758
-0.043514732 -0.30884132 -0.23559928 0.41944802 -0.1681196 -0.29409227 0.1014759 -0.23967767
0.20573227 -0.09810063 -0.01201451 0.0019703535 -0.30332157 -0.09688752 0.39106232 -0.4418291
-0.15530519 -0.22661312 0.3884732 0.28432333 0.16280045 -0.015625564 -0.4421652 0.25654933
-0.4585056 -0.39132586 0.30027238 -0.17361304 0.3853627 0.2160411 -0.20186935 -0.3820228
0.041797046 0.14528051 0.14740655 0.01699831 -0.17564611 -0.12395722 0.0041483273 0.11457915
-0.07899733 -0.22385298 0.21443425 -0.11924844 -0.012622966 0.15290453 -0.056596603 -0.1878963
-0.02369853 -0.1421165 -0.00038495802 0.05248376 0.2114794 0.34002346 -0.12512498 0.37458998
0.24836421 -0.08785304 -0.4423676 -0.022478485 -0.35133398 -0.04433273 0.1906046 -0.23964798
0.05496118 0.14497764 -0.4128084 0.2262357 -0.18559149 0.054429 -0.03710959 0.1188471
-0.29011014 -0.119457275 0.13670337 -0.13712013 -0.23450986 -0.33644167 0.43719652 0.35814542
0.014447104 -0.14491624 -0.1026143 -0.020429634 0.021388302 -0.12736656 0.3449372 -0.14053506
0.18308225 0.28466463 -0.2642128 -0.28158566 0.27756485 0.42863527 -0.2684982 0.3028312
0.16900852 0.025184948 -0.09818086 -0.39421445 -0.16910233 0.040440485 0.3257964 -0.3002304
0.2924237 0.40335202 -0.2884699 -0.066750936 -0.32602102 0.10622012 0.037790548 0.22381204
-0.17036007 -0.2119145 0.39005542 -0.13235632 -0.00773654 -0.31998444 0.2675453 0.21968327
0.2624297 0.05051254 -0.14801955 0.1834085 -0.26603815 -0.050463773 0.31498682 -0.15456305
00000000: ca49 65be 6f34 a8be 50c9 c33e 994f 69be
00000010: 4ba2 2abe 3932 83be 619d a13e 7a24 f23d
00000020: d36b b93e cd0a 8dbd d7b7 74be 69e9 ab3e
00000030: 71a5 8ebe 92eb 34be 5370 863e b605 99be
00000040: a55f f33d 1c76 e33d e24d acbe acb3 9abe
00000050: 4ada 043c 7a3e e83e 212f 3abe 846f 993e
00000060: 143e 173e fb42 893e c6c8 6cbd c775 8fbd
00000070: a0a2 6fbd aea9 c6bd 7c71 803e c619 8ebe
00000080: 5963 593e 8a16 8e3e 5d4d abbd 8963 9c3e
00000090: 46ee 613d 7434 73be d716 003d 26e8 a43e
000000a0: 0ab2 1f3e da75 013f bf5b a6be 80cc cd3e
000000b0: e4f5 b83e 6968 223d 8161 68be d262 70be
000000c0: 66c8 63be 3fcc b73d 2156 f63e 0f65 ecbd
000000d0: 1c28 c03d f628 213e 7992 f4be c8fb 173e
000000e0: 6249 95be 05fb 90be 0ef0 aa3d ba19 963e
000000f0: 6775 f9bd 9e7e b7be a0ad 1f3e 2d70 d8be
00000100: 0103 a2be 2715 16be fa7b 933e a824 493e
00000110: 930a e9bc 4b0f 44bd 8ad1 c2be 4860 d43e
00000120: eed5 b8be 501b 61be 10e7 853e 2d0b 83bb
00000130: 8b69 b53e 6145 9d3b 2790 67bd fa25 9cbd
00000140: cab6 b7be d7ca ccbe 6430 a13e a0a7 8fbe
00000150: 9ab9 a7be f359 39be 7dc8 4b3e c45a d33e
00000160: a71e 3a3e 4302 fe3c 6ec8 debe 7054 303e
00000170: 6715 36be 3a1a 8dbe 9964 b43d 4c73 18bc
00000180: e689 e23c 4a9e ad3e ad17 94bd b61e 98be
00000190: ac6e 283e 4bad 0c3f ef03 94be 5190 f83e
000001a0: 5bf4 133e 8322 6e3e 1f90 babe 2012 fcbd
000001b0: 7400 abbe 4b26 9fbd 9c11 70bc 14c1 14bb
000001c0: 2764 343e b142 ea3e 6608 1fbe 6338 593e
000001d0: 8663 2fbc 2e06 01be cc40 ea3e b09a df3e
000001e0: 6cee 21be 496a 2abe 2066 033e e9a6 2abe
000001f0: 934d af3c a054 c4be 393f f43d 0652 d03e
00000200: 813c 32bd 7320 9ebe f040 71be e4c1 d63e
00000210: 8b27 2cbe 4393 96be 99d2 cf3d 106e 75be
00000220: 7bab 523e fce8 c8bd 82d8 44bc 0c21 013b
00000230: f74c 9bbe f76c c6bd 5239 c83e 6c37 e2be
00000240: 5308 1fbe 450d 68be f6e5 c63e d492 913e
00000250: 29b5 263e 2f01 80bc 7a63 e2be 6f5a 833e
00000260: 3fc1 eabe dd5b c8be 4dbd 993e 9ec7 31be
00000270: 434e c53e e139 5d3e d7b6 4ebe 7e98 c3be
00000280: 6133 2b3d 6ac4 143e bef1 163e 0a40 8b3c
00000290: 93dc 33be 48dd fdbd b1ee 873b 79a8 ea3d
000002a0: 5ac9 a1bd b739 65be a794 5b3e 8738 f4bd
000002b0: 8fd0 4ebc 0193 1c3e d7d1 67bd e367 40be
000002c0: 6b23 c2bc fd86 11be 31d4 c9b9 36f9 563d
000002d0: 0e8e 583e 8e17 ae3e c320 00be 42ca bf3e
000002e0: 3053 7e3e 4bec b3bd 027e e2be cd24 b8bc
000002f0: 0ce2 b3be 3d96 35bd da2d 433e 4866 75be
00000300: f91e 613d 0575 143e 9f5b d3be 55aa 673e
00000310: b20b 3ebe f1f0 5e3d 3a00 18bd 1c66 f33d
00000320: 5189 94be 04a6 f4bd f8fb 0b3e 3869 0cbe
00000330: 5a23 70be 1542 acbe 39d8 df3e d65e b73e
00000340: 8cb3 6c3c ec64 14be 7227 d2bd 0c5c a7bc
00000350: 8536 af3c 616c 02be 9c9b b03e 6ce8 0fbe
00000360: ea79 3b3e 90bf 913e e646 87be ff2b 90be
00000370: fb1c 8e3e 1576 db3e 9978 89be b10c 9b3e
00000380: 9210 2d3e aa50 ce3c 0c13 c9bd 7ad6 c9be
00000390: 2929 2dbe eca4 253d c9ce a63e cdb7 99be
000003a0: 8fb8 953e 2884 ce3e 54b2 93be b7b4 88bd
000003b0: 3aec a6be ef89 d93d 43ca 1a3d fc2e 653e
000003c0: df72 2ebe 1d00 59be 58b5 c73e 6a88 07be
000003d0: cd82 fdbb 00d5 a3be b3fb 883e a7f4 603e
000003e0: 305d 863e 3de6 4e3d 7092 17be 70cf 3b3e
000003f0: 2736 88be 1ab3 4ebd f445 a13e c745 1ebe

ffnn.2.bias f4 [20]
0.124876514 0.08129579 -0.041646138 0.16010706 0.1861252 -0.2392747 -0.16238537 0.06229326
-0.12566702 -0.10381915 0.1684517 0.11828747 -0.14649473 -0.09018581 -0.11238562 0.16880924
0.049833108 0.07080334 0.20958352 -0.17766757
00000000: 42bf ff3d 687e a63d 2495 2abd 1bf3 233e
00000010: 9b97 3e3e 6d04 75be 5a48 26be 3827 7f3d
00000020: dbae 00be 229f d4bd 9a7e 2c3e b340 f23d
00000030: b702 16be 57b3 b8bd 6f2a e6bd 54dc 2c3e
00000040: cd1d 4c3d 5701 913d 109d 563e 7dee 35be

RNN.weight_ih_l0 f4 [10, 20]
0.17551751 -0.30905247 -0.08118792 0.0754846 0.0026124436 -0.4073742 0.34693813 0.29659992
0.10386603 -0.14578736 0.31959772 -0.30848673 0.1606671 -0.1747904 -0.32801136 0.3709586
0.29917312 -0.28812194 0.066231675 -0.120334625 0.27639127 -0.07414687 -0.2949666 0.23917973
0.25893044 -0.41250992 0.0894781 0.37992993 0.07677457 0.030809462 -0.14421086 -0.0018865557
0.274526 0.21678606 -0.3284476 -0.039449193 0.34508002 0.078504995 0.007872005 -0.0463486
0.3398313 0.1802682 -0.19372857 0.36454457 0.2870997 -0.11629397 -0.09709495 0.21519683
0.10790277 -0.2575554 0.30152714 -0.08449754 0.42243543 0.34234527 -0.044357337 0.45279497
-0.11040797 -0.0035328777 0.47115877 -0.14879307 0.03162783 0.21867406 0.43729955 -0.16455522
-0.3707212 0.29301462 -0.25476918 -0.43262765 -0.044698756 0.21614218 -0.12691142 0.0579503
-0.4257397 -0.18557933 0.3811503 -0.50310475 0.037190244 0.41644037 -0.32426456 0.16972707
-0.36868197 -0.06544814 0.3612999 0.10943739 -0.086904965 0.10504481 0.023715863 -0.4801241
0.22665021 0.21671401 -0.0072541246 -0.09274723 -0.40445685 0.34832114 0.37622574 -0.09413732
-0.39472395 0.09104988 -0.08548257 -0.0062442464 -0.35719734 0.3767384 0.3867119 -0.41962996
-0.30227187 0.25861958 -0.2483333 -0.31161878 -0.23049656 0.24927075 -0.32661837 0.17581311
0.020056134 -0.005787733 -0.10159248 -0.24891336 -0.3610947 0.43500295 -0.2948434 -0.3366753
-0.13453183 0.46573138 0.33050916 -0.36675414 -0.22703989 0.35756144 -0.19535707 -0.27163157
0.018082485 0.04975608 -0.050705906 0.38156107 -0.25328377 -0.11696345 0.20083104 -0.1972352
-0.36337587 0.10903819 0.004822799 -0.2558202 0.062544875 -0.06512201 -0.013372911 0.33306906
0.032882497 -0.26103768 0.12259581 0.1815688 -0.31046304 -0.019705508 -0.0037377463 0.0332785
-0.07939768 -0.21629521 -0.40323123 -0.12751928 -0.05969637 -0.314152 0.14366412 0.023935845
0.2660075 -0.13324393 -0.07674936 -0.033596054 0.11255531 -0.38076782 0.047913186 0.21723989
-0.19117746 -0.12246715 -0.09457154 -0.062932745 0.07960538 0.013779075 -0.14241244 -0.1664612
0.24943319 -0.18219182 -0.24621901 0.059950136 0.19165485 0.05778169 -0.22990076 0.451646
0.19547267 -0.03776462 0.33334684 0.40883833 -0.30099055 0.14571029 -0.14488313 -0.25177592
0.17427301 0.11444763 0.068699606 0.17619877 0.18108928 0.0031588518 0.0013138347 0.19042537
00000000: ddba 333e 203c 9ebe da45 a6bd ac97 9a3d
00000010: 8835 2b3b 5a93 d0be e0a1 b13e f2db 973e
00000020: b7b7 d43d 4849 15be 50a2 a33e f9f1 9dbe
00000030: eb85 243e 41fc 32be 1bf1 a7be 49ee bd3e
00000040: 382d 993e b884 93be 79a4 873d 0072 f6bd
00000050: 2883 8d3e 50da 97bd dd05 97be 88eb 743e
00000060: 8892 843e 8034 d3be 4b40 b73d 2d86 c23e
00000070: fc3b 9d3d 2064 fc3c 03ac 13be 4e46 f7ba
00000080: ac8e 8c3e 2afd 5d3e 492a a8be 7a95 21bd
00000090: 54ae b03e 3ac7 a03d 95f9 003c 08d8 3dbd
000000a0: 5efe ad3e 3a98 383e c860 46be 96a5 ba3e
000000b0: bbfe 923e 882b eebd b8d9 c6bd 8f5c 5c3e
000000c0: 21fc dc3d 4dde 83be c461 9a3e 0c0d adbd
000000d0: 7549 d83e e147 af3e 0ab0 35bd bed4 e73e
000000e0: 931d e2bd da87 67bb b93b f13e 365d 18be
000000f0: 2f8c 013d 18ec 5f3e bae5 df3e 2a81 28be
00000100: 2bcf bdbe 0306 963e 1b71 82be 5f81 ddbe
00000110: 0b16 37bd 6054 5d3e 11f5 01be 4b5d 6d3d
00000120: 8efa d9be 8208 3ebe 2226 c33e 79cb 00bf
00000130: cc54 183d ac37 d53e 0106 a6be efcc 2d3e
00000140: e2c3 bcbe ad09 86bd 4dfc b83e b620 e03d
00000150: 3bfb b1bd bc21 d73d c547 c23c d3d2 f5be
00000160: fe16 683e 47ea 5d3e 02b4 edbb 42f2 bdbd
00000170: f814 cfbe 2657 b23e a9a0 c03e 11cb c0bd
00000180: 4219 cabe 5c78 ba3d 7c11 afbd 899c ccbb
00000190: 92e2 b6be dbe3 c03e 1aff c53e bdd9 d6be
000001a0: 61c3 9abe c969 843e 164b 7ebe 7f8c 9fbe
000001b0: 4a07 6cbe d540 7f3e 863a a7be 5a08 343e
000001c0: c34c a43c 06a7 bdbb b80f d0bd 25e3 7ebe
000001d0: 68e1 b8be b5b8 de3e b7f5 96be b460 acbe
000001e0: b6c2 09be 5874 ee3e 7f38 a93e 33c7 bbbe
000001f0: 257d 68be 4b12 b73e af0b 48be 4b13 8bbe
00000200: b821 943c 08cd 4b3d ffb0 4fbd f95b c33e
00000210: 69ae 81be 898a efbd a7a6 4d3e 06f8 49be
00000220: 670c babe 6a4f df3d 9208 9e3b defa 82be
00000230: 8717 803d b05e 85bd 0e1a 5bbc 0788 aa3e
00000240: ccaf 063d bba6 85be 8313 fb3d 2ced 393e
00000250: 03f5 9ebe 726d a1bc faf4 74bb 094f 083d
00000260: 409b a2bd 7e7c 5dbe 5374 cebe 6a94 02be
00000270: 2e84 74bd 88d8 a0be b01c 133e 1b15 c43c
00000280: 2332 883e 1971 08be c52e 9dbd 049c 09bd
00000290: 6683 e63d 00f4 c2be 9e40 443d 2274 5e3e
000002a0: 06c4 43be 0fd0 fabd b9ae c1bd e2e2 80bd
000002b0: 2508 a33d a1c1 613c 91d4 11be ce74 2abe
000002c0: 6a6b 7f3e 7e90 3abe d620 7cbe 468e 753d
000002d0: 2b41 443e 7eac 6c3d 1b6b 6bbe 253e e73e
000002e0: fd29 483e 13af 1abd 70ac aa3e 4253 d13e
000002f0: 6f1b 9abe 1435 153e 3e5c 14be c6e8 80be
00000300: a074 323e 8563 ea3d 61b2 8c3d 736d 343e
00000310: 786f 393e bd04 4f3b fa34 ac3a defe 423e

RNN.weight_hh_l0 f4 [10, 10]
-0.004262364 0.4007048 0.16726844 -0.10784404 -0.34481198 -0.03901697 -0.14092405 0.24861823
-0.02825591 0.32333538 0.1934422 0.09468946 0.3392722 -0.30355603 -0.15918411 -0.3593468
-0.1867419 0.11989966 0.44575697 0.106357746 0.22620237 0.3934911 0.08052426 -0.30645606
-0.48217905 -0.0655007 -0.14567363 -0.083119564 -0.17539752 0.132324 -0.36968863 -0.20838712
-0.17056604 0.3441465 0.51780254 0.31312567 0.08980122 -0.42133173 -0.27792946 0.072968245
-0.21079883 0.028308332 -0.16952743 0.13770212 0.036100984 -0.05895735 0.34537137 0.24250977
0.110635735 -0.47424248 -0.2538492 -0.3112452 -0.0772943 0.23443922 -0.13288145 0.11684822
-0.056613274 -0.38633627 -0.054944783 -0.26009092 -0.020788101 -0.31405643 -0.07021437 -0.03666929
0.057227936 0.45572487 0.22465475 -0.60646534 0.03022136 -0.06177359 0.5593041 0.23550953
-0.013575951 0.12349589 -0.31987047 -0.29121506 -0.3005462 0.4442044 0.018496418 -0.040531963
-0.07237693 -0.28669435 0.006346786 0.36789444 -0.28152576 0.03340509 -0.05907805 -0.19805253
0.19797747 -0.08270505 0.2916489 0.5252801 0.28733924 -0.08067628 -0.2564258 -0.08899108
-0.14422674 0.45034596 0.26961875 -0.11182785
00000000: 4dab 8bbb 2e29 cd3e 6b48 2b3e 56dd dcbd
00000010: 328b b0be 42d0 1fbd 654e 10be c795 7e3e
00000020: f078 e7bc 378c a53e b615 463e 8cec c13d
00000030: 16b5 ad3e b26b 9bbe 2901 23be 4efc b7be
00000040: 4539 3fbe f48d f53d 423a e43e 17d2 d93d
00000050: 98a1 673e aa77 c93e e7e9 a43d cfe7 9cbe
00000060: 2ce0 f6be 3b25 86bd 782b 15be 973a aabd
00000070: 689b 33be f17f 073e d447 bdbe 6f63 55be
00000080: dda8 2ebe f833 b03e b58e 043f 0252 a03e
00000090: b4e9 b73d cbb8 d7be c54c 8ebe 6070 953d
000000a0: a6db 57be e0e6 e73c 9998 2dbe c901 0d3e
000000b0: a0de 133d 437d 71bd 84d4 b03e 7b54 783e
000000c0: fd94 e23d e9cf f2be 86f8 81be 885b 9fbe
000000d0: 794c 9ebd d610 703e 1312 08be 1f4e ef3d
000000e0: 52e3 67bd decd c5be c80d 61bd a32a 85be
000000f0: cf4b aabc 01cc a0be 8dcc 8fbd 8a32 16bd
00000100: d767 6a3d c554 e93e e50b 663e 5041 1bbf
00000110: c992 f73c 4e06 7dbd 8e2e 0f3f 6929 713e
00000120: aa6d 5ebc 6aeb fc3d 10c6 a3be 241a 95be
00000130: 31e1 99be c26e e33e cd85 973c d804 26bd
00000140: 5b3a 94bd 9ac9 92be b3f8 cf3b a95c bc3e
00000150: 2524 90be c7d3 083d d3fb 71bd 48ce 4abe
00000160: 9bba 4a3e 4461 a9bd 0153 953e c278 063f
00000170: 211e 933e 9b39 a5bd 3e4a 83be f540 b6bd
00000180: 2db0 13be bf93 e63e 780b 8a3e 0006 e5bd

RNN.bias_ih_l0 f4 [10]
-0.3669746 -0.315334 -0.048298094 -0.103988476 0.09401685 0.17646813 0.0425553 0.06978689
-0.07721929 0.09713724
00000000: 18e4 bbbe 7573 a1be 39d4 45bd e9f7 d4bd
00000010: e88b c03d 10b4 343e 774e 2e3d 6eec 8e3d
00000020: 2625 9ebd e4ef c63d

RNN.bias_hh_l0 f4 [10]
0.06038798 -0.02299424 -0.06363602 -0.32372826 0.2327699 -0.19756706 -0.13637717 -0.00940489
-0.31008077 -0.22494057
00000000: 6359 773d 6b5e bcbc 9a53 82bd b6bf a5be
00000010: 3c5b 6e3e 054f 4abe 75a6 0bbe f816 1abc
00000020: e8c2 9ebe d256 66be

RNN.weight_ih_l1 f4 [10, 10]
0.58364695 0.32218853 0.01282858 0.018224591 -0.27638742 -0.1486004 -0.36617473 0.23109919
0.07429287 -0.112911515 -0.15361378 -0.5807035 0.08193843 -0.018416977 0.25738376 0.4301186
0.47425872 0.025391782 -0.26220888 -0.15541476 0.52707523 0.15892787 0.19731657 -0.26282567
-0.35131255 -0.5132205 -0.071345046 0.09650499 0.13811463 0.36489722 0.5752365 0.12768357
0.05108471 0.080511816 -0.39934886 -0.26796222 -0.39357644 0.41042778 -0.034987204 -0.011026871
0.35580358 0.0149570955 -0.015059876 -0.26291075 -0.01881079 0.15470196 -0.37994918 0.3156902
0.28937286 0.12604354 0.27651882 0.23312505 0.102297276 -0.24160671 -0.20438483 -0.4157889
-0.4267737 0.26527533 -0.2326802 0.5877268 -0.058236193 0.10560304 0.4499892 -0.26357836
0.19135155 -0.34606567 -0.16049823 0.38952392 -0.4617444 0.3934668 -0.2846639 -0.23732047
-0.40780097 0.13686377 0.13463777 0.5331226 0.42741376 -0.0017193307 -0.19461508 -0.1876802
0.36527252 0.28936636 0.5334668 -0.65475273 -0.30648428 0.06636109 -0.41390866 0.18503094
-0.31596354 -0.21530578 0.14362419 0.04095647 0.6047765 -0.0480298 0.19051497 -0.36053726
-0.35493314 0.26232997 -0.4932163 0.203055
00000000: e369 153f e5f5 a43e f72e 523c bd4b 953c
00000010: a782 8dbe b42a 18be 417b bbbe 44a5 6c3e
00000020: dc26 983d 273e e7bd ee4c 1dbe fca8 14bf
00000030: 56cf a73d 33df 96bc cec7 833e 8138 dc3e
00000040: 0ad2 f23e 6d02 d03c 3e40 86be 0c25 1fbe
00000050: 67ee 063f fdbd 223e 5b0d 4a3e 1691 86be
00000060: 3ddf b3be 6b62 03bf 5a1d 92bd 68a4 c53d
00000070: ec6d 0d3e cfd3 ba3e b342 133f 7bbf 023e
00000080: 333e 513d 61e3 a43d 7477 ccbe 5832 89be
00000090: da82 c9be 9723 d23e be4e 0fbd 0daa 34bc
000000a0: e32b b63e 9b0e 753c b3bd 76bc 3d9c 86be
000000b0: 1619 9abc 316a 1e3e b388 c2be 25a2 a13e
000000c0: ae28 943e 8f11 013e e093 8d3e 55b8 6e3e
000000d0: 3c81 d13d c067 77be 424a 51be 48e2 d4be
000000e0: 1582 dabe 2bd2 873e b843 6ebe 4375 163f
000000f0: 1389 6ebd 6846 d83d fc64 e63e bef3 86be
00000100: a9f1 433e 852f b1be a659 24be ae6f c73e
00000110: c369 ecbe 7b74 c93e 77bf 91be 2304 73be
00000120: 4acb d0be 0426 0c3e 7cde 093e b97a 083f
00000130: fad5 da3e 2a5b e1ba 2d49 47be 3d2f 40be
00000140: 0005 bb3e d427 943e 4891 083f e09d 27bf
00000150: 82eb 9cbe 53e8 873d d6eb d3be c078 3d3e
00000160: f9c5 a1be 1e79 5cbe 3812 133e f9c1 273d
00000170: a2d2 1a3f e5ba 44bd 5b16 433e 5798 b8be
00000180: ccb9 b5be 1d50 863e d986 fcbe a6ed 4f3e

RNN.weight_hh_l1 f4 [10, 10]
0.2373773 -0.002777892 0.28782308 0.039589573 0.101632915 0.3625874 -0.18654814 -0.11953225
-0.12284012 0.009075787 -0.21664011 0.35666496 -0.093177356 -0.37445852 -0.074294426 -0.41703933
0.0011618539 0.3694192 -0.12836485 0.26443294 0.40730995 -0.17751665 -0.02013484 0.16667336
0.5113942 -0.09976247 0.24215385 -0.40780747 0.16302197 0.27155733 0.44062066 -0.23234151
0.07940051 0.152879 0.32192096 0.37374827 -0.11741865 -0.2968046 0.18168448 -0.103885
0.47665 -0.33247477 0.20371558 0.008849719 0.3275166 -0.1397974 -0.1823589 -0.3884755
0.12709899 0.15199028 0.50862205 -0.3780045 0.4418255 0.18759342 0.24883197 0.07111426
0.1418027 0.049219765 -0.009450106 0.2001353 0.004975659 0.20880346 0.4592287 0.26486462
0.06715408 0.2127052 0.3328318 0.20415361 0.12900238 0.39699653 -0.42099276 0.38339606
-0.035706203 -0.22208627 -0.42117983 -0.42080113 -0.1423159 0.086796306 -0.13617556 0.27339104
-0.0521467 -0.31610155 -0.037008 0.19430059 0.119212784 0.09751709 0.36564395 -0.09285588
0.19335963 0.091555655 0.16243905 0.05672197 0.21103843 -0.21412328 0.021991283 0.09291078
0.37866706 -0.05136175 0.07696659 0.3112115
00000000: 0913 733e 4b0d 36bb 8c5d 933e ad28 223d
00000010: eb24 d03d 0ea5 b93e 7a06 3fbe 53cd f4bd
00000020: 9a93 fbbd 9cb2 143c e8d6 5dbe ca9c b63e
00000030: c5d3 bebd 07b9 bfbe ad27 98bd 2e86 d5be
00000040: 5949 983a 8324 bd3e 1372 03be c163 873e
00000050: ee8a d03e edc6 35be d2f1 a4bc 6cac 2a3e
00000060: bbea 023f 4450 ccbd 2ef7 773e 24cc d0be
00000070: 3bef 263e 9009 8b3e 0899 e13e efea 6dbe
00000080: bc9c a23d 508c 1c3e d3d2 a43e ef5b bf3e
00000090: 3079 f0bd c6f6 97be 7f0b 3a3e a9c1 d4bd
000000a0: 780b f43e 223a aabe d19a 503e 69fe 103c
000000b0: 41b0 a73e 0d27 0fbe 4bbc 3abe 43e6 c6be
000000c0: 3d26 023e 57a3 1b3e 0e35 023f ce89 c1be
000000d0: f436 e23e 7d18 403e cfcd 7e3e 5aa4 913d
000000e0: ba34 113e aa9a 493d 9ed4 1abc 45f0 4c3e
000000f0: da0a a33b 93d0 553e 0620 eb3e 569c 873e
00000100: 1488 893d 64cf 593e ee68 aa3e a50d 513e
00000110: 3319 043e 2143 cb3e 5d8c d7be 7d4c c43e
00000120: ab40 12bd 956a 63be e2a4 d7be 3f73 d7be
00000130: 42bb 11be 43c2 b13d 9b71 0bbe e9f9 8b3e
00000140: c797 55bd 10d8 a1be b395 17bd bcf6 463e
00000150: d525 f43d 0ab7 c73d af35 bb3e 392b bebd
00000160: 1100 463e 8881 bb3d 6c56 263e 4c55 683d
00000170: 751a 583e 2243 5bbe 1027 b43c 0248 be3d
00000180: a6e0 c13e b360 52bd a9a0 9d3d 1d57 9f3e

RNN.bias_ih_l1 f4 [10]
-0.4114647 0.2503035 -0.104495704 -0.027080655 -0.12400949 0.25657022 0.14100078 0.004617955
0.053738166 0.10791055
00000000: 80ab d2be c827 803e d801 d6bd 40d8 ddbc
00000010: b0f8 fdbd 2c5d 833e 8262 103e 3752 973b
00000020: 8d1c 5c3d 3500 dd3d

RNN.bias_hh_l1 f4 [10]
-0.23681696 -0.15349217 0.06401903 0.032286316 0.024874337 0.17833634 0.07289828 -0.08602833
0.11174654 0.17281787
00000000: 2580 72be 0d2d 1dbe 691c 833d a83e 043d
00000010: 44c5 cb3c cd9d 363e b24b 953d 9f2f b0bd
00000020: 5fdb e43d 2bf7 303e

encoder.0.weight f4 [6, 10]
0.724069 -0.6301089 0.74330646 0.15546125 0.23590101 0.50403327 0.47512376 -0.6715601
0.09021515 -0.00022205022 0.5184236 -0.55722237 0.503306 0.449925 0.76434875 0.212368
0.57626384 -0.59000015 0.10434059 0.3777799 0.28865212 -0.5481093 0.28182805 0.55758387
0.33806744 0.44314626 0.25177214 -0.3959068 0.30717796 0.50134563 0.046752732 0.023671078
-0.38294947 -0.1696467 -0.10434129 -0.5012692 -0.5603812 0.62563896 -0.82304114 -0.4439934
0.49614266 -0.22407348 0.58592635 0.70174736 0.37216854 0.36659792 0.3039429 -0.32295933
0.53292865 0.23489039 0.7921728 -0.120895594 0.22462155 0.38029435 0.6981327 -0.015868137
0.084931284 -0.148102 0.5628375 -0.15532354
00000000: 965c 393f d14e 21bf 5549 3e3f 3c31 1f3e
00000010: 0990 713e 5308 013f 6c43 f33e 5deb 2bbf
00000020: b8c2 b83d 27d6 68b9 69b7 043f 20a6 0ebf
00000030: a9d8 003f 925c e63e 5cac 433f ff76 593e
00000040: 0786 133f 400a 17bf 85b0 d53d 5e6c c13e
00000050: 36ca 933e e450 0cbf c44b 903e d1bd 0e3f
00000060: 2d17 ad3e 11e4 e23e 47e8 803e 4cb4 cabe
00000070: 6e46 9d3e 3058 003f cb7f 3f3d d9e9 c13c
00000080: f411 c4be ddb7 2dbe e3b0 d5bd 2e53 00bf
00000090: 2475 0fbf e029 203f d3b2 52bf 1a53 e3be
000000a0: 6906 fe3e 8573 65be 45ff 153f b7a5 333f
000000b0: e08c be3e b9b2 bb3e 679e 9b3e ed5a a5be
000000c0: 036e 083f 1b87 703e d6cb 4a3f 1c98 f7bd
000000d0: 3103 663e f1b5 c23e d3b8 323f e5fd 81bc
000000e0: 74f0 ad3d 0da8 17be 1e16 103f 220d 1fbe

encoder.0.bias f4 [6]
3.4706187e-05 -0.014733651 -0.013815829 0.33192205 -0.20573851 0.005161468
00000000: 7c91 1138 6965 71bc c95b 62bc b0f1 a93e
00000010: 1ead 52be 8821 a93b

decoder.0.weight f4 [50, 10]
0.20091765 0.3142318 0.022425141 -0.67242587 0.19050492 -0.33928916 0.98706645 -0.61053175
0.44827497 -0.51973003 0.5291939 0.8483997 0.6986835 -0.2421403 0.31416294 0.26500183
-0.04522586 -0.12149773 0.34777907 0.7823499 0.24129388 0.58680725 0.4416794 -0.78109086
0.18732095 -0.440717 0.9098867 -0.7386136 0.68408114 -0.22380087 -0.2720823 -0.7373814
-0.71234477 0.28819025 -0.39821956 -0.4367645 0.5906835 -0.47671062 -0.24317575 -0.9165451
0.19756939 -0.061468787 -0.43466055 0.1546755 -0.41148037 -0.16957383 -0.82463574 0.91659826
0.145114 0.75950044 0.058837764 0.2632218 0.05970829 -0.57873946 -0.10251292 -0.05436315
0.855041 -0.6516359 0.2104863 -0.46599868 0.06659721 -0.13153905 0.1453051 0.3823684
-0.17230958 0.27853492 -0.81759846 0.5560703 -0.11438526 0.5936044 0.08434017 0.41296142
0.35997757 -0.64437956 0.0125993835 -0.29001436 1.0842808 -0.32605487 0.44420347 -0.4322593
0.5925991 0.33888558 0.0043555964 -0.33674183 0.022376794 -0.13956675 1.164896 -0.8085447
0.5749505 -0.39518592 0.78655684 0.7997701 0.5529501 -0.24468525 0.4062112 0.5023372
0.8743191 -0.5028469 0.2867188 0.18958686 0.16891587 0.04487504 -0.36228096 0.4161423
0.19971436 0.085843414 -0.7012798 0.330011 -0.03131465 0.50223637 0.3279653 0.28925
0.18688846 -0.50578123 0.05900217 -0.121978424 1.2084979 -0.5157731 0.62343884 -0.5411846
0.97859895 0.73339766 0.34200886 0.050105505 0.9130398 0.87189364 0.18068771 -0.112146474
-0.0026912582 0.63439953 0.8158791 0.62209475 0.73656034 0.0786417 0.34573647 0.8951659
-0.033349067 -0.35796162 0.1209764 0.62690556 0.024477055 0.007924903 -0.27184257 -0.22097954
0.17154586 0.010682501 0.9044719 -0.5773407 0.14866374 -0.47781053 0.21971296 -0.116854034
0.09361832 -0.60134435 0.17066061 -0.014761578 0.8447461 -0.754499 0.26185852 -0.3630625
-0.034209263 -0.20706877 -0.293569 0.25994962 -0.50380665 -0.34605187 -0.4331744 0.5118923
0.27584118 0.4654384 -0.10329003 -0.15049031 0.019458141 0.124520026 -0.42489567 -0.03399974
-1.1240383 0.64491 -0.40723565 0.4050603 0.6970913 0.70614624 0.7340819 -0.3082114
0.79564965 0.5342512 0.5970904 -1.0115256 0.106521815 0.3527893 -0.2774031 -0.17732753
-0.32736793 0.13407576 -0.04634706 -0.46380973 0.9341062 -0.11384804 -0.02449172 -0.8903433
0.10591221 -0.22158957 0.15264562 -0.44761926 0.21121617 -0.03924161 0.698516 -0.61263376
0.050218724 -0.2570873 -0.07435776 -0.114646964 0.010970756 -0.39387202 0.18702692 0.012254555
0.88782185 -0.7762497 -0.09012534 -0.6307726 0.23889095 -0.3355026 0.026738575 0.042648874
-0.22954649 0.19992687 -0.8904129 0.5914896 0.15781441 0.6611595 -0.055604637 -0.07165999
-0.11292213 0.7413896 -0.37403816 0.19279586 -0.48056027 0.48633152 -0.13507272 0.22238113
0.13055094 0.25583366 0.2703051 -0.20514785 -0.06488564 -0.18682113 0.6975253 -0.6932056
-0.06246798 -0.6222709 -0.3976253 -0.27923048 -0.44436926 0.59488404 -0.14210808 -0.012040064
00000000: 5bbd 4d3e fee2 a03e eeb4 b73c 1a24 2cbf
00000010: b913 433e 4fb7 adbe 63b0 7c3f cf4b 1cbf
00000020: 4c84 e53e 070d 05bf 4079 073f b930 593f
00000030: ecdc 323f a0f3 77be f7d9 a03e 52ae 873e
00000040: c03e 39bd cdd3 f8bd 1910 b23e 1548 483f
00000050: be15 773e 0039 163f cd23 e23e 92f5 47bf
00000060: 10d1 3f3e a9a5 e1be 56ee 683f c815 3dbf
00000070: f11f 2f3f 0e2c 65be 5f4e 8bbe 07c5 3cbf
00000080: 3a5c 36bf ac8d 933e 6fe3 cbbe 999f dfbe
00000090: 0937 173f 6a13 f4be 1003 79be b3a2 6abf
000000a0: a14f 4a3e b2c6 7bbd d48b debe 4163 1e3e
000000b0: 8ead d2be c3a4 2dbe 541b 53bf 2fa6 6a3f
000000c0: c498 143e 9f6e 423f deff 703d 02c5 863e
000000d0: ae90 743d 4528 14bf 4bf2 d1bd e5ab 5ebd
000000e0: f8e3 5a3f 9cd1 26bf b889 573e 6197 eebe
000000f0: 1e64 883d 2cb2 06be dcca 143e cac5 c33e
00000100: ec71 30be 219c 8e3e 224e 51bf a05a 0e3f
00000110: d242 eabd 75f6 173f 8aba ac3d ae6f d33e
00000120: fb4e b83e 0ff6 24bf a56d 4e3c c37c 94be
00000130: b7c9 8a3f aaf0 a6be a36e e33e 1751 ddbe
00000140: 93b4 173f 6982 ad3e 64b9 8e3b 6d69 acbe
00000150: 8a4f b73c 96ea 0ebe 501b 953f c9fc 4ebf
00000160: f52f 133f cf55 cabe ca5b 493f bcbd 4c3f
00000170: 238e 0d3f c58e 7abe eafa cf3e 2c99 003f
00000180: 60d3 5f3f 93ba 00bf cecc 923e 0f23 423e
00000190: 48f8 2c3e e4ce 373d e47c b9be 9b10 d53e
000001a0: ec81 4c3e acce af3d 1387 33bf 34f7 a83e
000001b0: ca43 00bd 9092 003f 11eb a73e 9318 943e
000001c0: b05f 3f3e e17a 01bf 42ac 713d d3cf f9bd
000001d0: 0fb0 9a3f b509 04bf b099 1f3f 138b 0abf
000001e0: 7685 7a3f f3bf 3b3f c91b af3e 6e3b 4d3d
000001f0: fabc 693f 6c34 5f3f 3306 393e 0dad e5bd
00000200: d25f 30bb 0268 223f 74dd 503f 9a41 1f3f
00000210: 388f 3c3f e60e a13d 5f04 b13e 9829 653f
00000220: 0899 08bd bf46 b7be 7ac2 f73d e27c 203f
00000230: 1b84 c83c 74d7 013c f32e 8bbe 7648 62be
00000240: b8a9 2f3e a805 2f3c 788b 673f 9acc 13bf
00000250: 4f3b 183e 95a3 f4be 6ffc 603e 2b51 efbd
00000260: f6ba bf3d b4f1 19bf a8c1 2e3e 8cda 71bc
00000270: 4841 583f d926 41bf 5212 863e 54e3 b9be
00000280: 031f 0cbd d609 54be ad4e 96be 1e18 853e
00000290: 79f9 00bf b62d b1be 09c9 ddbe 600b 033f
000002a0: 0e3b 8d3e f14d ee3e b989 d3bd 221a 1abe
000002b0: ae66 9f3c 5b04 ff3d ed8b d9be 5043 0bbd
000002c0: 7de0 8fbf d218 253f 3181 d0be 1064 cf3e
000002d0: 9374 323f 00c6 343f cbec 3b3f e2cd 9dbe
000002e0: b2af 4b3f b0c4 083f ebda 183f ac79 81bf
000002f0: 1c28 da3d cda0 b43e c707 8ebe 5995 35be
00000300: c59c a7be 284b 093e 6ad6 3dbd 7878 edbe
00000310: 9521 6f3f 2929 e9bd dca2 c8bc 8aed 63bf
00000320: 80e8 d83d 60e8 62be 224f 1c3e 5a2e e5be
00000330: 0d49 583e cfbb 20bd f2d1 323f 91d5 1cbf
00000340: 26b2 4d3d f2a0 83be e248 98bd 07cc eabd
00000350: b0be 333c 98a9 c9be fc83 3f3e 54c7 483c
00000360: 4b48 633f 4db8 46bf a293 b8bd 507a 21bf
00000370: d49f 743e ffc6 abbe db0a db3c 96b0 2e3d
00000380: 3c0e 6bbe a1b9 4c3e 1af2 63bf dd6b 173f
00000390: 1a9a 213e c041 293f b0c1 63bd 79c2 92bd
000003a0: b843 e7bd b5cb 3d3f ee81 bfbe 476c 453e
000003b0: ff0b f6be 7200 f93e 8150 0abe e1b7 633e
000003c0: 25af 053e a1fc 823e 6e65 8a3e 4712 52be
000003d0: c3e2 84bd 0a4e 3fbe 0591 323f ec75 31bf
000003e0: 6dde 7fbd 254d 1fbf 8b95 cbbe 4cf7 8ebe
000003f0: 5e84 e3be 524a 183f c884 11be b043 45bc

decoder.0.bias f4 [50]
-0.32467023 0.45000505 -0.5638293 -0.43222767 -0.22160743 -0.20318234 -0.19356677 -0.4916343
-0.608397 0.20782964 -0.13759072 -0.62366307 -0.15243822 -0.029223839 0.024006264 -0.21227345
0.0368444 0.5592298 0.019827299 -0.23338208 0.017812628 0.12259634 0.0698043 0.16010417
0.14735277 0.5107508 0.01839753 0.12902893 -0.61445236 -0.21931118 -0.15284383 -0.415488
-0.63076663 0.53930306 -0.3257223 -0.08002245 -0.21352068 0.4434872 0.11203649 0.37297466
-0.18837717 -0.003431215 -0.19408695 0.5082269 0.38524953 -0.23850125 0.23056482 0.38077113
-0.10217714 0.20126928
00000000: 2d3b a6be 1067 e63e 1e57 10bf f24c ddbe
00000010: 0fed 62be 080f 50be 5e36 46be 7eb7 fbbe
00000020: e8bf 1bbf 4bd1 543e 95e4 0cbe 62a8 1fbf
00000030: c418 1cbe d566 efbc c9a8 c43c 365e 59be
00000040: 27ea 163d af29 0f3f dc6c a23c b6fb 6ebe
00000050: caeb 913c ca13 fb3d 8ff5 8e3d 59f2 233e
00000060: a5e3 163e 90c0 023f 6bb6 963c 2920 043e
00000070: c04c 1dbf 1c93 60be 1883 1cbe d8ba d4be
00000080: ec79 21bf c40f 0a3f 13c5 a6be cfe2 a3bd
00000090: 2aa5 5abe c110 e33e 6373 e53d 89f6 be3e
000000a0: f2e5 40be 3cde 60bb bbbe 46be 281b 023f
000000b0: 6d3f c53e ac39 74be 2f19 6c3e 6ff4 c23e
000000c0: 4042 d1bd 8919 4e3e

decoder.2.weight f4 [50, 50]
-0.1179572 0.17006046 -0.20494267 -0.38128468 0.32150617 -0.2860357 0.4244997 -0.18399253
-0.16833717 -0.14353131 0.47959575 -0.37579376 0.19340456 0.17179735 -0.3246897 -0.3238976
0.46150738 0.49347335 0.1195021 -0.3659248 -0.1375514 -0.31257394 0.45079458 0.06664199
-0.2898923 0.63033855 0.20597257 0.28667575 -0.13747166 -0.25744796 -0.35467613 -0.093185306
-0.33645397 0.27158073 -0.34263852 0.15893947 -0.17821527 -0.12050596 0.15295385 0.35556048
-0.27964076 -0.166419 -0.19742258 0.07639588 0.3893193 -0.37027213 0.25768435 0.5064244
-0.13698444 -0.28763723 0.25993446 0.31451276 0.08468923 -0.08823957 0.12358703 0.13194676
0.10976793 0.24647067 0.1478386 0.070726305 0.07316548 0.15001121 0.34984946 0.2570204
0.17336361 0.20260535 0.090396166 0.12816958 0.072752655 -0.06739997 0.05280923 0.0063273595
0.2720678 0.13213395 0.16707583 0.09978511 0.2616707 0.2569215 0.059454385 0.22477807
0.041346036 0.032151427 0.1768209 0.3220046 0.15597413 0.2986719 0.09976044 0.26207334
0.21060176 0.25149798 0.01637192 0.15770653 0.22191806 0.25389194 0.15369268 0.06879681
0.29048997 0.22121088 0.08428507 0.22614466 -0.4671418 0.47694272 -0.39231664 -0.29392502
0.43151024 -0.40285107 0.35642084 -0.441469 -0.4008441 -0.0727594 0.30846208 -0.31274894
0.39966494 0.29357544 -0.26126856 -0.3222748 0.3988001 0.3091665 0.13893476 -0.4568158
-0.37035552 -0.46089712 0.31349474 0.2989277 -0.35076845 0.543742 0.35394412 0.36254278
-0.24831708 -0.29713166 -0.34495032 -0.4199759 -0.34330028 0.3778672 -0.2737071 0.37567905
-0.34635472 -0.10482914 0.34398153 0.47215843 -0.46174586 -0.24618594 -0.44329777 0.34180763
0.27758315 -0.46135032 0.39377153 0.22899218 -0.2474229 -0.4414388 0.28174037 0.08619959
0.10319856 0.17122291 0.15856554 0.1948578 0.21308035 0.18784165 0.2878185 0.33942914
0.20078361 0.16711077 0.24337396 0.099267274 0.24931586 0.17897737 0.13142781 0.13036431
0.3297609 -0.051909585 0.2480562 0.23202667 0.23341848 -0.02624618 0.04621006 0.18579452
0.04873081 0.13763992 0.038497724 0.22900745 0.22931272 0.16633806 0.2715516 0.2961226
0.16851708 0.21361525 0.20264581 0.35318294 0.10443874 0.27554038 0.2647268 0.18284898
0.28839746 0.14435036 0.19060716 0.30850393 0.11721378 0.21039052 0.20572756 0.12353091
0.0238044 0.09799582 0.13762887 0.053358834 0.13803914 0.054654974 0.32598865 0.10714211
0.18458553 0.26823658 0.103593804 0.10505694 0.14930883 0.13124137 0.20553473 0.018590298
0.31758225 0.12372311 0.22763698 -0.059978236 0.17810293 0.11957284 0.26162425 0.23356242
0.083085716 0.06402732 0.18612362 0.35783735 0.22076811 0.04245955 0.10994639 0.026266173
0.16266985 0.26883093 -0.123392366 0.28739542 0.17877635 0.19971924 0.34515288 0.34049237
0.2048512 -0.11783737 0.13025865 0.17478001 0.15264456 -0.0062380866 0.3730137 0.17663465
0.017312761 -0.09069343 0.37471247 -0.44348264 0.5911834 0.3394867 -0.8445592 0.46949506
00000000: 8b93 f1bd 5424 2e3e 7edc 51be bf37 c3be
00000010: 759c a43e 4573 92be 0658 d93e 8a68 3cbe
00000020: 9460 2cbe dff9 12be 938d f53e 0a68 c0be
00000030: d80b 463e a5eb 2f3e ba3d a6be e8d5 a5be
00000040: b24a ec3e 8aa8 fc3e 84bd f43d 7f5a bbbe
00000050: 46da 0cbe b109 a0be 8cce e63e 987b 883d
00000060: c36c 94be de5d 213f 79ea 523e 2ac7 923e
00000070: 5fc5 0cbe 38d0 83be 1c98 b5be f0d7 bebd
00000080: b243 acbe a10c 8b3e 516e afbe 07c1 223e
00000090: 107e 36be d4cb f6bd ef9f 1c3e 060c b63e
000000a0: 132d 8fbe be69 2abe 2529 4abe 7175 9c3d
000000b0: dc54 c73e 4f94 bdbe 34ef 833e 08a5 013f
000000c0: a645 0cbe 3045 93be 2116 853e d107 a13e
000000d0: 8c71 ad3d f3b6 b4bd 321b fd3d 0d1d 073e
000000e0: 02ce e03d cf62 7c3e 0163 173e f4d8 903d
000000f0: c8d7 953d 8a9c 193e 781f b33e 2e98 833e
00000100: 3b86 313e c777 4f3e a021 b93d e33e 033e
00000110: 58ff 943d ff08 8abd 7e4e 583d bd55 cf3b
00000120: 784c 8b3e 1f4e 073e ed15 2b3e 235c cc3d
00000130: b4f9 853e 378b 833e 7186 733d 392c 663e
00000140: 765a 293d 37b1 033d 8a10 353e c9dd a43e
00000150: afb7 1f3e 86eb 983e 344f cc3d 7a2e 863e
00000160: fda7 573e 58c4 803e 681e 863c d27d 213e
00000170: 7d3e 633e 20fe 813e 9d61 1d3e 58e5 8c3d
00000180: 1abb 943e 1b85 623e a79d ac3d 7792 673e
00000190: 362d efbe d631 f43e badd c8be 577d 96be
000001a0: e9ee dc3e 7f42 cebe cb7c b63e 3a08 e2be
000001b0: 703b cdbe e102 95bd beee 9d3e a120 a0be
000001c0: e2a0 cc3e 854f 963e fec4 85be 3401 a5be
000001d0: 872f cc3e 124b 9e3e ea44 0e3e c3e3 e9be
000001e0: 3d9f bdbe b5fa ebbe 6282 a03e 0d0d 993e
000001f0: ec97 b3be ad32 0b3f 2a38 b53e 359f b93e
00000200: d546 7ebe a421 98be 549d b0be 1507 d7be
00000210: 0ec5 afbe cf77 c13e 5623 8cbe 0159 c03e
00000220: 6855 b1be a9b0 d6bd 591e b03e c0be f13e
00000230: f469 ecbe 2b18 7cbe edf7 e2be 6901 af3e
00000240: 611f 8e3e 1c36 ecbe 6c9c c93e ed7c 6a3e
00000250: 6e5c 7dbe 4404 e2be 4640 903e 6989 b03d
00000260: c459 d33d 0f55 2f3e 015f 223e ce88 473e
00000270: bc31 5a3e 9059 403e f25c 933e a8c9 ad3e
00000280: 389a 4d3e 161f 2b3e 0637 793e a44c cb3d
00000290: a84c 7f3e d845 373e 0395 063e 397e 053e
000002a0: 6cd6 a83e 259f 54bd 7202 7e3e 6698 6d3e
000002b0: 4105 6f3e 3b02 d7bc c346 3d3d eb40 3e3e
000002c0: f599 473d 7bf1 0c3e caaf 1d3d ee80 6a3e
000002d0: f4d0 6a3e 8654 2a3e d008 8b3e 629d 973e
000002e0: be8f 2c3e f5bd 5a3e 6282 4f3e 65d4 b43e
000002f0: fae3 d53d a113 8d3e 458a 873e c33c 3b3e
00000300: d5a8 933e 95d0 133e 862e 433e 3af4 9d3e
00000310: c70d f03d 9d70 573e 3faa 523e c6fd fc3d
00000320: 7201 c33c 08b2 c83d 95ee 0c3e cb8e 5a3d
00000330: 225a 0d3e e5dd 5f3d fce7 a63e 536d db3d
00000340: fd03 3d3e 4e56 893e fd28 d43d 1828 d73d
00000350: 6ae4 183e 2364 063e b277 523e ae4a 983c
00000360: 249a a23e 8b62 fd3d ab19 693e bdab 75bd
00000370: 9d60 363e 9be2 f43d 9df3 853e fd2a 6f3e
00000380: d828 aa3d c120 833d 3197 3e3e 7536 b73e
00000390: 0911 623e 11ea 2d3d 932b e13d 282c d73c
000003a0: ed92 263e 35a4 893e 23b5 fcbd 7e25 933e
000003b0: 2611 373e 3383 4c3e e1b7 b03e 0455 ae3e
000003c0: 83c4 513e b854 f1bd 8662 053e 88f9 323e
000003d0: db4e 1c3e dd68 ccbb a7fb be3e b7df 343e
000003e0: 7ed3 8d3c 7abd b9bd 50da bf3e 2810 e3be
000003f0: cc57 173f 33d1 ad3e 0835 58bf a861 f03e

decoder.2.bias f4 [50]
-0.22858822 0.30779898 -0.10308645 -0.008626326 0.23913144 -0.048430596 0.010582524 -0.22656405
-0.13304833 0.22494891 0.1533091 0.09085577 -0.04844567 -0.14241697 0.15404257 -0.14627339
-0.27983072 -0.11235021 -0.14629164 -0.09870063 0.28228042 0.12389409 -0.12533371 -0.037290066
0.16729127 0.069700964 0.026310302 -0.0018459862 0.14507107 -0.013773504 0.08375383 -0.28132161
0.1608852 -0.22005172 -0.116438724 -0.22337279 -0.04909944 0.21320178 -0.22128843 -0.2825287
-0.16506948 -0.15137608 -0.2286427 0.10565935 -0.07110608 -0.16203266 0.18591963 -0.061536007
-0.1186601 -0.18214338
00000000: 0813 6abe d497 9d3e fd1e d3bd 6f55 0dbc
00000010: dfde 743e 295f 46bd 5362 2d3c 6800 68be
00000020: d23d 08be 0259 663e 10fd 1c3e 9712 ba3d
00000030: f86e 46bd c1d5 11be 56bd 1d3e b1c8 15be
00000040: f945 8fbe de17 e6bd 7acd 15be 8e23 cabd
00000050: 0f87 903e 2fbc fd3d 7b57 00be 78bd 18bd
00000060: 674e 2b3e 61bf 8e3d b488 d73c 05f5 f1ba
00000070: 838d 143e 43aa 61bc 2187 ab3d 6309 90be
00000080: 17bf 243e 3d55 61be 6d77 eebd d6bb 64be
00000090: 7f1c 49bd 9151 5a3e 6f99 62be 9aa7 90be
000000a0: f907 29be 5502 1bbe 5021 6abe ee63 d83d
000000b0: 11a0 91bd e4eb 25be b761 3e3e 2e0d 7cbd
000000c0: 1104 f3bd cb83 3abe

decoder.4.weight f4 [2, 50]
-0.40589064 -0.4592585 -0.43647474 -0.31310812 -0.4579094 -0.1558975 -0.21806993 -0.28131017
-0.3682404 -0.36613762 -0.39634863 -0.4532894 -0.50004524 -0.21283022 -0.46695358 -0.19631934
-0.1951435 -0.38546515 -0.36656195 -0.23113446 -0.4222943 -0.36184546 -0.18954292 -0.20106798
-0.41361254 -0.16597681 -0.24217685 -0.24254332 -0.37547505 -0.26550412 -0.34842637 -0.22140563
-0.36119473 -0.40317044 -0.2115031 -0.288836 -0.52214193 -0.44688058 -0.21176732 -0.28548503
-0.22874875 -0.3145391 -0.3597946 -0.48195648 -0.30525932 -0.26368132 -0.36406967 -0.3890098
-0.48915562 -0.31250408 0.35158765 -0.0029439288 0.48597518 -0.12289935 0.012854991 -0.5759679
-0.55698955 -0.39320278 -0.45486867 -0.055044543 0.45629013 -0.15007177 0.42430526 -0.51603293
-0.0490795 -0.41384834 -0.43444481 -0.5039277 -0.4075836 -0.42818347 0.44354364 0.40847668
-0.45454672 -0.51352644 -0.032982975 -0.6457925 -0.69590795 -0.71684724 -0.10273505 -0.41063643
-0.068074785 -0.45210198 -0.004773325 0.35231468 -0.4035395 -0.5107925 0.43324953 -0.12529941
-0.4495898 -0.4224047 -0.4061092 -0.60014504 -0.45737532 -0.15312117 -0.42083248 -0.42452076
-0.11229024 -0.45163167 0.23424575 -0.48467842
00000000: e6d0 cfbe ee23 ebbe 9e79 dfbe b54f a0be
00000010: 1a73 eabe 98a3 1fbe b94d 5fbe e307 90be
00000020: 018a bcbe 6476 bbbe 35ee cabe 8c15 e8be
00000030: f702 00bf 2af0 59be 8a14 efbe f007 49be
00000040: b3d3 47be b05b c5be 02ae bbbe 83ae 6cbe
00000050: f536 d8be cf43 b9be 8a17 42be c4e4 4dbe
00000060: 06c5 d3be d3f5 29be 35fd 77be 475d 78be
00000070: 443e c0be 28f0 87be f164 b2be 28b8 62be
00000080: 84ee b8be 5b6c cebe 4594 58be 50e2 93be
00000090: 18ab 05bf 88cd e4be 88d9 58be 182b 92be
000000a0: 1d3d 6abe 450b a1be ff36 b8be 00c3 f6be
000000b0: f34a 9cbe 3d01 87be 5767 babe 4b2c c7be
000000c0: 9b72 fabe 8900 a0be 4c03 b43e eeee 40bb
000000d0: bdd1 f83e a8b2 fbbd bd9d 523c a272 13bf
000000e0: de96 0ebf e051 c9be 8ce4 e8be 6376 61bd
000000f0: dc9e e93e 6aac 19be 8a3e d93e bc1a 04bf
00000100: 9607 49bd eee3 d3be 8d6f debe 6801 01bf
00000110: ccae d0be dd3a dbbe 2718 e33e db23 d13e
00000120: 59ba e8be 7876 03bf 2819 07bd a852 25bf
00000130: 0627 32bf 4d83 37bf c166 d2bd f03e d2be
00000140: cb6a 8bbd e979 e7be 8d69 9cbb 9762 b43e
00000150: bb9c cebe 4cc3 02bf e2d2 dd3e 7d4e 00be
00000160: a230 e6be 6e45 d8be 8ced cfbe 1ba3 19bf
00000170: 192d eabe cccb 1cbe 5b77 d7be c95a d9be
00000180: 6df8 e5bd 443c e7be 1ede 6f3e c527 f8be

decoder.4.bias f4 [2]
-0.31573215 -0.11113133
00000000: a5a7 a1be d398 e3bd
