week1/1.3/closed_loop_trained_RNN_model2.pth (torch, 22679 bytes, 20 tensors)

ffnn.0.weight f4 [20, 4]
000000 27 9b b4 be ea 55 9a 3f a2 bc ad bd f7 bd bd bd
       -0.35274622 1.2057469 -0.084832445 -0.092647485
000010 15 2b 8e be 9a 00 79 3f e4 18 e5 bd 15 0f 51 bf
       -0.27767244 0.9726654 -0.11186388 -0.8166364
000020 b9 46 38 bf 74 42 46 bf c2 b8 af 3d 8c 31 48 bf
       -0.71982914 -0.7744515 0.08580162 -0.782006
000030 0a 7c 60 bf 4b 66 8d 3f 51 2e 45 bf d8 cc 27 3f
       -0.8768927 1.1046842 -0.770238 0.6554694
000040 57 ff 84 be 3e 5f b5 3f 19 a2 a9 be 47 1e b5 3e
       -0.2597606 1.4169691 -0.33131483 0.35374662
000050 88 f3 6e 3e 83 67 68 bf fb f5 3b bf 0f 32 35 3e
       0.23335087 -0.90782946 -0.7342221 0.17694877
000060 92 4a 81 3f 14 7b 37 bf cf 18 97 3f 64 52 d3 be
       1.0100882 -0.7167218 1.1804446 -0.41273797
000070 62 16 07 3f 18 0e a4 3f 2b 06 3a 3f 60 31 e0 bc
       0.5276853 1.2816801 0.7266566 -0.027367294
000080 7e 93 bd 3e 1b 59 97 bf 31 f0 bb be 7d b0 43 be
       0.3702659 -1.1824068 -0.3670669 -0.19110294
000090 cf 75 a2 bd a0 6a 3f 3f 4c d9 bf 3e d1 f7 74 bf
       -0.079326265 0.7477207 0.37470472 -0.9569064
0000a0 b3 2c 7c bf ed dd 55 bf 01 14 ee be 04 49 66 3e
       -0.98505706 -0.83541757 -0.46499637 0.22488791
0000b0 be 39 29 bd 97 e6 d4 be bf 82 5c 3e 83 30 82 3f
       -0.041314833 -0.41582176 0.2153425 1.0171055
0000c0 12 0b 92 3d 4f 23 22 3e ca 90 58 3f fa aa 17 bf
       0.07131018 0.15833782 0.8459593 -0.59245265
0000d0 12 0a 11 be 55 e1 6a bf d2 01 e0 3e 0b 83 ff 3e
       -0.14163998 -0.9175008 0.4375139 0.49904665
0000e0 e0 cf 32 bf 0e df 2b 3f ac 3e 86 bf 26 b8 55 3f
       -0.6984844 0.6713723 -1.0487876 0.83484113
0000f0 3c af 9b 3e 39 75 4a bf 24 ec 16 bf 5e 86 62 3f
       0.3040713 -0.7908512 -0.5895407 0.8848628
000100 3b c9 4b 3e 7a 23 c7 3f 47 43 82 3e 94 c2 bd 3e
       0.19900982 1.5557702 0.25441954 0.37062514
000110 b0 ef a4 bf 52 d7 5d 3f fb 19 77 bf b7 b9 2b 3f
       -1.2885647 0.8665668 -0.9652402 0.67080253
000120 8c a6 c9 be b7 70 bd be 44 b2 ab 3e e2 c7 8a 3f
       -0.39384878 -0.37000057 0.33534443 1.0842249
000130 7b 9a 0a 3e a0 d5 33 bf 86 16 0e bf 4b 50 7f 3f
       0.13535492 -0.7024784 -0.5550312 0.9973189

ffnn.0.bias f4 [20]
000000 bf ef 8d 3d 18 94 58 be a0 d8 10 3e 1d 58 66 bf
       0.069304936 -0.21150243 0.14145136 -0.899782
000010 9c 02 18 bf 3a a5 c3 bd 4f d4 74 3f a8 2d 55 be
       -0.5937898 -0.09552999 0.9563646 -0.20818198
000020 ce bd 13 3d 3f 9d 02 bf 74 80 0f 3e 23 0a d7 bd
       0.036069684 -0.5102119 0.14013845 -0.1049998
000030 1e ae 82 be 31 1a 89 3e 01 71 58 bf 9d 23 9b 3d
       -0.25523466 0.26777795 -0.8454743 0.07575152
000040 eb c2 e1 bd 7a d6 8f bf bc 03 e2 3e 9b a6 dd 3e
       -0.11023506 -1.1237328 0.44143474 0.43291172

ffnn.2.weight f4 [20, 20]
000000 1a 44 d6 3e ec e6 b2 3e 36 b9 a3 be ef 75 2a 3f
       0.41848832 0.34941804 -0.31977242 0.665862
000010 55 f4 26 3f 63 e2 08 bf 6c 66 76 3c 54 70 a3 3e
       0.6521657 -0.5347044 0.015039068 0.31921637
000020 b8 27 04 bf 6f d2 c9 3d 01 47 be be 28 9c 13 3e
       -0.51623106 0.0985459 -0.37163547 0.14415038
000030 4b bb b0 3e 99 bb 98 be a5 78 b6 3d 1e f0 e7 be
       0.34517893 -0.29830626 0.0890973 -0.45300382
000040 06 dc 45 3f a6 a4 25 3f 80 eb 75 3d 7c bf f9 bd
       0.77288854 0.6470436 0.060039043 -0.12194726
000050 7e ef 93 be f1 a1 79 be 0c 3c ee 3c ba 64 08 bf
       -0.28893656 -0.24378182 0.029081367 -0.53278697
000060 b5 d5 99 be bd af 18 3f 42 06 0c 3e c5 73 b3 be
       -0.30045858 0.59643155 0.13674262 -0.35049263
000070 35 cd 20 3f 4e 76 e1 be 1a fe b7 3c 6f b1 da 3d
       0.6281312 -0.44035572 0.022460032 0.10678374
000080 71 af a8 be c2 4a df 3e dd cf b9 3d 97 62 f6 3e
       -0.3294635 0.43611723 0.0907285 0.48122093
000090 04 22 2d bf 38 3f 05 bf 19 e3 4e be b1 d9 8f 3e
       -0.6763003 -0.5204959 -0.20203818 0.28095773
0000a0 78 1d ad 3e e4 58 12 3f a3 24 b5 3d a0 e8 5b 3e
       0.33811545 0.57166886 0.088448785 0.21475458
0000b0 d6 30 2a 3f 5e 16 8c be e0 b5 a5 be 7b b1 12 3f
       0.6648077 -0.27360815 -0.32365322 0.57302064
0000c0 06 3e 9e be e2 17 98 3e 94 bc e3 be c9 63 a2 be
       -0.30906695 0.2970572 -0.4447981 -0.31716755
0000d0 a7 23 64 3d 93 49 b5 be b0 72 2e be 91 fc fe be
       0.055698063 -0.35407695 -0.17035937 -0.49802068
0000e0 eb 17 0c 3f 20 32 1d 3e bb eb 31 3c 93 42 fb be
       0.54723996 0.15351152 0.010859425 -0.4907423
0000f0 2c 35 0f 3f 44 d4 47 3f d8 76 ce be 55 be 71 3f
       0.5594051 0.78058267 -0.40325046 0.9443105
000100 fe 63 4c 3f 97 8d 06 bf 89 4d 6b bf 07 79 d8 3e
       0.79840076 -0.525598 -0.91915184 0.42279837
000110 39 ee 37 bf 14 56 ab 3e b3 a1 85 be b8 91 26 bf
       -0.71847874 0.3346411 -0.2609993 -0.650661
000120 22 ea 90 be 10 58 3c bf d8 f8 53 3f cf 2b f5 be
       -0.2830363 -0.7357187 0.8280158 -0.47884986
000130 a5 fb 21 3f 1c 25 4b 3f f8 11 0d bf d0 ec 00 bf
       0.63274604 0.793535 -0.55105543 -0.5036135
000140 43 53 00 bf ae cd d9 be 25 f8 56 3e 3f d7 3f bf
       -0.5012705 -0.42539734 0.20993097 -0.74937814
000150 07 13 45 bf 5c 65 b8 3d 2e 70 7e 3f 1b da 06 be
       -0.7698216 0.09003708 0.9938992 -0.13169138
000160 0a 53 36 3f 48 b1 4e bd f5 6e de bc 84 85 e1 3e
       0.7122046 -0.050462037 -0.027152518 0.44047177
000170 10 b5 33 3f f5 bc a3 3e df 58 65 bf 42 79 48 3e
       0.70198154 0.319801 -0.8958873 0.19577506
000180 6b 9c 96 be f5 01 5c bf 53 45 ac 3d ff 48 e6 3e
       -0.29416212 -0.85940486 0.0841166 0.44977567
000190 85 5e ba 3e 17 39 a3 3e 40 ff 78 be 46 57 c0 3e
       0.36400238 0.31879494 -0.2431612 0.37566584
0001a0 9f 42 59 3f b1 14 81 be c5 85 54 be 3a 73 31 3f
       0.8486728 -0.252111 -0.20754154 0.69316447
0001b0 cb f0 0c bf 5a 53 24 3f 69 21 59 be a0 b4 82 3d
       -0.5505492 0.64189684 -0.21204151 0.06382108
0001c0 89 c7 a7 3e 00 84 be be fa 23 00 3e 66 46 0d be
       0.3276942 -0.37210083 0.12513724 -0.13796386
0001d0 49 96 20 3f 6c ad 82 3e 91 ea 5d 3e 3c 11 f1 be
       0.62729317 0.25522935 0.21671511 -0.4708346
0001e0 21 3c 69 be 3d 9b b4 bc 57 f9 5f bd c0 39 70 3e
       -0.22776844 -0.02204668 -0.05468115 0.2345953
0001f0 57 be 6f be 28 e2 95 3e 20 b8 62 be c1 56 13 bf
       -0.23412453 0.29274106 -0.2214055 -0.5755425
000200 9c 51 80 3e 9e 47 75 be 61 be aa 3e b7 b0 86 bc
       0.25062263 -0.23953101 0.33348373 -0.016441686
000210 85 da 9b be 62 22 cf bd cf 85 36 3e 7d 9c a5 3e
       -0.30440155 -0.1011398 0.17824481 0.32345954
000220 bf 36 a2 be 78 e3 a6 3e dc 14 d2 3d 2d 77 ca 3e
       -0.31682393 0.3259542 0.10257885 0.3954405
000230 97 08 32 3e 5f d3 69 3d bc 76 32 be 5e e3 b1 3e
       0.1738609 0.057086345 -0.17428106 0.3474378
000240 9f ad cb 3e c6 16 48 bd ff 44 fa bd e5 fe 06 3f
       0.397809 -0.048849843 -0.12220191 0.5273269
000250 e5 cf e5 be 16 a9 6d 3d d6 53 1e be a2 47 c0 bd
       -0.44885173 0.05802258 -0.15461668 -0.09388663
000260 1e b1 d1 3e 03 00 17 be 30 96 7d 3e cf 89 8a be
       0.40955442 -0.14746098 0.24764323 -0.27058265
000270 6b f7 1f 3f c9 39 a9 3d 87 9a 49 be 3f 96 d8 bd
       0.62486905 0.08262975 -0.19687854 -0.10575532
000280 fe ea 49 be b8 b8 60 3e ff d3 a8 3e 83 a5 f7 be
       -0.19718549 0.21945465 0.3297424 -0.48368463
000290 2e 2a 7a bd 4e a2 ab bb c7 79 8b 3e 26 25 20 3e
       -0.061075382 -0.005237854 0.27241346 0.15639171
0002a0 e9 58 c1 bc 69 20 8b bd fc 64 a1 3e c8 f3 09 3e
       -0.023601966 -0.06793291 0.31522357 0.13471901
0002b0 00 03 42 3e d0 21 d4 3e b7 cc 90 be 1a 51 a4 bd
       0.18946457 0.41432047 -0.28281185 -0.080232814
0002c0 1c ce 12 be bf 78 09 bf 02 62 96 3e e6 df 35 bd
       -0.14336437 -0.5369987 0.2937165 -0.04440298
0002d0 db 44 37 3e b9 1d e0 3e 8b bf 6a 3a 0c c0 56 3e
       0.1789736 0.43772677 0.0008954934 0.20971698
0002e0 ba cf 71 3e c4 91 e2 bd 92 bc c5 bd 93 b1 c3 3e
       0.23614398 -0.11062959 -0.096551076 0.38221416
0002f0 e4 a1 a8 be 56 83 cb 3e 45 7a 05 be 40 d2 c6 be
       -0.32936013 0.3974864 -0.13034923 -0.38832283
000300 9d aa ee 3e 26 b3 bb be 54 5d cf be 44 d8 0a bf
       0.46614543 -0.36660117 -0.4050089 -0.54236245
000310 7d 00 84 3e 1b 63 00 be 73 4d ab be 84 b7 81 be
       0.25781623 -0.12537806 -0.33457527 -0.25335324
000320 77 a8 9e 3e ac d5 f6 bc 19 69 a7 3e 1f f8 3f 3d
       0.30987903 -0.030131184 0.3269737 0.046867486
000330 28 ad 8d 3d 3a 66 c4 be ad 2a 8d be 4a a9 92 3e
       0.069177926 -0.38359243 -0.27571622 0.28644782
000340 4e cf bf bb 2e 7d c5 3e d1 62 20 3e 8b e9 3e be
       -0.00585357 0.38572067 0.15662695 -0.18643777
000350 c7 ba cc 3e 21 c0 fb bd 5d 4d 36 3d a8 c3 21 be
       0.3998625 -0.12292505 0.044507373 -0.15797293
000360 16 bc f5 3d 67 c1 10 3d d6 4d 60 3d 20 70 57 be
       0.11998765 0.035340693 0.05476173 -0.21038866
000370 41 c7 83 3e 24 ec b2 bc 07 67 81 be 8e 62 d2 3e
       0.25737956 -0.021841116 -0.25273916 0.41090816
000380 22 c4 4b 3e c3 7c 7a 3d 2b 53 56 bf e5 12 a5 bd
       0.19899037 0.06115414 -0.83720654 -0.080602445
000390 f9 b2 91 be 0a 7d d0 bd bc 83 58 3e 54 33 b9 be
       -0.28456858 -0.10180099 0.21144003 -0.36171973
0003a0 78 67 8d be 94 ab a1 be 38 d1 ec 3e e1 62 62 be
       -0.27618003 -0.31576216 0.4625337 -0.22108032
0003b0 44 11 32 3d c9 44 29 3f ec 8a af bc 26 9e c4 be
       0.043473497 0.6612058 -0.021428548 -0.38401908
0003c0 33 a8 da be da 7b 72 be e7 37 f8 3e b8 21 3e bf
       -0.4270645 -0.23680058 0.4848015 -0.742702
0003d0 24 58 26 bf e7 e0 eb 3d bd 9e 8a 3f 3f a5 b3 be
       -0.6497824 0.11517506 1.0829693 -0.3508701
0003e0 11 88 35 3f 82 51 5b bd a7 96 05 3f 72 d7 8e 3d
       0.70910746 -0.05354453 0.52183 0.06974687
0003f0 70 76 ce 3e 48 fc 15 3f 19 a0 35 bf 13 67 01 3e
       0.40324736 0.58588076 -0.70947415 0.12636976

ffnn.2.bias f4 [20]
000000 25 90 a5 be d7 cb 33 bd 88 fe 1e 3e b8 25 10 bf
       -0.32336536 -0.04389557 0.15526783 -0.56307554
000010 94 c2 86 3e 07 6f 04 be 51 cd 54 3d d8 07 2d bd
       0.26320326 -0.12932979 0.051953617 -0.04224381
000020 16 c2 80 3e 5d 38 e0 bc ff b9 3f bd d1 a7 b2 be
       0.25148076 -0.027370626 -0.04680824 -0.3489366
000030 4e 1e 8c 3e ea d7 70 3e 15 e7 42 3e c0 b0 1f be
       0.2736687 0.23519865 0.19033463 -0.15594769
000040 88 61 d6 3d 12 ce 29 bc a1 fd 9b be 39 56 13 3d
       0.10467821 -0.010364072 -0.3046694 0.0359709

RNN.weight_ih_l0 f4 [10, 20]
000000 32 72 cd be 2d 56 df 3e 4f 10 ff bd 56 2a 30 be
       -0.40126187 0.43620434 -0.124542825 -0.1720365
000010 c3 35 f8 3d 37 a4 f0 be 17 6e 8a 3e 07 26 b3 3d
       0.12119629 -0.47000286 0.27037117 0.087474875
000020 5b 2f ac 3e d4 03 78 3e dd 2c 9c 3d fc 0c 9b bd
       0.3362988 0.2422021 0.076257445 -0.07570836
000030 c2 9d 04 3f da 0b a1 be 79 aa 65 3e f8 df 07 be
       0.5180322 -0.31454355 0.22428311 -0.13269031
000040 ef 2c ab 3d a2 de 8d 3e c8 35 dc 3d ce e5 87 be
       0.0835818 0.27708918 0.107524455 -0.26542515
000050 93 40 8e 3e 44 69 86 be 69 1c 99 bd ca 18 10 3e
       0.2778364 -0.26252186 -0.07476122 0.14071956
000060 92 c6 8d 3e 11 64 ca 3e 80 2a bc be 9e 1b e2 3e
       0.2769056 0.3952947 -0.36751175 0.44161695
000070 93 c5 c0 be b2 e1 15 3d 2d 28 f0 bd b5 cc 97 3d
       -0.37650737 0.036592193 -0.11726413 0.07412092
000080 a8 dc 50 be e2 7b 07 bf 36 ee 50 bd ea a1 5a 3d
       -0.20396674 -0.52923405 -0.051008426 0.05337707
000090 55 ea 23 bf ee c7 2a bf 61 9b 23 bc 0b 2b ed 3d
       -0.6402944 -0.6671132 -0.009985776 0.115804754
0000a0 1e ec 0e 3e 47 0c 9b 3e 7a 9d 53 be 48 a2 e0 3d
       0.13957259 0.30282804 -0.20665541 0.10968453
0000b0 86 54 47 3e 11 a8 6e 3d 37 ec 62 3e b6 5d 58 be
       0.19465837 0.05826575 0.22160421 -0.21129498
0000c0 7f 00 96 be f3 c4 c5 be a5 a4 70 be a3 50 a2 3e
       -0.29297253 -0.38626823 -0.23500307 0.31702146
0000d0 c8 e1 c0 3c 3c 53 96 be ee 7c 0f ba 9f b2 62 3e
       0.02354516 -0.29360378 -0.0005473633 0.22138451
0000e0 eb 1a ba 3e 20 59 8b 3e cb 0e 97 3d 0b cc 8a be
       0.36348662 0.27216434 0.073758684 -0.27108797
0000f0 d6 96 45 bf d5 10 49 3f 59 1d 36 bf f2 a5 54 bf
       -0.7718328 0.7854131 -0.7113853 -0.8306571
000100 04 c9 f4 3e 6c 63 30 bf 24 55 13 3f 48 c9 23 bf
       0.47809613 -0.68901706 0.5755179 -0.63979006
000110 f9 4e f0 3e b2 7e 4b bf 0f 9a d5 be 0c 16 0d bf
       0.4693525 -0.79490197 -0.417191 -0.55111766
000120 8f 58 50 3f b6 0f a3 3e e6 e0 92 3e 18 00 f7 3e
       0.8138513 0.31847924 0.2868721 0.4824226
000130 b0 58 0d 3f 10 1b 67 3f b4 86 3e bf 66 3c 84 bd
       0.5521345 0.9027567 -0.7442429 -0.064568326
000140 41 f8 8a be 1f 91 34 be ca 12 d8 3d 5b b4 b1 bd
       -0.27142528 -0.17633484 0.10550459 -0.08676978
000150 60 bc 47 3b 36 d1 99 3d f2 ca 4c 3e 56 f9 c5 be
       0.003047727 0.07510607 0.19999292 -0.3866679
000160 bd 73 ee 3d b8 d8 f0 bd b4 59 73 be 16 57 97 bd
       0.11643169 -0.11760086 -0.23764688 -0.07389657
000170 88 5a 6b 3e 95 0a 73 be ed 8c fd bb 33 0b 94 3e
       0.22983754 -0.23734505 -0.007737747 0.28914794
000180 0a 4c c2 3e 6b 9c 98 3e 8d 32 81 be 92 c4 e7 3d
       0.37948638 0.29806837 -0.2523388 0.1131679
000190 fe 37 52 3f 40 71 91 be dd a7 78 3e dd 54 3e 3f
       0.8211669 -0.28406715 0.24282785 0.7434824
0001a0 cf b7 1e bf 3f 28 03 3f 60 1f 54 3e f1 9f 3e 3f
       -0.6199922 0.51233286 0.20715094 0.744628
0001b0 2d cd f3 be 57 fe 0c 3e 15 6f b3 3e 85 86 04 3f
       -0.47617474 0.13768898 0.35045686 0.5176776
0001c0 03 f6 23 bf 48 76 37 3f 31 1d 98 be b5 72 a2 3e
       -0.6404726 0.7166486 -0.2970977 0.3172814
0001d0 71 bc 37 3d 05 9f b3 bd 50 b9 09 3e 32 a8 ce bb
       0.044857446 -0.08770565 0.13449597 -0.0063066715
0001e0 12 6e 8c be b8 01 8d 3e 17 c0 42 be 63 2f 88 3d
       -0.27427727 0.27540374 -0.19018589 0.06649663
0001f0 fa a5 14 3e a4 98 8e be ec 06 34 3d e6 68 8b be
       0.1451644 -0.2785083 0.043951914 -0.2722847
000200 5d 7e 07 bd cd 7a 29 3c ae d3 6f be 81 25 22 bd
       -0.033079494 0.010344219 -0.23420593 -0.039586548
000210 71 d0 16 bc a6 8a c4 3e b0 4e d3 3e 31 65 0b 3e
       -0.00920497 0.3838703 0.4127097 0.1361282
000220 5b af 93 3e 52 7a 96 3e e5 31 f0 bc 04 e1 9d be
       0.28844723 0.29390198 -0.029320667 -0.30835736
000230 b7 09 18 be 2a 70 80 bd 34 e0 67 3e 99 84 d0 3d
       -0.14847456 -0.062713936 0.2264412 0.10181541
000240 ec bf 01 3e 11 2f ca 3e 3c 1c 69 3e c2 b3 97 3d
       0.12670869 0.39489034 0.22764677 0.07407333
000250 96 3f d8 3e 9e 80 e8 3e af 49 18 3f 4c 79 54 bd
       0.42236012 0.45410627 0.5948743 -0.05187349
000260 9b 8b 42 3c 79 1d 49 3e b9 e7 c7 3e 5d 36 8b bd
       0.011874105 0.19640149 0.39043978 -0.06797478
000270 d1 95 de bc 21 67 86 be a6 22 61 3e d0 80 b7 bd
       -0.027171047 -0.26250556 0.21985874 -0.08960116
000280 40 00 e5 be 61 8f 9f 3e e2 d8 fa bc 2a 96 42 bd
       -0.44726753 0.31164077 -0.030620996 -0.04750649
000290 b4 f2 84 3d b4 26 bf be 3a bd ab be d9 dc e7 bd
       0.064916044 -0.37334216 -0.33542806 -0.1132142
0002a0 7a cb 63 bc 2c ce 60 be 0c 4b a1 be 03 76 87 be
       -0.013903493 -0.21953648 -0.3150257 -0.26457223
0002b0 ca 22 fd be fe 71 d1 bd 3c 3f a7 be f8 48 8e be
       -0.49440604 -0.102268204 -0.32665431 -0.27790046
0002c0 4f b5 f5 be d2 6e 88 3c 06 45 1b 3e 9f 4d b9 bd
       -0.4798989 0.016654406 0.15163049 -0.09048008
0002d0 3f 05 20 3e 9f 89 ad 3c 51 ed 3f be e5 94 dc be
       0.15627001 0.021183787 -0.18742873 -0.43082348
0002e0 63 46 ff 3e a4 20 16 3e b7 6b 94 be c4 9e a2 3e
       0.49858388 0.14660889 -0.2898843 0.31761754
0002f0 a2 17 14 3f 32 e2 d7 bd e7 15 66 3e 2c 3e e3 be
       0.5784856 -0.1054119 0.22469293 -0.4438337
000300 f0 80 98 3e 08 26 51 3e 27 d6 79 3d 83 dd 54 3e
       0.29785872 0.20424664 0.060995247 0.20787625
000310 d8 07 18 bc fa 90 97 be 15 66 ea 3e 00 b2 2a bd
       -0.009279214 -0.29602796 0.45781007 -0.04167366

RNN.weight_hh_l0 f4 [10, 10]
000000 81 43 a7 3e c5 f1 1a 3f 13 34 8f 3f 4b 23 4b be
       0.3266869 0.6052516 1.1187767 -0.19837682
000010 75 b3 a9 3e 67 a6 ae bc 9c 48 9a bd 70 62 31 bf
       0.33144727 -0.021319581 -0.075333804 -0.6929083
000020 21 65 b8 be 21 80 88 bf 9f ac 1c bf 57 ca 41 3e
       -0.36014655 -1.0664102 -0.612009 0.18924843
000030 e6 f5 e4 3e 95 b5 59 bf bb 09 92 3e 52 d4 ae 3f
       0.44718856 -0.850427 0.2852305 1.3658545
000040 cc c4 82 bf 27 e3 e6 3c 4e d9 0f bf 2b bc bb 3c
       -1.0216308 0.028184487 -0.56190956 0.022916874
000050 f1 6f 90 3d cc 33 0b bf 04 91 c3 3d 07 b2 3f 3e
       0.07052601 -0.5437591 0.09549144 0.18720256
000060 c4 29 7b 3e a6 00 44 3d 3a d4 82 3e 8f 93 35 3d
       0.24527651 0.04785218 0.2555254 0.044330176
000070 26 46 fe bd 06 3c 51 be 0c b3 54 3e 14 5c ff 3e
       -0.124157235 -0.20433053 0.20771426 0.49874938
000080 14 c9 4e bf 87 ba 9a 3f 4a 89 73 be a1 1c 3f 3e
       -0.8077557 1.2088174 -0.2378284 0.18663265
000090 a0 28 88 3d cf fc a4 ba f9 db b6 3f 07 a7 2f 3f
       0.066483736 -0.001258755 1.428588 0.6861424
0000a0 62 1c 8a 3e 7b 86 cc 3d 20 c9 6e be 9a 60 f5 3e
       0.2697478 0.099865876 -0.2331891 0.47925264
0000b0 98 22 61 3e 0c a8 a9 3e fb 7e 35 3f 26 d5 32 be
       0.21985853 0.33136022 0.7089688 -0.17464122
0000c0 1c 62 8d bd 21 4f 84 be 7a 56 90 3e b0 a5 0f bf
       -0.069034785 -0.2584162 0.28190976 -0.56112194
0000d0 9c 14 4b 3f 76 e0 86 3e e0 fd 26 3f 5c ee 18 bf
       0.7932832 0.26343125 0.6523113 -0.5973871
0000e0 cf af ad 3e ab f5 39 bd bf cb af 3e 62 e1 3a bf
       0.33923194 -0.045400303 0.34335133 -0.73000157
0000f0 e5 eb ce 3d da 34 98 3e c9 f1 b5 3e 0b 61 c8 3d
       0.10103587 0.29727823 0.3553603 0.097841345
000100 02 9e 5b be b3 0c ce 3c be 48 4d 3f e7 7f 3b 3d
       -0.21446994 0.02515254 0.8018912 0.045776274
000110 60 90 f7 be c2 da b5 bd 6a 9b d9 be 63 30 17 bf
       -0.48352337 -0.08879615 -0.42501384 -0.5905821
000120 91 49 55 bf de c2 ac 3e 46 8b 15 bf 9b 6f 5e ba
       -0.8331538 0.33742422 -0.5841564 -0.00084852584
000130 c9 15 7d be 56 f3 8c 3e 60 d7 18 3f 0a 88 5d 3f
       -0.24715342 0.275294 0.59703636 0.86535704
000140 2a 04 8e bd 88 61 59 3f ba c3 e4 be 89 83 3d bf
       -0.06934388 0.84914446 -0.44680578 -0.7402883
000150 b9 e4 33 bf 82 c5 fa bd 25 59 06 bf 1a 0c e9 3e
       -0.7027088 -0.12244703 -0.52479774 0.45517045
000160 87 22 16 3f d0 33 01 3f 2b fe 27 be 83 fc 3d 3e
       0.58646435 0.50469685 -0.16405551 0.18553357
000170 f7 66 23 bf d2 7f 3f 3e 71 6f 15 bf c1 e8 11 bf
       -0.63828987 0.18701103 -0.5837317 -0.5699578
000180 86 89 17 bf c4 af 2d 3e f2 f2 35 3e 55 e6 18 3f
       -0.5919422 0.1696158 0.17768458 0.5972646

RNN.bias_ih_l0 f4 [10]
000000 12 f9 84 3d f6 8b 7c 3e a7 5e 3f 3d 70 f4 01 3c
       0.06492819 0.24662766 0.046721127 0.007931814
000010 4b 67 69 3d 12 46 b1 be 40 e6 b7 3e da 9d e3 bd
       0.056983273 -0.34623772 0.35917854 -0.11114092
000020 d5 24 d6 3d 35 54 b1 bd
       0.10456244 -0.08658639

RNN.bias_hh_l0 f4 [10]
000000 92 5b a1 bd 9c 28 a2 bc 87 dc 03 be 4c 17 d8 3d
       -0.07878794 -0.019794755 -0.12877093 0.105513185
000010 4c ee 05 bd a2 09 96 3d 60 c6 f7 3d e2 a9 62 bc
       -0.03269796 0.07326056 0.12098384 -0.0138344485
000020 15 bd ce 3d d6 f7 11 3e
       0.10094658 0.14254698

RNN.weight_ih_l1 f4 [10, 10]
000000 d2 e2 0e bf de 70 3a be 12 bb 44 bf ac b3 d3 be
       -0.5581485 -0.18207118 -0.76847947 -0.41348016
000010 72 35 9a bf 32 3a a0 bd 4b d1 99 be 8f 25 30 3f
       -1.204756 -0.078236 -0.3004249 0.6880731
000020 91 b8 18 3f d1 a3 41 3f ed e7 b8 be 6a 69 6d 3f
       0.59656626 0.7564059 -0.36114445 0.92738974
000030 b7 0b c6 be 4a 44 82 bd c3 0a 5e be 83 97 8d 3d
       -0.38680813 -0.06360681 -0.21683793 0.06913664
000040 c2 c9 0c bf 68 ba ad bc ce b0 57 be 4f 98 2d 3f
       -0.5499536 -0.02120705 -0.2106354 0.6781053
000050 6c b3 9e bd e1 07 d5 be 5d cd ec bd 7d a3 e4 3e
       -0.07749066 -0.41607574 -0.115626074 0.44655982
000060 1a e2 81 3f 9d 4c fb 3e 51 9a 7e 3f 4d ad 8c 3e
       1.0147126 0.4908189 0.9945422 0.27475968
000070 69 a8 84 bf a0 20 2f bd db ab 2c bf 06 6d d5 be
       -1.0363895 -0.042755723 -0.6744973 -0.4168474
000080 26 23 30 3e 0d 48 93 3f 21 78 75 be d8 89 eb 3e
       0.17200908 1.1506363 -0.23971607 0.46003604
000090 25 c6 af bf fd 57 8a 3f 79 76 0a bf ab 29 17 3f
       -1.3732344 1.0808102 -0.54087025 0.59047955
0000a0 5c 42 44 3f 69 90 8d bf d8 67 85 3e 43 25 61 be
       0.76663756 -1.1059695 0.2605579 -0.2198687
0000b0 cb 9f 6c 3f b5 cd aa 3f 48 16 55 3f dc 48 cd be
       0.92431325 1.3344027 0.83237123 -0.4009465
0000c0 96 da 29 bf b3 ac ce be fc 6f 0d 3f a6 24 d7 be
       -0.6634916 -0.40366134 0.55249 -0.42020148
0000d0 5a 85 85 3f 95 fe 84 bf 34 91 1c 3f 1c 24 19 3f
       1.0431321 -1.0390192 0.6115906 0.59820724
0000e0 cf 03 fa 3e c3 10 cb be 84 1b d2 be e7 95 6f be
       0.4883103 -0.39661226 -0.41036618 -0.23397027
0000f0 e9 d5 52 bd 67 59 10 3f 33 62 b8 be 8d 10 1f bf
       -0.051473532 0.5638642 -0.3601242 -0.6213463
000100 81 6f 45 bf df bc bf be 68 ae 51 bd 01 17 ac 3e
       -0.77123266 -0.37448785 -0.051191717 0.336113
000110 4e f8 95 3f ac 4c 62 3c a5 52 27 bf e3 50 e5 bf
       1.1716402 0.013812225 -0.6536048 -1.791531
000120 84 0d fc be ac 14 ce 3f 20 c8 31 be 92 6f 91 3f
       -0.49229062 1.6100059 -0.17361498 1.1362174
000130 d5 99 db bb c1 16 86 3f 55 3f 2d bf a7 eb 63 3f
       -0.006701688 1.0475694 -0.6767476 0.8903145
000140 b1 03 ec bd 6a 34 52 3f 44 89 d6 3e ee 57 c5 bd
       -0.115241416 0.8211123 0.419016 -0.09635912
000150 e9 24 ae 3d d5 b2 da be d3 0b e6 be 59 e1 ae bd
       0.08503134 -0.42714563 -0.44930896 -0.085390754
000160 60 cd a9 be fc 8b 69 bc 27 8c e8 bd a1 4e 6a bf
       -0.331645 -0.014254566 -0.11354857 -0.9152623
000170 98 53 0c 3e cb 3d 6f be 71 f2 81 3f 26 ac 62 bf
       0.13703763 -0.23363416 1.0152112 -0.8854393
000180 56 44 04 bd 50 70 62 3d 86 55 ac 3e e5 e3 a2 3e
       -0.032291733 0.05528289 0.33659 0.31814495

RNN.weight_hh_l1 f4 [10, 10]
000000 59 b6 ba 3e 7b 4b d4 3e 6c e4 4a bf 51 91 0a bf
       0.36467245 0.41463837 -0.79254794 -0.54127985
000010 c9 63 99 3f 22 af 8e 3e ac b6 ea be 05 38 19 3f
       1.1983577 0.2786799 -0.45842493 0.59851104
000020 fd 65 34 be e1 53 c9 3e 1a ab 58 be 95 48 76 be
       -0.1761703 0.39321807 -0.2115902 -0.24051125
000030 fe 16 ed 3e 55 a0 ae bd d6 cd 88 bf b6 43 70 be
       0.46306604 -0.08526675 -1.0687816 -0.2346333
000040 25 fc f0 3e 26 43 79 3e 01 59 06 bf 86 87 de 3e
       0.4706737 0.24342021 -0.5247956 0.4346277
000050 8b 2a 8a 3e 3e b3 ab be 14 50 5c be 86 03 c6 be
       0.26985583 -0.33535188 -0.21514922 -0.38674563
000060 30 3c 3f 3e b3 6a 83 be ce c6 6b bf 58 ea 41 bf
       0.18675303 -0.25667343 -0.92100227 -0.75748205
000070 c5 a9 19 3e a6 a5 cb be 30 46 8d 3e 95 25 bb 3e
       0.15006168 -0.39774817 0.2759261 0.3655211
000080 26 30 58 bf 70 65 47 3f 17 15 a8 3e ec 7d bc bf
       -0.8444847 0.77889156 0.3282859 -1.4725928
000090 d5 0f 4e bf f0 c3 b8 3e 2e 0c bd be 2c 26 8a bf
       -0.8049291 0.36086988 -0.36923355 -1.0792899
0000a0 87 90 e2 3e 0b 20 e5 3e 1d 18 32 bf 24 b9 32 3f
       0.4425089 0.4475101 -0.69568044 0.6981375
0000b0 70 4d 09 be ce c0 1a bf 77 32 19 bf 5e af 2a bf
       -0.13408446 -0.60450447 -0.5984263 -0.6667384
0000c0 fe 59 45 bf 0c fe 81 3f 7f 66 1b bf c5 d9 44 bf
       -0.7709044 1.0155654 -0.6070327 -0.7689479
0000d0 0c 99 f7 3e 8b 9c 84 bf 04 5c 14 3f 3b e7 93 be
       0.48358953 -1.0360273 0.57952905 -0.28887352
0000e0 71 ad 68 bf 2d 06 ae 3f 0b b7 a9 bf be 6b d3 3e
       -0.9088965 1.3595635 -1.3258985 0.41293138
0000f0 87 20 f6 bd b4 50 20 bf d9 93 d8 be 59 3b 4e 3f
       -0.12017923 -0.62623143 -0.423003 0.8055931
000100 86 c9 3c 3f a7 f8 07 3f 54 8e 50 3f 77 6b 22 bf
       0.73745 0.5311379 0.81467175 -0.6344523
000110 29 f1 21 3f 19 b8 0c 3f a1 fb c2 be c3 a0 fb bc
       0.63258606 0.5496841 -0.38082603 -0.030716306
000120 19 25 b7 3f 8b f3 2d bf a1 db d6 3a 0c e3 9b 3f
       1.4308196 -0.6794974 0.0016392359 1.2178664
000130 9a ee 1c bf 21 ae ce 3f 05 70 35 bf 38 29 56 bf
       -0.6130158 1.614689 -0.70874053 -0.83656645
000140 4d 62 77 3f 49 66 95 3d 8f 33 37 3f 6a d7 76 3f
       0.9663437 0.072949 0.7156305 0.96422446
000150 c0 29 2a 3e 90 40 34 bd 9b 3f 10 3f 79 a8 80 3e
       0.16617489 -0.044006884 0.56347054 0.25128534
000160 10 4d 7a 3f 45 de 39 bf 07 34 8e bf f6 aa 6f 3d
       0.9777384 -0.7260478 -1.1109627 0.05851265
000170 a5 be 69 bf fe dc f1 be 2a 33 52 3f a9 56 13 3f
       -0.91306525 -0.47238916 0.8210932 0.5755411
000180 87 7d 35 be 4c 26 a8 3d dc d8 83 3e ae de 18 bf
       -0.17723666 0.082104295 0.25751388 -0.5971478

RNN.bias_ih_l1 f4 [10]
000000 8f 5d 2a be 71 84 5a be e5 d6 05 3e 03 36 27 be
       -0.16637252 -0.21339585 0.13070257 -0.16329198
000010 41 75 57 be 0f b3 1e be 30 00 bc bd 8d 03 74 bf
       -0.21040823 -0.15497993 -0.09179723 -0.9531792
000020 6a e9 bf bd f2 24 04 3f
       -0.09370692 0.51618874

RNN.bias_hh_l1 f4 [10]
000000 e0 7d 71 3e 56 f9 57 3b 26 ab 93 bc 5b 6e 20 3e
       0.23583174 0.0032955012 -0.018025946 0.15667097
000010 4d 99 05 bf 97 8a 09 be b0 08 dd ba 03 69 92 bf
       -0.52187043 -0.13431774 -0.0016863551 -1.1438297
000020 1c f6 13 bf 68 dc 08 3f
       -0.5779741 0.53461313

encoder.0.weight f4 [6, 10]
000000 22 27 84 3f 6f 33 b0 3e 6c d1 06 bf d1 f8 e1 3e
       1.0324442 0.3441424 -0.526633 0.44135144
000010 cb dc d4 bf d8 6e 6c bf 6d f8 92 3f 29 e0 93 be
       -1.6629881 -0.92356634 1.1482064 -0.28881958
000020 cf fb ca 3f 15 20 be bf 2d 4a 44 bd 5a 88 96 3f
       1.5858096 -1.4853541 -0.047922302 1.1760361
000030 28 9b d6 be 00 b3 1e 3d ce f8 c6 bf 3f 1b 1f bf
       -0.4191525 0.038744926 -1.5544679 -0.6215095
000040 53 2d d3 3e 5a 7d 76 3f 3b 2c 9c 3f 40 d8 de bf
       0.41245517 0.9628502 1.2200998 -1.7409744
000050 36 bd 9b 3e dd 7f 94 3f 8d 9d 3e bf 1a 12 7a 3f
       0.30417794 1.1601521 -0.74459153 0.9768387
000060 54 8f 3d bf 16 fb c6 bf 21 e1 90 3f 24 a3 f9 be
       -0.74046826 -1.5545375 1.1318704 -0.4875728
000070 5b fb 8e 3f 56 d8 c8 bf a3 d5 0a bf e4 fc a6 bf
       1.1170458 -1.569102 -0.54232234 -1.3045926
000080 1f 84 59 bf 3c 47 a3 be 8d 36 30 3f 7c 6d 5a 3f
       -0.84967226 -0.31890285 0.6883324 0.8532331
000090 e3 13 47 bf f9 a2 cd bf 9d 69 b7 3d 09 c4 07 bf
       -0.7776472 -1.606536 0.08955691 -0.530335
0000a0 3f 35 53 bf 6f f0 4b bf 03 a5 3b bf 41 90 01 bf
       -0.8250312 -0.7966375 -0.7329866 -0.5061074
0000b0 3f 0f dd 3d ef 94 43 3f 9f 5f 9d bf e7 ab e4 bf
       0.107939236 0.7639913 -1.2294806 -1.786496
0000c0 e8 1f 7f 3f d6 f0 c5 be 42 ea 43 bd d0 71 2a 3f
       0.9965806 -0.38660306 -0.047830828 0.66579914
0000d0 3a b6 2f bf 6a 8b 58 3f cb f7 cc bf 6b 47 59 bf
       -0.6863743 0.8458773 -1.601312 -0.848746
0000e0 ad 08 d4 3f 5d 03 41 bf 41 6b b4 3f 04 96 87 bf
       1.6565148 -0.75395757 1.4095231 -1.0592656

encoder.0.bias f4 [6]
000000 77 91 d9 3e 9a bd fe be 92 73 5e 3f 73 bd 6f 3f
       0.42493793 -0.4975403 0.86895096 0.9364845
000010 20 24 a1 3f db 29 13 3b
       1.258915 0.0022455368

decoder.0.weight f4 [50, 10]
000000 bc 0d 20 bf d4 92 af be 89 4b 1a bf 12 98 ff 3e
       -0.62520957 -0.34291708 -0.6027151 0.49920708
000010 91 44 3b 3f f4 66 70 be c4 8a 9c 3f 93 fc e0 bf
       0.731515 -0.23476774 1.2229848 -1.757708
000020 66 d2 db bf 19 dd 82 3e 7d 18 bd 3f a5 45 d8 3f
       -1.7173584 0.2555931 1.4773098 1.6896254
000030 14 c9 be 3f c3 f6 bf be 07 d9 c7 3d b0 46 e5 3f
       1.4905114 -0.37492952 0.097581916 1.7912197
000040 e4 80 b4 3f 30 7d ff 3e 68 34 03 bf 1a 17 a2 3f
       1.4101834 0.49900198 -0.5125184 1.26633
000050 53 48 e1 3b c5 39 8d 3d 15 da ee 3d a2 6d c1 3e
       0.006875077 0.06895784 0.116626896 0.37778956
000060 8e 1c da 3e e7 fa 80 be 0c 5e 16 40 51 58 7c 3f
       0.4259991 -0.25191423 2.3494902 0.9857226
000070 3e 4b 26 bf 88 d8 b4 bf 45 e8 42 bf 15 50 55 bf
       -0.6495856 -1.412858 -0.76135665 -0.8332532
000080 be fd 3c bf d1 b9 46 3f c1 aa 23 3f 71 5d 32 3f
       -0.7382468 0.77627283 0.63932425 0.6967383
000090 03 c6 d8 3f de 1a a4 bf 84 02 8d 3f 68 03 18 3f
       1.6935428 -1.2820699 1.1016393 0.593802
0000a0 a4 da ac bd 91 21 2f 3e f0 89 5d 3e e5 cf 08 bf
       -0.0844014 0.17102648 0.2163465 -0.5344222
0000b0 1b 04 9c be bb e5 28 3e 74 62 0a 40 9d f1 19 bf
       -0.30471882 0.16493885 2.162259 -0.601343
0000c0 92 4a ee 3e 15 51 9d be 94 18 7c 3f cf d4 89 3f
       0.46541268 -0.30725923 0.98475003 1.0768069
0000d0 ee 3d 91 3f a3 ea c2 bf 93 08 c5 bf 9d d5 aa 3e
       1.1347024 -1.5227855 -1.5393242 0.333661
0000e0 64 d0 7d 3e a2 e9 07 c0 45 32 f9 bd 0a c7 0e bb
       0.24786526 -2.1236348 -0.12167791 -0.0021786117
0000f0 1e 61 b1 3f 3a c4 de 3f 87 5c cb 3f d3 fa a0 bd
       1.3857763 1.7403634 1.5887612 -0.07860341
000100 29 58 cb 3e 6b dc bf 3f 8d f4 86 3f 70 f5 22 be
       0.39715698 1.4989141 1.0543381 -0.1591394
000110 56 97 e1 be 4e 65 8e 3f 24 c7 99 bd ad b3 e8 3e
       -0.44060773 1.1124666 -0.07508686 0.45449582
000120 b6 34 5c 3d c8 08 e9 bd 97 86 19 bd f6 22 f9 be
       0.053761207 -0.11378628 -0.03748187 -0.48659486
000130 63 c5 11 40 10 01 2d 3f 69 f4 d1 bd 61 29 ce bf
       2.2776725 0.67579746 -0.10251696 -1.6106378
000140 5d d2 59 3f 02 74 ed 3e 78 fa ba 3e 8a 58 91 3f
       0.85086614 0.4637757 0.36519217 1.1355145
000150 b2 de c0 3f 83 53 53 3f e3 76 98 bf 69 42 2a be
       1.5067961 0.82549304 -1.1911281 -0.16626896
000160 b3 55 52 bc 30 d5 0d 3f 8d 53 c8 be f5 04 47 bf
       -0.012837815 0.55403423 -0.39126244 -0.7774194
000170 2d 7e 87 3e bf 8e 8d 3f 0c 89 8e 3f 83 f8 b1 3e
       0.26463452 1.1059188 1.1135573 0.34759912
000180 b7 f7 ad 3f 7e 4e 67 be 40 52 a2 3f 09 30 5e 3e
       1.3591222 -0.22588536 1.2681351 0.21698011
000190 9a 4b c7 3f 98 ae ac 3f eb 37 ea 3e 87 66 a9 be
       1.5569947 1.3490782 0.45745787 -0.33086035
0001a0 13 0f 99 be 60 eb c7 3f fa a7 3e bf c8 9b a6 bd
       -0.29894313 1.5618706 -0.7447506 -0.08135182
0001b0 c0 c7 ae 3f 58 2d ea 3e c9 2d c6 3f 4b 61 cb 3f
       1.3654709 0.4573772 1.5482723 1.5889066
0001c0 23 e9 b0 3f c6 7e 29 bf 5d 0d 7a bf 8d 4d c9 3f
       1.3821148 -0.66209066 -0.9767664 1.5726792
0001d0 74 d5 ac 3f 15 a9 2e bf da 78 9a bf 09 fa 5b 3f
       1.3502641 -0.6822675 -1.2068131 0.859284
0001e0 fd 15 ed 3f d9 7e a5 3f 06 54 83 3f 90 6b 47 bd
       1.8522335 1.2929336 1.0260017 -0.048686564
0001f0 6b 21 b7 be 0f 86 ec 3f cc b7 32 3d 39 e2 93 3e
       -0.35767683 1.8478411 0.043632314 0.28883532
000200 ee f5 c2 3f d8 74 94 3f cd 95 99 3f 88 86 cc 3f
       1.5231302 1.1598158 1.199884 1.5978556
000210 e2 06 c6 3f 86 d7 cf 3d 45 17 b6 3d 75 42 99 3f
       1.547085 0.1014853 0.08891157 1.1973406
000220 23 81 e1 3f dc 45 d8 be 64 ee 94 3f 38 33 d5 3e
       1.7617534 -0.42240798 1.1635251 0.4164064
000230 7b 3c db bd f6 3f 45 be 91 1c 15 be 2d ef 82 3e
       -0.10704895 -0.1926268 -0.14561678 0.25573102
000240 e4 d4 1a 3e 3b 9d ac bd af a2 c3 bd 09 be 83 bf
       0.15120274 -0.08428427 -0.09552514 -1.0292369
000250 60 45 10 bf e2 7c fd 3f c5 a1 18 be e2 e1 2f be
       -0.5635586 1.9803736 -0.1490546 -0.17176011
000260 29 ac 0e 3e 24 10 2c 3f c9 98 59 3f cd 8c d3 3c
       0.13932861 0.6721213 0.84998757 0.025823975
000270 aa 03 0a 40 00 aa 7a 3e f5 ae f7 bf 56 63 5c 3f
       2.1564736 0.24478912 -1.9350268 0.86089075
000280 f0 ec 6c 3d 97 15 2f bf c1 3c 6e 3c d3 95 ab 3f
       0.05784315 -0.6839232 0.014540852 1.3405098
000290 ba 55 2f 3f 13 5e e9 3e f2 c9 7f 3f 36 8d b2 be
       0.68490183 0.45579585 0.9991752 -0.3487336
0002a0 8e 2d ca 3f 54 ce 05 3f 1a d9 e9 3d 93 5a 29 3f
       1.5795152 0.52267957 0.11418362 0.6615383
0002b0 be 2d c6 3e 30 a0 e9 3d e2 1a b9 be 9b b3 0a bf
       0.38706774 0.114075065 -0.36153322 -0.54180306
0002c0 d8 22 0e 40 c0 5c 32 3f 5f 10 88 3c 19 06 cb bf
       2.2208767 0.69672775 0.016609369 -1.5861236
0002d0 24 aa ea 3e 0e 4c f5 3e 99 76 b2 3e 08 16 1e 3f
       0.45832932 0.47909588 0.34856108 0.61752367
0002e0 6d 30 33 3f 30 de 8d 3f 4d a6 f0 bf 05 7c b0 3e
       0.69995767 1.1083431 -1.8800751 0.3446962
0002f0 eb 66 ab be 89 f8 42 3f 6c f5 86 3e 6c d1 0b bf
       -0.33476958 0.76160485 0.26359117 -0.5461643
000300 46 59 a8 3e 69 8f 0a bf 39 e8 f1 be 35 2d 18 3f
       0.3288061 -0.54125077 -0.47247484 0.5944398
000310 8d f4 bf 3f ab 1c f0 bf 51 f6 d5 3e 0c fc f3 3d
       1.4996506 -1.8758749 0.41789487 0.119133085
000320 b6 bf 5b bd 74 49 d3 3e f3 81 1a 3d 2c 87 85 be
       -0.053649627 0.41266978 0.037721585 -0.2607969
000330 be af 5b bf 7b a5 0a bf 25 e1 04 40 be 87 a9 be
       -0.85815036 -0.54158753 2.0762417 -0.33111376
000340 a1 5e b9 3e 0f cc 9f be cf 25 99 3e fe 60 8e 3b
       0.3620501 -0.31210372 0.29911658 0.0043450585
000350 cd b1 1b be 07 07 1f 3f ed 48 64 3d 05 5c 82 be
       -0.15204544 0.621201 0.05573361 -0.2546083
000360 1a f9 0f 40 72 ab 6e 3f ae 19 39 bf 42 da a7 bf
       2.249579 0.93230355 -0.7230481 -1.3113482
000370 d8 f7 7d be 02 bd 04 be 3e be 3b 3e 20 cd db be
       -0.24801576 -0.12962726 0.1833429 -0.42929935
000380 c4 f3 12 bd 39 e7 a6 be d4 e7 03 40 6b 40 87 be
       -0.035877004 -0.32598284 2.0610247 -0.26416335
000390 4a 42 b8 3e d0 28 b2 bf 00 11 46 be 12 23 26 3e
       0.35988075 -1.3918705 -0.19342422 0.16224316
0003a0 a3 bc d7 3e 1b b3 32 bf 4b d4 bd be 13 67 6e 3e
       0.42136106 -0.69804543 -0.3707603 0.23281507
0003b0 9f 8c ff 3f 3a a9 a3 bf 66 05 03 3f ca 0f ad be
       1.9964789 -1.2786019 0.5118011 -0.3380111
0003c0 a2 b7 55 3f 1e 0b 9f 3f de cd af 3f 62 06 a1 bf
       0.83483326 1.2425268 1.3734701 -1.2580073
0003d0 7b 19 c5 bf b7 be 3d 3f c3 df 8c 3e a4 83 0b c0
       -1.5398401 0.7411913 0.27514467 -2.1799097
0003e0 62 24 8d 3f 9b e8 ef bb 19 74 60 be df 5a b7 3e
       1.1026728 -0.00732143 -0.21919288 0.35811517
0003f0 84 1a 4a be f1 c5 1a be 41 a2 51 3e 9e c8 a1 be
       -0.19736677 -0.15114571 0.20472051 -0.3159837

decoder.0.bias f4 [50]
000000 3d 28 47 3f 25 1d 95 3f d2 41 82 3e 71 42 65 3f
       0.77795774 1.1649519 0.25440842 0.89554507
000010 0d 7c 1d bf 63 92 b4 be ce 31 40 3f 9b 25 a1 3e
       -0.6151741 -0.35267934 0.75075996 0.31474003
000020 00 70 14 bf 30 f9 8d 3f e8 a6 eb be a7 7b 92 3e
       -0.579834 1.1091671 -0.46025777 0.28609964
000030 e6 38 a9 be 95 ea 77 3f f3 18 a9 be f7 38 91 3f
       -0.33051223 0.9684232 -0.33026847 1.1345509
000040 fe e0 a2 3f 0a 99 eb bd 53 67 25 be cd 2a 63 bf
       1.2724912 -0.11503799 -0.16152696 -0.88737184
000050 c0 e1 b0 be 82 bf a5 3e c5 7c df 3e 2d b6 1b bf
       -0.34547234 0.3237267 0.4364988 -0.60824853
000060 4a 2c dd be 62 d0 7d be d9 71 b0 3e 0f f0 72 3f
       -0.43197852 -0.24786523 0.3446186 0.9489755
000070 1d 87 03 3f 13 7f 81 3e 53 c0 0b bf b6 11 eb 3e
       0.5137804 0.25292262 -0.5459034 0.4591195
000080 3f 88 e5 bd 44 ed 48 bf fb c8 8e 3e 93 f4 42 bf
       -0.112076275 -0.7848704 0.2788771 -0.7615444
000090 7f 16 1e 3f 7a 8b 5e be ff 16 ba bb 5e a3 bd be
       0.61753076 -0.21732894 -0.005679011 -0.37038702
0000a0 77 5a fc be 21 9a 58 be 04 14 5b bf e4 b8 ad 3e
       -0.4928777 -0.21152546 -0.85577416 0.33930123
0000b0 16 bd 0c 3f 2b 90 df be 57 4e 5b 3d e4 ed af be
       0.5497602 -0.4366468 0.053541508 -0.34361184
0000c0 76 3a a4 3f e1 01 fd be
       1.2830341 -0.49415496

decoder.2.weight f4 [50, 50]
000000 5c a2 fd 3e f8 a5 8f bf cf 80 a3 3f 82 1d d1 3d
       0.49537933 -1.1222525 1.2773684 0.10210706
000010 07 97 be 3f 92 5d c9 3f 62 d3 aa bf 26 b7 7f 3f
       1.488984 1.573168 -1.3345759 0.9988884
000020 06 78 a9 bf 8a b0 17 3f 62 44 a2 bf 59 9b b8 bf
       -1.3239753 0.5925375 -1.2677119 -1.4422408
000030 e6 e5 9d bf 19 3b ab bf 8d 3e bc bf 7f 4a cc 3f
       -1.2335784 -1.337741 -1.4706589 1.5960234
000040 20 12 1e 3f d3 06 88 3f cf f8 a2 bf bb 9d 53 3e
       0.61746407 1.0627083 -1.273218 0.20665638
000050 07 99 c3 3f c3 af 93 3f a9 f2 b4 3f a3 a1 87 3f
       1.5281075 1.1538013 1.4136554 1.0596203
000060 b0 8a be 3f d9 3c aa bf 87 fe 84 3f 62 9f a7 bf
       1.4886074 -1.3299819 1.0390176 -1.3095515
000070 94 82 a0 3f e9 76 bb 3f 00 e8 a3 bf 35 92 ae 3f
       1.2539849 1.4645663 -1.2805176 1.3638369
000080 dc 5a 88 bf 88 29 9e 3f 20 28 87 3f ba 21 81 3f
       -1.0652728 1.2356424 1.055912 1.0088418
000090 68 f3 5a 3f 5d 6a 8a bf 0d 6c 85 bf ce 86 a3 3f
       0.8552766 -1.081371 -1.04236 1.2775514
0000a0 3f a8 c1 3f 59 37 52 bf 60 cd f2 3e 64 f5 c7 3f
       1.512947 -0.82115704 0.47422314 1.5621762
0000b0 59 83 98 3f 71 62 ab 3f 94 e5 40 bf a3 49 9c bf
       1.1915084 1.3389417 -0.7535031 -1.2209972
0000c0 62 45 13 3f 7f f0 94 bf df d8 7f be f9 41 f9 be
       0.57527745 -1.1635894 -0.24985074 -0.48683146
0000d0 38 84 aa 3f a9 82 9c be 5a b5 1a 3e c2 31 03 3f
       1.33216 -0.30568436 0.15108243 0.512478
0000e0 28 02 14 bf 29 55 b2 3e a1 7e 5d bf 27 f8 8a 3e
       -0.5781579 0.34830597 -0.86521345 0.2714245
0000f0 70 0c 7c bf d4 9c ae 3e 94 26 4d bf 4a ea 98 3d
       -0.9845648 0.34104025 -0.8013699 0.07466562
000100 61 70 a7 bf 64 e7 cb 3f b9 bd 45 3f f3 65 ee 3e
       -1.308117 1.592999 0.7724262 0.46562156
000110 70 6a 71 bf 0e 52 8a be a0 70 3d 3e a3 aa 8e 3f
       -0.94303036 -0.27015728 0.18499994 1.1145824
000120 f4 cb 50 3e fa 53 23 3e c5 06 17 3f 71 85 b3 bf
       0.20390302 0.15950003 0.58994704 -1.4025098
000130 a3 02 b1 3e 70 30 06 bf 85 0c 75 3f 4f 03 10 3e
       0.34572324 -0.5241766 0.9572223 0.14063762
000140 79 ce 88 bf f4 63 5e 3f cb 51 81 bf be 89 c2 3d
       -1.068801 0.86871266 -1.0103086 0.094989285
000150 f1 04 8a 3f 2a 05 9c 3e 58 b5 8b 3f 8c 55 75 bf
       1.0782758 0.3047269 1.0914717 -0.9583366
000160 f7 8b 7a bf 81 35 05 3f b9 f3 a4 3f 34 b1 70 3e
       -0.9786982 0.52034765 1.2886878 0.23505098
000170 89 cd 41 be 66 16 37 3e 82 5a c0 3e 24 60 40 3e
       -0.18926062 0.17879638 0.37569052 0.18786675
000180 76 2e 47 be 7e 91 76 bf 7d 26 2f 3f ca 67 8b bf
       -0.19451317 -0.96315753 0.68418103 -1.0891049
000190 38 10 40 bf 9a e7 d0 3d b9 e1 30 bf e1 67 06 bf
       -0.7502475 0.102004245 -0.69094425 -0.52502257
0001a0 1f 78 43 be 16 2d 41 3e b0 c2 53 3e b3 6a e0 be
       -0.19088791 0.18864855 0.20679736 -0.43831405
0001b0 79 99 b4 3e c6 15 65 bf b2 9a 31 3f c6 21 64 3f
       0.3527334 -0.8948635 0.6937667 0.89114034
0001c0 ee 06 8b 3f fe db ff 3e 76 b4 16 3f e9 da 86 bf
       1.086149 0.49972528 0.5886911 -1.0535556
0001d0 96 5b 49 bf 4a bc 10 be 81 4e a9 3e 9a 4f c6 3e
       -0.78655374 -0.14134327 0.33067706 0.38732606
0001e0 b0 b1 18 bf c0 8b c8 be 4e 78 18 bf 0a 72 3a bd
       -0.5964613 -0.3916912 -0.5955857 -0.045518912
0001f0 b9 63 78 3c 02 e3 e6 3e b5 ec 91 be ed 36 c7 3d
       0.0151604945 0.45095068 -0.28500906 0.09727273
000200 3f 1c bd be dd 07 39 bf 73 35 4c 3e 98 69 01 3f
       -0.36935613 -0.72277623 0.19942264 0.5055175
000210 ed 13 96 3e 6e f3 05 bf 24 69 36 3f 18 9b 10 3e
       0.29312077 -0.5232457 0.7125418 0.14121664
000220 c8 51 fc 3e 3b 2a 13 3f 66 82 1d 3f 24 b9 33 3f
       0.49281144 0.57486314 0.615271 0.7020438
000230 da f3 2a 3e 02 eb a4 3f 92 a4 a5 3e d0 4d 22 bf
       0.16694584 1.2884219 0.3235212 -0.6339998
000240 01 0c f1 be 5a 41 d7 be 7d 01 22 3e 86 d7 15 3f
       -0.4707947 -0.42042047 0.1582088 0.5853199
000250 bb c6 a8 be aa 9d 2f 3f 77 a7 a2 3e 81 3f da bd
       -0.3296412 0.6859995 0.3176839 -0.10656644
000260 be d7 93 be 64 eb 91 3e 45 57 01 3f 6f c2 94 3e
       -0.28875536 0.284999 0.5052379 0.2905459
000270 80 45 5c be d9 90 c2 bd a8 77 ef 3c 51 15 b4 be
       -0.21510887 -0.09500284 0.029231861 -0.35172513
000280 0e 0f 85 bd c3 c4 2a be 85 ca 48 3d 70 31 6c be
       -0.06497012 -0.16676621 0.049021263 -0.23065734
000290 4c c0 0c 3f e5 8d 3a bf 5c 26 fb be 62 5f 77 bd
       0.5498092 -0.72872764 -0.49052703 -0.0603937
0002a0 f0 4a 3d 3d ec 8e da 3e d3 0d 19 3f 86 5b ca be
       0.046214044 0.42687166 0.5978672 -0.39522952
0002b0 5f 9a 00 3f e5 de 18 3f 5d d9 b7 3e ae 55 14 3f
       0.5023555 0.5971511 0.35908023 0.57943237
0002c0 cd 91 07 bd d6 a0 87 bd 06 2f 4f be 17 7e be 3e
       -0.03309803 -0.06622474 -0.20232782 0.37205574
0002d0 c7 04 87 bd c5 ae 79 3e d9 40 93 bb 3a ef f6 3e
       -0.06592708 0.24383076 -0.0044938144 0.4822939
0002e0 72 1a 88 3e 4d 8a 9c 3e 35 76 10 3e 80 96 fa 3d
       0.26582676 0.30574265 0.14107592 0.12235737
0002f0 00 5b 57 bd 8f dc b0 3e 60 27 4a 3e 3d 62 e4 bc
       -0.05257702 0.34543273 0.19741583 -0.027878875
000300 4f b7 fa 3e b8 83 2a 3f 7d 14 70 3e 4e 2c f5 3e
       0.48967978 0.66607237 0.23445316 0.47885364
000310 1b 25 0e bd 72 3f f5 3b 61 49 56 bb ea a3 ad 3d
       -0.034703355 0.00748437 -0.0032697546 0.0847853
000320 1a 6d 92 bf ad 88 98 3e 6b 54 d7 be 6a 83 42 bf
       -1.1439545 0.29791775 -0.42056593 -0.7598177
000330 a0 96 b9 be 9b aa ae 3e 65 c3 3d 3d 48 fa d4 be
       -0.3624773 0.34114537 0.04632892 -0.415972
000340 c5 45 04 3f 8d d8 84 bf 4f ba 3c 3f 82 44 5a 3f
       0.5166896 -1.0378586 0.73721784 0.85260785
000350 2d 3a 80 3f b0 57 21 3f 4a c5 6f 3e 8f 9f a3 bf
       1.0017754 0.63024426 0.23415104 -1.2783068
000360 30 d7 87 bf e0 58 cb be 44 b4 f5 3e a7 f4 ba 3e
       -1.0612545 -0.39716244 0.47989094 0.3651478
000370 a8 bf ca be 06 71 6f be e9 32 ab be db 17 ba bd
       -0.39599347 -0.23382959 -0.3343728 -0.09086581
000380 96 ef 03 3e 51 6b bd 3e 60 93 c3 be 35 b9 c5 3e
       0.12884364 0.36995938 -0.38198376 0.38617864
000390 e4 cb c6 be 2a 81 19 bf c7 0f ed 3e 58 a1 05 3f
       -0.3882743 -0.59962714 0.463011 0.52199316
0003a0 35 63 fc 3e be ec cb be 2b 29 31 3f 5b 13 51 3e
       0.4929444 -0.39829057 0.6920344 0.2041754
0003b0 10 40 18 3f fe 33 49 3f 9b 59 37 3f 55 72 0e 3f
       0.5947275 0.7859496 0.716211 0.55643207
0003c0 13 47 21 3e 18 bc 8a 3f e9 49 59 3e ab 29 b0 be
       0.15749769 1.0838652 0.212196 -0.3440679
0003d0 77 6e ed be 10 12 eb be 76 d0 96 3e b5 1d 2a 3f
       -0.4637334 -0.45912218 0.29455918 0.6645158
0003e0 d4 ba 9f be dc 19 17 3f fc a6 98 3f c6 b6 bd 3d
       -0.31197226 0.59023833 1.192596 0.09263377
0003f0 3a 56 68 3f db a4 8d 3f 20 97 1e 3f cb 9d dd bf
       0.9075657 1.1065935 0.6194935 -1.731378

decoder.2.bias f4 [50]
000000 0f 2f 80 bf 5b 92 27 bf de d2 67 3e 23 d6 18 3e
       -1.0014361 -0.65457696 0.22639033 0.14925437
000010 84 b6 d5 3e db 84 23 be 35 69 7d bf 08 0e 72 bf
       0.4174081 -0.15968649 -0.9898866 -0.9455266
000020 33 b9 39 bf ff c4 59 bf 18 45 1e bf 27 9d 49 bf
       -0.72548217 -0.8506622 -0.6182418 -0.7875542
000030 73 62 65 bf 27 5a 76 bf c7 8d b6 3e ac 82 7b 3e
       -0.89603347 -0.9623131 0.35655043 0.24561566
000040 d6 61 32 bf 40 91 85 bf 03 a5 34 bf dd fb 7c bf
       -0.69680536 -1.0434952 -0.7056429 -0.9882181
000050 47 28 0d bf cf 14 e6 bd 6a 9b 36 bf ac ce 1e bf
       -0.55139583 -0.11234438 -0.71330893 -0.62034106
000060 fb 36 2d 3e 6f b2 4a bc 57 71 2d 3f b2 cb 12 3f
       0.16915505 -0.012371643 0.6775107 0.57342064
000070 e0 e2 b0 3d 2f 82 16 bf 2d 73 5b bf 38 17 6e bf
       0.08637023 -0.58792394 -0.8572262 -0.9300418
000080 68 be 6e 3c 0f 68 58 bf 7d 00 3e bf e8 f5 51 bf
       0.014571764 -0.8453378 -0.74219495 -0.8201585
000090 9b b4 93 bd 5c 10 5e bf 65 41 4f bf a6 21 80 bf
       -0.07212182 -0.8674371 -0.8095916 -1.0010269
0000a0 01 1b 0a bf 93 1f 3c bf 68 64 3e 3d 10 48 b3 be
       -0.53947455 -0.7348568 0.046482474 -0.35015917
0000b0 3f a5 47 bf 53 7f 90 be a4 1c 22 bf b5 05 ad be
       -0.7798652 -0.2822214 -0.6332495 -0.33793417
0000c0 c3 3b 15 bf c1 1a fd 3d
       -0.58294314 0.123586185

decoder.4.weight f4 [2, 50]
000000 99 5b 0f bf af c7 b4 be 83 2d 93 bf ff 13 8d bf
       -0.5599914 -0.35308596 -1.1498264 -1.1021727
000010 5b b0 8f bf 74 d9 9f bf 04 33 02 bf c3 15 04 bf
       -1.1225694 -1.2488236 -0.50859094 -0.51595706
000020 bf 73 be be 05 1a d7 be 98 91 50 bf 0d 0a f6 be
       -0.37197682 -0.4201204 -0.8147216 -0.48054543
000030 0b c4 f3 be 63 90 09 bf 7a a5 95 bf ac b7 98 bf
       -0.47610506 -0.5373594 -1.1691124 -1.1931052
000040 40 94 4c bf 32 a7 de be 64 f4 f4 be 24 fb ba be
       -0.7991371 -0.43486935 -0.47842705 -0.3651973
000050 7a 8f 4f bf fe 32 8c bf f3 1e 57 bf 2a 88 fd be
       -0.810783 -1.0953062 -0.840316 -0.49517947
000060 86 b3 90 bf f4 33 5f bf 29 74 9e bf 6a 3c 8f bf
       -1.1304786 -0.8718865 -1.2379199 -1.1190312
000070 ea 5b 71 bf 65 c2 ff be 93 2c d0 be 40 69 01 bf
       -0.94280875 -0.49953 -0.40659007 -0.50551224
000080 bd f2 a3 bf 60 21 10 bf 54 1a 06 bf 3c 73 f0 be
       -1.2808453 -0.56300926 -0.52383924 -0.46962917
000090 d3 2c 9d bf cf ff 0b bf 53 5a b3 be 75 c9 27 bf
       -1.2279304 -0.5468721 -0.3502985 -0.65541774
0000a0 e3 fd 51 bf c5 d0 11 bf d3 fa 93 bf f7 86 33 bf
       -0.82028025 -0.5695918 -1.156092 -0.70127815
0000b0 96 c1 9c be 5e bf 8e bf 4b 4e 6d bf 16 0f 56 bf
       -0.30616444 -1.1152151 -0.9269759 -0.8361677
0000c0 72 b8 08 bf 80 7b 9b bf b5 52 a2 bf f1 ad 97 bf
       -0.5340644 -1.2147064 -1.268149 -1.1849958
0000d0 ca c0 30 3f 05 27 06 3f 8d 38 55 3f 7a 7d a1 3f
       0.6904417 0.5240329 0.83289415 1.2616417
0000e0 47 27 b7 bf 3d 17 ad bf bc 62 2e bf 18 aa ab bf
       -1.4308861 -1.3522717 -0.68119407 -1.3411283
0000f0 b9 71 9f bf f7 0e 6d bf b3 d6 8c bf 2e 1b ab bf
       -1.245658 -0.9260096 -1.1003021 -1.336767
000100 b1 c5 4b 3f 28 a0 b1 3e b8 3c aa bf 13 2e ae bf
       0.7959853 0.34692502 -1.329978 -1.3607811
000110 20 5b c2 bf 61 38 a3 bf 5c 04 9b bf 6b bf 22 3f
       -1.5184059 -1.275158 -1.2110705 0.6357333
000120 5f 4a a5 bf 01 37 6c bf 56 df f4 3e 93 1e 8d bf
       -1.2913321 -0.9227143 0.47826642 -1.1024956
000130 1f fa 24 3f 73 7b 8f 3f c5 a9 96 bf 4a 61 39 bf
       0.64444155 1.1209549 -1.177056 -0.72414076
000140 6c 4e ae bf ae 7d b4 bf 3e 26 bc 3e e4 57 9f bf
       -1.3617682 -1.4100854 0.36747926 -1.2448697
000150 7a 1c aa bf dd 0a ab bf 92 ca b8 3e 3a 7b 89 bf
       -1.328994 -1.336269 0.3609205 -1.0740731
000160 21 b3 8b bf b3 2c 9b bf 6f de 90 bf 77 26 73 bf
       -1.0914041 -1.2123016 -1.1317881 -0.9498057
000170 7f 70 eb 3e 07 0e 99 bf 80 8a a3 bf 8f 07 60 bf
       0.45984265 -1.1957406 -1.2776642 -0.87511533
000180 16 21 ab bf 4e 08 19 bf ef 35 c2 bf 17 82 b3 3e
       -1.3369472 -0.59778297 -1.5172709 0.35060188

decoder.4.bias f4 [2]
000000 da 6c a0 bf 39 6a 0d 3e
       -1.2533219 0.13810052
