week1/1.3/closed_loop_trained_model_deeper.pth (torch, 35615 bytes, 10 tensors)

net.0.weight f4 [50, 4]
00000000: 1325 753f 12bc 0a3f 55c7 c7bc 2e22 e1be
00000010: 1eb7 acbf f095 253f d8eb f0bd f75b 543f
00000020: b2ad 743f d49e f2be f7e1 0d3e b704 d7be
00000030: 99ff 7e3f 8f3f 3ebe 64ab 0fbe 62d7 2abf
00000040: 6420 6abf 1dc9 e53e 184a 97be 5b21 233f
00000050: 8e9a 61bf 0c03 833f 9583 6a3d 61c5 a63e
00000060: 84d4 25bf 5387 7b3f 0a74 ddbe cc6e 1a3f
00000070: 08ed 6fbf 54bb 953d ed93 dabe e31d f43d
00000080: 0244 26bf 439b 173f d7ce 893e f61e 023f
00000090: 3f80 813f 3ea2 3b3f 0a16 5b3e e5cd e0be
000000a0: 5e0b 183f 4a85 313f 2c17 a83e 11c1 2bbf
000000b0: 9343 b53f e691 29bf 7864 48bd 4b1c 4bbf
000000c0: be2e 5ebf 1666 6f3f 7903 da3e 28d3 0c3f
000000d0: d49f 05bf b480 6b3f b7c5 b13e b2b0 2e3f
000000e0: d39c 5b3f 2d6c 543f 8bab 19bb df97 76be
000000f0: 74b1 afbf a799 313e 6cb6 5ebe 6e61 503f
00000100: 508b 8cbf 68e9 443f af1c 883e 8343 183f
00000110: 08e2 91bf 3fbc 113f acfb 21be 86c1 213f
00000120: 43ef bdbf 6780 333f e540 03bd 6e34 313f
00000130: 1abe 05bf 9429 b23f 7ca2 93be 8aba dc3e
00000140: 94ec 98bf b2d3 e33e 706a b6be 3fa1 573f
00000150: 97f1 8fbf d626 293f a405 1cbe 3592 093f
00000160: 0a67 25bf a1aa 773f e782 21be 65b4 c33e
00000170: 956c 5c3e b4d3 193f 13ba 283f cdc5 8abe
00000180: f510 95bf 81fb 363f 457e 843e 346a 393f
00000190: 4dc6 ebbe f05e e53f cf2d 8fbe a2d6 ca3d
000001a0: 750b 103f 599a 883f be11 8c3e 0590 53bd
000001b0: 634c b6bf 26c8 4c3e e754 fbbe 64a5 183f
000001c0: 8eb8 61bf 3fa2 6b3f 8e70 dcbb 6e78 f43e
000001d0: 5d2a 60bf a7e3 a2be a148 0bbd ac59 b03e
000001e0: f2b4 5fbf 038b 4d3f caba d3be 0687 1c3f
000001f0: 7040 62bf 302d 373c 1844 a1be b43f 1c3f
00000200: 0369 4b3f 3750 28bf d804 b63e 2143 09bf
00000210: 3fc6 033e ccb2 c03e e859 c83e f18e 54bf
00000220: 8893 44bf 4e7b 84bf b552 28be 9682 4a3d
00000230: cfd6 9dbf 88be 3e3f fc07 5d3c 3328 3b3f
00000240: e42e 8ebf 11f8 913f 0663 ea3d 140a 383f
00000250: e5ff 93bf e643 853e 45e7 74be 1672 043f
00000260: 81d6 443d 70fb 1e3e 66c6 3e3e 0def b2be
00000270: 6909 62bf fbb5 373e 518b 123f b18c 113f
00000280: 95bc 6bbf c0d8 293f 1e2c 4ebd 174f 903e
00000290: dc94 62be d097 cd3f aa1e 40be bf6f b9be
000002a0: dd2f a2bf a78e 7c3f 99b3 37bd 2fba 493f
000002b0: eeec 743f 89ec 763f f21a 1b3d 29e2 2b3d
000002c0: 19af 613f 3926 e63e 665a bf3e d4a0 f5be
000002d0: 96c7 babf afe5 0c3d 1330 9e3e 4098 0b3f
000002e0: 1848 41bf 5be6 383f e7e9 84be aa16 173f
000002f0: ba8a 0a3f 8e9d 4dbf c8a7 093f d914 013d
00000300: e914 70bf 6ad4 913e 26b7 dd3e fbfc e93e
00000310: cdc1 b73e 5774 733e 9490 ea3e c818 36bf
0.95759696 0.5419322 -0.024387041 -0.4397139 -1.3493383 0.6468191 -0.117637336 0.8295283
0.9557754 -0.473868 0.1385573 -0.41995785 0.9960876 -0.18578933 -0.14030224 -0.667349
-0.91455674 0.4488 -0.29548717 0.6372277 -0.88126457 1.0235305 0.057254393 0.32572463
-0.647774 0.98253363 -0.43252593 0.6032531 -0.93721056 0.07311121 -0.42690983 0.11919763
-0.6494752 0.59221286 0.2691562 0.5082849 1.0117263 0.73294437 0.21395126 -0.43907085
0.59392345 0.6934401 0.3283018 -0.6709147 1.4161247 -0.6623825 -0.04892394 -0.79340047
-0.8679007 0.93515146 0.42580774 0.550097 -0.52197003 0.9199326 0.34721157 0.68238366
0.8578617 0.82977563 -0.0023448195 -0.24081372 -1.3726029 0.1734377 -0.21749276 0.81398666
-1.0980015 0.7691865 0.26584384 0.59478015 -1.1397104 0.56927866 -0.15818661 0.6318592
-1.4838642 0.701178 -0.03204431 0.69220626 -0.52243197 1.3918939 -0.28834903 0.43111068
-1.1947198 0.44497448 -0.3562808 0.84230417 -1.1245602 0.66074884 -0.15236527 0.5373872
-0.6461035 0.96744734 -0.15772592 0.38223568 0.21525796 0.6008866 0.65908927 -0.27104035
-1.16458 0.71477515 0.25877586 0.7242768 -0.4604973 1.7919598 -0.27964637 0.09904219
0.5626748 1.0672103 0.27357286 -0.05165102 -1.4242061 0.19998226 -0.49088213 0.59627366
-0.88172233 0.9204444 -0.0067272848 0.4774813 -0.8756464 -0.3181431 -0.03400481 0.34443414
-0.87385476 0.8029024 -0.41353446 0.6114353 -0.88379574 0.011180207 -0.31497264 0.61034703
0.7945711 -0.657474 0.3555057 -0.53618056 0.12868594 0.3763641 0.39131093 -0.8303061
-0.76787615 -1.035013 -0.164378 0.049440943 -1.2331179 0.7450948 0.013490673 0.73108214
-1.110806 1.1403829 0.114446685 0.7189038 -1.1562468 0.26028365 -0.23916347 0.5173658
0.04805613 0.15525603 0.1863037 -0.34948006 -0.8829561 0.17940514 0.5724383 0.56855303
-0.9208463 0.6634636 -0.050335042 0.2818534 -0.22127098 1.6061954 -0.18761697 -0.36218068
-1.2670857 0.9865517 -0.044849012 0.7879972 0.95674026 0.96454674 0.037867494 0.04196373
0.881578 0.44951037 0.37373656 -0.47974265 -1.4592159 0.03439873 0.30896053 0.5452919
-0.7550063 0.72226495 -0.25959703 0.5901896 0.5411793 -0.80318534 0.5377164 0.031514022
-0.93781906 0.28482372 0.43303794 0.4570082 0.35890046 0.23774849 0.4581343 -0.71131563

net.0.bias f4 [50]
00000000: 068a 1ebe 25a7 bfbe a5f0 343d a321 bebd
00000010: aaf8 06bf dccc 50bf 47e3 83bf 91df 91be
00000020: 3b4a 48bf 9985 babe 4f9d 48bd d972 6a3e
00000030: c087 afbe 5ae6 40bf bac2 03bf 3f2a 95bd
00000040: e469 e4be 97a4 b3be 7355 bcbe 4076 edbe
00000050: 23ab a4be d9a9 e7be 1427 ebbe 7b66 5fbe
00000060: 1850 5cbe 337e d7be 553d febd 952f 88be
00000070: d143 68bf 329d 553c ddee 6cbf c4d0 88be
00000080: 8c25 e83e 11a3 483e 70ef 4d3e 5679 e6be
00000090: 43ab 3dbf 0e5d 00be 9c9d 81be b5c0 5e3e
000000a0: 3f07 50bf 4518 01bf 8893 1bbf 8c05 59be
000000b0: 15a4 ff3d 7550 7b3e a59d 38bf a8e4 f13e
000000c0: 7dca dcbd b9bb 68be
-0.1548234 -0.3743221 0.04417481 -0.092837594 -0.5272318 -0.8156259 -1.0303735 -0.2849088
-0.78238267 -0.36430052 -0.048978146 0.22895373 -0.34283257 -0.7535149 -0.51469004 -0.072834484
-0.44612038 -0.3508651 -0.36783943 -0.4637928 -0.32161817 -0.4524677 -0.45928252 -0.21816437
-0.21514928 -0.4208847 -0.12414042 -0.26598802 -0.9072848 0.013037967 -0.92551976 -0.26721776
0.45341146 0.19593455 0.2011087 -0.45014447 -0.7408945 -0.12535498 -0.2531556 0.217532
-0.81261057 -0.5042766 -0.6077199 -0.21193522 0.12482468 0.2454241 -0.72115546 0.47244763
-0.10780809 -0.2272786

net.2.weight f4 [50, 50]
00000000: 9100 5e3e 1232 a5be bf6f fb3e 3d3b 933e
00000010: bba1 b1be 83c2 35be 871b 2bbd 09bd 7cbe
00000020: fd28 863c 4b80 013f 415e b83e ecfd e23e
00000030: 0769 90be 2758 cabd a2ae 6c3e 82ee 70be
00000040: d8b2 5cbe caf7 0cbe b046 d8be 63fd 3bba
00000050: 7d53 49be e239 c1be 039d 72bd d2d9 343e
00000060: b4c1 96be 2c70 5f3d 7730 653e 53d4 fbbe
00000070: dd6e 6bbe b42d fcbd b964 3dbe cc64 8fbd
00000080: 7f20 993e 55c0 e53d 7999 eebd b57a edbe
00000090: 7759 70be 9a1b 9bbe 41bd 553e 702a 7abb
000000a0: 53c9 16be 5022 8f3d b71f d7be dfcf bd3e
000000b0: aba1 993e 659c a4be 4e85 b4bd a42a 7a3e
000000c0: 04c7 2abe 901c 7d3e 6a63 a93e be2b aebe
000000d0: e6ab c23e b26e 623e fd0d 23be 5623 e4bd
000000e0: 7812 4bbe 1058 23be aa53 2dbd 8999 443e
000000f0: 22ea 9d3e bcb0 d93e 8c15 8ebd 0fc7 67bd
00000100: 8753 bd3e b777 69be 7220 babe 6a95 d3bd
00000110: 0d24 e9be 5295 febd 4a09 9fbe 12fd 9cbe
00000120: 95ec c1bd cfab 503e d88e 8abe 7328 b53d
00000130: fb1d 703e f1bb 57be 78ef b1be de82 bdbd
00000140: 05bf b0bd 3dfc 73be 86ca 423e 4f1f 1f3e
00000150: d78a 1abe 7e30 91be 42d8 8ebe 3015 33be
00000160: 357d 86bb e095 bdbd 8841 09be 3738 253d
00000170: 775b edbe d253 883e 4ff9 873e 71ef b1be
00000180: ccae 79be 3cb5 b4bb 8dc5 babd 394f 343e
00000190: 80e6 50bd 1c95 a6be 1419 1e3e a4e9 803c
000001a0: 6a02 6ebe 68d5 48bd 6de5 2dbe 1a21 4cbe
000001b0: d9f6 f6bd d453 623e 7fe1 e93c 1cc1 3c3e
000001c0: aae6 54bd 2eca 2cbe 008d b13c 34ae 97be
000001d0: 5643 34be cbb8 94bd f71e 16be 2a6d b2bd
000001e0: f424 a9be 1fac c5bd c52a 3cbe b088 d63d
000001f0: 1d98 efbd af86 d8bd 6888 c03a 05cb 59be
00000200: 47d4 7fbd 7f00 81be 396b bdbd c583 67bd
00000210: 8df9 01bd 87d3 03be 1717 e3bd 9704 96be
00000220: 9991 adbe 65dc f6bd cc31 9f3c 7963 1dbe
00000230: f65b bebc 127b 01be 54fd b4be 2b17 2d3e
00000240: 64a4 bfbb 7f4c 7dbe 68c6 8cbe c8a6 b93d
00000250: c682 57be 1607 58bb 9880 85bc a1f5 f4bd
00000260: 3afd fe3d bb82 b13c 6367 35be 1f9b 3ebe
00000270: bace 3cbe 2bf2 873d dfdc 03be 0669 6b3c
00000280: 1149 5fbd 4d28 e43d 543c 4abe 4c8a cabd
00000290: 62e3 32bb 183f b4bd 1336 2cbd 580c 39bd
000002a0: c252 86be a72c 9cbe c92e 45be 8461 0bbe
000002b0: 1d0d e7bd 8e0d 48bd 983d 8cbe 4cb2 a7be
000002c0: 2d62 bdbd 407f bdbc 6f5b d7bd 3d07 f2ba
000002d0: 6458 f2bd c3c8 39be 5574 4d3e 040e 953d
000002e0: e2a9 2b3e 43f6 24be 5846 b2be d3c9 13be
000002f0: ce13 b23d 48a5 633c dc0c 89bd 2032 3ebe
00000300: 06b8 b3be 323b cfbd 0f8d 7b3d 4c3e 7e3c
00000310: 5444 84bd 3c85 003e 38a4 0a3d 98bf da3d
00000320: d82c a9bc 679e 65be ff67 d5bd 97ed ac3c
00000330: 0c85 bdbd fb36 54be 7843 6cbd 9525 74be
00000340: 28a4 6cbc 6342 353c 0ee7 92bd 2ba8 6d3d
00000350: cd1f 81bd 8687 51be aa96 e4bc 3a13 88be
00000360: 2633 f9bd 39b5 53be 3845 f9bd 6119 76bd
00000370: fff9 acbe 8ac8 93be 1f6c c4bd 1e55 59be
00000380: 3312 77be 5205 e2bd f13f 1dbe 160c 89be
00000390: 223c 7bbe 15ca 1cbe 81d1 85be ddd8 aebd
000003a0: b332 c6bd cfc6 38be 60a7 0abe 8147 b0be
000003b0: 1c81 7cbe 7e05 24be ddc2 b33c 8b77 1dbd
000003c0: 41de 86be 8dcc 1d3d 10c8 e3bd 4244 c0bd
000003d0: 16d0 e33d 8348 94be ad6c 28be b210 d13c
000003e0: 8f49 e0bd 78aa b23d 60c6 6e3e 4c5f b1be
000003f0: 5f34 f43e 7620 c43e 8cea 06be cf12 0cbe
0.21679904 -0.32264763 0.49108693 0.28756133 -0.34693703 -0.17749982 -0.0417743 -0.24681486
0.016376967 0.50586385 0.3600941 0.44334352 -0.2820513 -0.09880095 0.23113492 -0.23528484
-0.21552598 -0.13766399 -0.4224143 -0.00071712415 -0.19660755 -0.37739474 -0.05923177 0.17661217
-0.2944466 0.054550335 0.22381769 -0.49185428 -0.2299151 -0.12313405 -0.18495454 -0.07001647
0.29907605 0.11218325 -0.11650366 -0.4638268 -0.23471628 -0.30294496 0.20872976 -0.0038172267
-0.14725237 0.069889665 -0.42016384 0.37072656 0.30006155 -0.3215057 -0.08814488 0.24430329
-0.16677481 0.24717927 0.3308366 -0.34017748 0.38021773 0.2211254 -0.15923305 -0.11139552
-0.19831264 -0.15951562 -0.042316116 0.19199194 0.30842692 0.4251765 -0.069377035 -0.05658632
0.3697779 -0.22799574 -0.3635288 -0.10331233 -0.45535317 -0.12430824 -0.31061774 -0.30661827
-0.094689526 0.2037804 -0.27062106 0.08845606 0.23448937 -0.21067788 -0.34753013 -0.092534766
-0.08630184 -0.2382669 0.19022569 0.15539287 -0.15092026 -0.2835731 -0.27899367 -0.17488551
-0.0041042813 -0.09257102 -0.13403904 0.040336814 -0.46358845 0.2662645 0.26557395 -0.34752992
-0.24383086 -0.005514769 -0.09119711 0.17608346 -0.051001072 -0.32535636 0.15439254 0.015736409
-0.23243108 -0.049031645 -0.1698205 -0.19934502 -0.12058801 0.2210229 0.028549908 0.1843304
-0.05197779 -0.16874 0.02167368 -0.29625094 -0.17603812 -0.07261809 -0.1466025 -0.08712228
-0.33036005 -0.0965197 -0.1837569 0.1047529 -0.11698935 -0.10572564 0.001468909 -0.21268852
-0.062458303 -0.2519569 -0.09248967 -0.05652215 -0.03173213 -0.1287366 -0.110883884 -0.29300377
-0.33900145 -0.12053756 0.019432925 -0.15369977 -0.02323721 -0.12644604 -0.35349524 0.16903369
-0.0058484543 -0.24736212 -0.27495122 0.09065014 -0.2104598 -0.0032963208 -0.01629667 -0.119609125
0.12450643 0.021668782 -0.1771522 -0.18613862 -0.18438235 0.06637987 -0.12877224 0.014368301
-0.05451304 0.11140499 -0.19749576 -0.09889659 -0.0027296175 -0.08801097 -0.042043757 -0.045177788
-0.26235014 -0.30502817 -0.19256128 -0.13611418 -0.11281798 -0.04884105 -0.27390742 -0.32753217
-0.09247241 -0.023131967 -0.105154864 -0.0018465292 -0.118332654 -0.18142991 0.20063908 0.07278064
0.16764024 -0.16109566 -0.34819293 -0.14432459 0.08695184 0.013894387 -0.06691906 -0.18573809
-0.35101336 -0.101187125 0.06141382 0.015517782 -0.06458345 0.12550825 0.033848017 0.10681075
-0.020651266 -0.22423707 -0.10420226 0.021109385 -0.09253892 -0.20724098 -0.05768153 -0.23842461
-0.014443435 0.011063191 -0.071729764 0.058021706 -0.06304894 -0.20461854 -0.027903873 -0.2657717
-0.12167959 -0.206746 -0.121714056 -0.060082797 -0.33784482 -0.28863937 -0.09590935 -0.21223876
-0.24128036 -0.11036171 -0.15356423 -0.26767033 -0.24534658 -0.15311463 -0.261364 -0.08537457
-0.09677639 -0.1804459 -0.13540411 -0.34429553 -0.24658626 -0.1601772 0.021943504 -0.038444083
-0.2634144 0.038525153 -0.11122143 -0.09388019 0.111236736 -0.28961572 -0.16447707 0.025520656
-0.1095153 0.087239206 0.23317862 -0.34643018 0.47696206 0.38306016 -0.1317541 -0.1367905

net.2.bias f4 [50]
00000000: e984 893e 3eeb 853d 5893 bd3d e547 c13d
00000010: 7d44 3bbe b0b6 a03e 4f5e 913e 5926 9c3c
00000020: fd37 efbc 3c5c dd3c 1139 ecbd db21 b8bc
00000030: 4465 9b3e ced5 143e 2b4f 9c3e 0a6f 563e
00000040: 49f2 b73d 0b97 7abc 15d9 573d c0e5 3d3e
00000050: 4d63 fc3c 399b 6a3e 7a01 ea3d ce0f a33e
00000060: a816 103d 2805 633c 2b95 f43d ec3d 153e
00000070: 0fe8 fc3d 5ff2 6d3e dbf7 723d a6a9 d13d
00000080: ae66 65be a91d 0abd 9a77 09bc be25 6d3e
00000090: 8bdd 3abe 9c2f 623d 5148 a13d b9e4 623d
000000a0: d32c 893e 9f23 0c3e 4c92 3d3e 31c8 323e
000000b0: d62d 0a3e 3704 0e3e 94fe 1b3e a591 323e
000000c0: 7e36 0ebd f56b 6d3e
0.26859215 0.065390095 0.09256619 0.09437541 -0.18287845 0.3138938 0.28392264 0.019061254
-0.029201502 0.02702152 -0.11534322 -0.022477081 0.30350697 0.14534685 0.3052915 0.20940796
0.08981759 -0.0152948005 0.05269726 0.18544674 0.030809069 0.22910775 0.11426063 0.31847996
0.035177857 0.01385621 0.11942514 0.14574403 0.12348949 0.23236988 0.059318405 0.10237436
-0.2240245 -0.033719692 -0.008390332 0.23158929 -0.18248574 0.055221185 0.078751214 0.05539391
0.2679201 0.13685463 0.18512839 0.1745918 0.13494048 0.13868795 0.15233833 0.17438371
-0.034719937 0.23185714

net.4.weight f4 [50, 50]
00000000: 9516 f5bc 1d02 76be 9cc5 1ebe 4bd0 0b3d
00000010: d01d 963d 4a61 1bbe bba1 42be 6c7c 0bbb
00000020: e776 68be 010e 9ebd 193e edbc 87e1 86bd
00000030: 5c55 63bd 1f8a 1cbe 6147 47bc 567c 76be
00000040: 1406 563d fbb8 f1bd e865 3ebe aff7 82bd
00000050: 9ed6 65bc 4272 56be 4cff 76be 0627 85be
00000060: 62e5 0fbd d156 fcbc 2cf5 b5be ff2c 043d
00000070: a57b 81be b151 d3bd f484 173d 6870 ebbd
00000080: a29a a03d 2008 04be c198 e0bd 41b9 45be
00000090: e087 523d 3077 993c c777 04be 7f1e dabc
000000a0: d0e3 4bbe 34d5 333c 9d23 c5bd 0947 3fbe
000000b0: 0796 31be 7aa5 39be 3225 69bd 8b2e 08be
000000c0: 1d66 8c3c 3b8b 273d 5f41 57be 7539 5fbd
000000d0: 6a50 50bd 28c4 51be 9a60 50bc 118e 0bbe
000000e0: a4ff 09be 4cdc 94be 0e88 86be 4ba5 31be
000000f0: f6e1 12be f632 d3bd 1452 0abe 914e 66be
00000100: c88a 86be 791e 8abe e135 e8bc 5bda 85be
00000110: dc9b 56bd f18d 11be e2b8 0abe ce5f 4abe
00000120: cc96 97be ec6c 65be 16ea 0bbe 09a3 3abe
00000130: 4e22 31be 5736 0abe 64c9 3cbe bf37 67be
00000140: 0bab 09be c770 30bd cbf1 3bbe 866f a5be
00000150: f810 0fbe 9699 96bd 6fe6 1ebe 510e fdbd
00000160: 75c5 68be bbc9 63bd 2889 96be c36e 953d
00000170: 1d66 80be 62a9 d2bd 309f cebc 4c8f c5bd
00000180: 79bd 40be 8d82 8ebd 5d7f 62be 9665 58bd
00000190: afbe 67be f68c ffbd 642c 0abd 58b0 7fbd
000001a0: 0d44 bcbd 5289 47be 6532 b6bd aae1 59be
000001b0: 460c 52bd e515 bfbc 51a4 8b3d 2294 95bd
000001c0: d6b0 4a3d 78bf 3ebe 332d 35be 77f2 eabd
000001d0: 7468 8ebd 9e09 17be ac6b 513d d5c1 e3bd
000001e0: 236b 71be db20 16be 3533 b4bd 9e5f 01be
000001f0: 076b 07be f16b 833d 2f8c 03be 5589 123d
00000200: 6b8d a9be 7177 60be 2188 0bbd d23f 40bd
00000210: c73f 87bd bdd7 91bd 7751 b53c db64 70be
00000220: 9d07 2dbd 4179 2abe 10fd 30bd 2a59 bfbd
00000230: e70c 36be d062 833d d4d1 16be bf60 debd
00000240: 0c1c a3bd f042 99be 9f43 29bd 792e 8fbe
00000250: 2032 3abe f9a8 373d 8cfd 8cbc a2fe 6cbe
00000260: faa3 cfbd ce3e 10be 092e d53c 6547 81be
00000270: 1650 57be d316 c13b 94c8 0bbd c3ba 00be
00000280: 28d7 533d b3c1 25be 796d 04be 4349 593b
00000290: 533d 58be fdaf b9bd 644c a6bd d688 b4bd
000002a0: 2af5 31be cf7f 093c 1209 74bb 8f54 f7bc
000002b0: aed9 a6be 6eb8 0dbe 86bd 2e3e c3e1 38be
000002c0: 2abd 3dbe 803c 13bc ce36 89be 99a7 3dbd
000002d0: fae5 da3d ba02 edbd 85ef 8a3d e49d 79be
000002e0: 402f 38bb b8d6 17bd 5dab acbd 636d 1cbd
000002f0: 03fc aa3c d824 70bd 8f10 70be 5a61 e03d
00000300: 1cb3 bbbd 639c 73be 5118 26be 437e 9dbe
00000310: ead6 31be 4c7c b6be dccd 033d 473e 0b3b
00000320: 1ed8 3cbe f40c 81bc d5e4 9e3c 1fa4 f7bd
00000330: e9d9 17be 7958 3abd be06 cdbd 5d26 49be
00000340: d4ae 83be f5d1 06be 5a24 ec3c 05e2 3fbe
00000350: 57cd 7fbe 08fe 5dbe 9d7f 79be e3d7 ddbd
00000360: 3e92 1ebd cca9 ecbd a8e3 c7bd e073 54be
00000370: 1b2f 80bd 5dc8 44be 4c42 06be cb27 83be
00000380: e90e 8e3d 37d4 68be ac2c 36be 0d5c 3bbd
00000390: 811c 57bd 6225 e1bd 1c9a 0fbe 9808 a8bd
000003a0: bf67 c4bc 1fa0 8fbe 2d21 86be bb93 51be
000003b0: 3f0a bc3b b43e 14bd 4cc3 66be 4b98 dfbd
000003c0: 093f 87be e211 3bbd dc38 21be 2639 c5bd
000003d0: 9a13 40be 0a95 72be 0418 7bbe 5a23 b0bd
000003e0: 061c ddbd 11c8 9cbd 023f a63d d5ba d6bc
000003f0: a56d 55be f0b4 4c3d 9ca7 41be 1934 0cbe
-0.029917995 -0.24024244 -0.1550507 0.03413419 0.07329905 -0.15173832 -0.19007008 -0.0021283878
-0.22701608 -0.07717515 -0.028960275 -0.06585985 -0.055501327 -0.15287064 -0.012163014 -0.24070868
0.05225189 -0.1180286 -0.18593562 -0.06394898 -0.0140282195 -0.20942023 -0.24120826 -0.26006335
-0.035130866 -0.030803116 -0.35538614 0.032269474 -0.25289646 -0.10318316 0.03699203 -0.11496049
0.07841994 -0.12893724 -0.109666355 -0.1930895 0.05139911 0.01873359 -0.12936316 -0.02662587
-0.19911122 0.010976125 -0.09625933 -0.18679442 -0.17342387 -0.1812953 -0.056920238 -0.13299005
0.017138535 0.040904265 -0.21021031 -0.054498155 -0.05085794 -0.20484984 -0.012718344 -0.13628413
-0.13476425 -0.29074323 -0.26275676 -0.1734821 -0.1434401 -0.103124544 -0.13507873 -0.22490908
-0.26277757 -0.26976374 -0.028346004 -0.26143155 -0.052394733 -0.14214303 -0.1354709 -0.19763109
-0.29607236 -0.22404832 -0.13663515 -0.18226255 -0.17298242 -0.13497292 -0.184362 -0.22579859
-0.13444154 -0.043076303 -0.18353955 -0.32311648 -0.13971317 -0.07353513 -0.15517591 -0.12356246
-0.22731574 -0.055612307 -0.29401517 0.07296517 -0.25077906 -0.102862135 -0.02522239 -0.09646472
-0.18822278 -0.06958494 -0.22118898 -0.052831255 -0.22631334 -0.12478058 -0.03373374 -0.062424034
-0.09192667 -0.19485977 -0.08896331 -0.2127749 -0.051281236 -0.02332587 0.0681845 -0.07303645
0.04948505 -0.18627727 -0.17693023 -0.11472028 -0.069535166 -0.14749762 0.051128075 -0.11120955
-0.23576026 -0.14660971 -0.087988295 -0.12634131 -0.13224421 0.064170726 -0.12846445 0.0357755
-0.33115706 -0.21920563 -0.03406537 -0.046935864 -0.066039614 -0.07121227 0.022133572 -0.23475973
-0.04224359 -0.16647817 -0.04321009 -0.093431786 -0.1777836 0.06415331 -0.1472848 -0.108582966
-0.07964334 -0.29933882 -0.041324254 -0.27965143 -0.18183184 0.04483888 -0.017210744 -0.2314401
-0.10138698 -0.14086458 0.026022928 -0.25249782 -0.21026644 0.0058926134 -0.034126833 -0.12571244
0.05171886 -0.16187172 -0.12932386 0.003315524 -0.21117143 -0.0906677 -0.08120039 -0.08815162
-0.17378679 0.008392288 -0.0037236852 -0.030191688 -0.3258795 -0.13839886 0.17064485 -0.18054871
-0.18529192 -0.008986592 -0.26799625 -0.04630241 0.10688396 -0.11572786 0.06783966 -0.24376637
-0.0028104335 -0.037070006 -0.084311225 -0.038190257 0.020872122 -0.058628887 -0.23443817 0.10956068
-0.09165022 -0.23790126 -0.16220213 -0.30760393 -0.1736714 -0.35641706 0.032178745 0.0021246837
-0.18441817 -0.015753247 0.019396225 -0.120918505 -0.1482922 -0.04549453 -0.100110516 -0.1964354
-0.2571932 -0.1316603 0.028825928 -0.18738563 -0.24980675 -0.21678936 -0.24365087 -0.10832193
-0.038713686 -0.11555824 -0.09760219 -0.20747328 -0.06258985 -0.19217058 -0.13111228 -0.25616297
0.06936438 -0.22737204 -0.17790478 -0.045742083 -0.052517418 -0.10993458 -0.14023632 -0.08204764
-0.023975251 -0.2805185 -0.26197186 -0.20466511 0.005738526 -0.03619261 -0.22535437 -0.109177195
-0.2641528 -0.04567135 -0.15744346 -0.09630041 -0.18757477 -0.23689666 -0.2452088 -0.08600493
-0.10796361 -0.07655347 0.081174865 -0.026212135 -0.20842607 0.049977243 -0.18911594 -0.13691749

net.4.bias f4 [50]
00000000: 388e 91bd 6c70 dfbd f862 01be b821 93bd
00000010: 4acc 0dbe 7061 ed3c fc2d 3cbe bccd a8bc
00000020: 5f5d 343d 9da5 8cbd 4ef1 763e 6b40 f53d
00000030: 4479 1fbe 5593 393d a78c 6b3e 4b5c a13d
00000040: 2a53 fd3d 48c1 36be d30d 46be b3ee d33d
00000050: 96d3 b33d e0db 22be 250c 03be ff78 d43c
00000060: 57e1 ab3d 20ee 92bd ebc9 92bd ee84 c4bc
00000070: c210 8c3d 3197 93bd c30d 42bd 94eb 36bd
00000080: 8ff4 9aba d1cf a7bd 07fb 6a3e 39d3 823d
00000090: f825 a43d c679 813c a088 6e3e 4ae3 abbc
000000a0: cfa8 29bb b669 aa3d 9c6d 02be 8b6a a73d
000000b0: 08eb 45bb 69fd b9bd c034 e13d 49e0 d43d
000000c0: 1ded df3d 15be 0fbe
-0.07107204 -0.10910115 -0.1263541 -0.07184166 -0.13847461 0.028977126 -0.18376917 -0.020605914
0.044034358 -0.06867526 0.24115488 0.119751774 -0.15573603 0.045306522 0.23002873 0.078789316
0.12369378 -0.17847168 -0.19341211 0.10348263 0.08780591 -0.15904188 -0.12797602 0.025936602
0.083925895 -0.07174325 -0.07167419 -0.023989167 0.06839134 -0.07206572 -0.047376405 -0.04465826
-0.0011822152 -0.08193935 0.22947322 0.06387944 0.080150545 0.015805136 0.23294306 -0.020982403
-0.0025887971 0.08320944 -0.12737125 0.08174618 -0.0030199904 -0.09081537 0.109963894 0.103943415
0.10933898 -0.14037354

net.6.weight f4 [50, 50]
00000000: 20c3 a2bd b0c3 44be 72be dd3d 09f2 1dbe
00000010: 6542 20be 7f48 1fbe ffdb 87bd a4d5 90bd
00000020: 2ae9 193c aefb d3bd ef1e 02be 64b3 843d
00000030: 5b9e d1bd f4a2 95bd 5fdb 01be 05e0 533d
00000040: 525a 11bc 07a8 81bd b939 043d 0ebc e4bd
00000050: 1ea8 493d 3a4b cf3d 106e 103d ce9b 08be
00000060: 8985 d2bc 12f1 7d3c da21 5a3d 8b0a d5bd
00000070: 4d89 25bd 9f77 85bd b3d2 573d 4f0d 433a
00000080: da5a 48bd 7d08 cc3d b46c 6ebc e631 8d3d
00000090: c0dd 543d e33a 1c3d 2a3d 08bd 09d0 673c
000000a0: 55e1 513d f1ec 0b3d ae2c 08be e92a 30be
000000b0: e093 8abd ce36 edbd 1c40 0bbd ccbc bcbd
000000c0: aee6 d5bd d4a2 a13c 8a3d 313e 34d1 843c
000000d0: ba1b a93d 5bfe b93d 7f85 08bd 2445 d13d
000000e0: 8aa0 dbbb 51f1 1bbd 390f e73c c8f4 c83d
000000f0: 3bc0 483e 60d3 103e 53e0 f43c a4a1 4c3e
00000100: fa4f 993d ed87 923c f276 fa3b 211c 90bc
00000110: 223e 69bd 606b 26be 2e06 df3c 58d2 183e
00000120: bc4a e7bc 6fe3 e83d db32 7ebd 4234 5f3d
00000130: e616 2f3e 0357 543e ccf5 bcbc c464 b93d
00000140: 020a cd3d 4da9 0b3b d28e 433e dc9d 223e
00000150: 9420 123e 393e 7fbc 23a3 513e 5edb 443e
00000160: 496a 873d a62a 7fbd bda2 ff3d a531 373e
00000170: f74f bcbd e5d7 ce3d a054 123e 60e8 34be
00000180: 28bc 1abc 1c76 5e3e 886b ccbd 996a 24bc
00000190: 0670 123e a4f3 3fbd 34f3 4abd 4646 4f3c
000001a0: ce80 debd 96c9 c6bd 32d9 bbbb db04 543d
000001b0: a0b1 543e 745c cf3c 67c7 193e ef20 023e
000001c0: 5b65 053d 6bb5 8e3c fc8a fbbb ac4c cbbd
000001d0: 4ed6 96bd 4f6e 1d3c e07f 043e a4aa 503d
000001e0: 5060 f3bd 4d97 12be f5be 1dbe 09c0 253e
000001f0: a1e1 c4bd 2c77 c7bd 75b2 243d 0d3b cfbd
00000200: c8ba 7fbd db18 fa3d 7c7a 00be b36a 15bd
00000210: 8964 24bd cdc7 46bc 7c0d 603d 5d1f d33d
00000220: 42cd 6fbd 647f f73d 8a98 37bd b3c1 253d
00000230: e1b0 09bd 7b11 153e d55c 15be b943 903d
00000240: dfaf 343d 6c07 2dbe f7c7 063e dafa d7bc
00000250: 6740 ca3c 0ec0 1e3e f0ce 12be 8fac 54be
00000260: abe0 523d fc0c edbc 53e7 5cbe e2f9 62bd
00000270: b2b7 1a3d eb4e bebd d697 55be 2f76 01bd
00000280: 5494 10be ce01 0c3d b88f f1bd 7d0a 0ebc
00000290: 65ee b93b 6f25 b3bd 3d2f 1ebe 7529 8c3c
000002a0: 61c7 23be e916 1fbe c669 a3bd 3c16 19be
000002b0: a344 8fbb 67de 783d c654 43be 2a7e afbc
000002c0: 6c84 33bd d6a2 1dbe fa3c 1bbe 1f27 913d
000002d0: aecf 2ebe 9c55 febd 3a29 12be 2e6d 30be
000002e0: 1295 72bd 6f49 f9bb c61e 853d 528a 16be
000002f0: 54d8 2c3d 12e1 84bd 699a cfbd aaa7 173d
00000300: 0b34 8a3d d60f e4bd b230 f4bb 7421 de3d
00000310: 4061 ecbb 66ad 59be 134c 37be 282f 803d
00000320: e6ab fabc ee98 be3d 9f1c 513d a97c 6a3e
00000330: 2d53 cc3d 6ec0 893c 937a a8bd 318a 4f3e
00000340: 466a 2d3e c06a db3a 0eb8 5e3e ed7c 9d3e
00000350: dca4 133e 5d20 2f3e 90a5 9c3e 88a2 46bc
00000360: 933b 5a3e 381d 58bd 3846 2b3d 7fc2 32be
00000370: cd67 243e c3b0 c13d 9af8 d8bd 546e d93d
00000380: 9f3b d23d 5794 e6bd ddcf a03c 40b3 213d
00000390: c9fe 363d 9612 c0bd 46b4 643e a84b a8bc
000003a0: 9003 713e d7e5 573e 2942 123e e42e 1f3e
000003b0: d91a 533e 570e db3d b2c4 803e f598 723e
000003c0: 931f c83d 2fa4 7a3d f6c6 bdbd e4a4 3dbb
000003d0: e77c 8a3e fdea 3cbe 6bca f93d 715c 1f3e
000003e0: ba00 d8bd f81c 723e a4a8 fabc e1a3 4abe
000003f0: e034 0ebe 32c6 1bbe 2438 8ebc 4660 35bd
-0.079473734 -0.19215274 0.1082734 -0.1542436 -0.15650328 -0.15554999 -0.06633758 -0.07071999
0.00939397 -0.103507385 -0.12707113 0.064795285 -0.10235282 -0.073064715 -0.1268134 0.051727314
-0.008871632 -0.06330877 0.03228161 -0.11168681 0.049232595 0.1012177 0.035261214 -0.13340685
-0.02569844 0.01549937 0.05325494 -0.104024015 -0.040414143 -0.065169565 0.052691173 0.0007440643
-0.048914768 0.099625565 -0.014552284 0.06894283 0.05196929 0.038142096 -0.033261456 0.014148721
0.051240284 0.03416151 -0.13298294 -0.17203869 -0.06766486 -0.11582719 -0.033996686 -0.09215698
-0.10444389 0.019730963 0.17308632 0.016213037 0.082572415 0.090817176 -0.033330437 0.10218266
-0.0067024874 -0.038071934 0.0282055 0.09812313 0.1960458 0.14143133 0.029892122 0.19983536
0.074859574 0.01788708 0.007643574 -0.017591538 -0.05694402 -0.16251898 0.027224626 0.1492399
-0.028233878 0.113715045 -0.06206022 0.054493196 0.17098579 0.20736317 -0.023066424 0.09052423
0.100116745 0.0021310628 0.1909745 0.15880531 0.1427024 -0.0155788 0.20472388 0.19224307
0.06612069 -0.062296532 0.12482212 0.17890032 -0.091949396 0.10099772 0.14290094 -0.17666769
-0.009444274 0.21724743 -0.099814475 -0.0100351805 0.14300546 -0.046863213 -0.049548343 0.012651032
-0.10864411 -0.09706418 -0.005732679 0.051762443 0.20770884 0.02531264 0.15017472 0.12707876
0.032567363 0.017420491 -0.0076764803 -0.099267334 -0.07365094 0.009608819 0.12939405 0.050943986
-0.118836045 -0.14315529 -0.15404876 0.16186537 -0.09613348 -0.09739527 0.040209252 -0.10118685
-0.062433988 0.12211772 -0.12546724 -0.03647871 -0.04013494 -0.012132597 0.05470036 0.103087164
-0.05854536 0.12084845 -0.044823207 0.04046793 -0.03361595 0.1455745 -0.14586194 0.07044167
0.044113036 -0.16897362 0.13162218 -0.026364733 0.024688913 0.1550295 -0.14336753 -0.20768951
0.05148379 -0.028936855 -0.21572618 -0.055414088 0.03777284 -0.09292396 -0.20858702 -0.03160685
-0.14119083 0.03418141 -0.1179499 -0.008669493 0.005674171 -0.08747374 -0.15447707 0.017109612
-0.15994026 -0.15536083 -0.07979159 -0.14949888 -0.004372196 0.060758974 -0.19075307 -0.021422464
-0.04382746 -0.15394148 -0.1515998 0.0708754 -0.17071411 -0.124186724 -0.14273539 -0.17229149
-0.059224196 -0.007607631 0.0650001 -0.14701203 0.042198494 -0.06488241 -0.10136873 0.03702513
0.06748208 -0.11135833 -0.007452094 0.108462244 -0.0072137415 -0.21257553 -0.17900114 0.06258994
-0.030599546 0.09306513 0.051052686 0.22899117 0.09976802 0.01681539 -0.08226504 0.2026756
0.16935071 0.0016740188 0.21749899 0.30759373 0.14418358 0.1710219 0.30595064 -0.012123711
0.21311788 -0.05276224 0.041815013 -0.17457007 0.16055222 0.09457543 -0.10594292 0.106167465
0.10265278 -0.11258762 0.019630367 0.039477587 0.044676576 -0.09378545 0.22334394 -0.020543888
0.23536515 0.2108377 0.1428305 0.15545231 0.2061571 0.106960945 0.25150067 0.23691161
0.09771647 0.061191734 -0.092664644 -0.0028937394 0.27048418 -0.18449016 0.12196811 0.15562607
-0.105470136 0.23643863 -0.030597992 -0.19789077 -0.13887358 -0.15212324 -0.017360754 -0.044281267

net.6.bias f4 [50]
00000000: cdb7 953d d229 ad3d e705 d3bc 2bf7 67bd
00000010: 2afe 83bd 1b82 cdbc 7c1e 18be 289f 66be
00000020: f471 893d 4bea 733d fdc3 65bd a4b5 e0bd
00000030: 4634 cabc 4226 ddbd bb99 0b3e 884f 93bc
00000040: e593 15be 1aa1 203c cd8d 0b3e 9be0 123e
00000050: 08e5 783d 24b6 bcbd cb62 67bd e986 89bc
00000060: 6504 2c3d f7b4 963d 00c3 063e ef33 a63d
00000070: 3ec4 a5bd 4b9d 293c c4cb 9abd d544 5cbd
00000080: aa77 e03b d970 093d 1166 29be 1936 22bc
00000090: 268a 423b e777 803d 1e8e e4bd 8ba5 053e
000000a0: d89b 0f3d fcac 7b3d bb6f 073d 4c93 dd3d
000000b0: 37c7 edbd c3a7 303d b582 6c3d 7598 8b3d
000000c0: 6a66 023a 0f0a 12be
0.07310448 0.08455242 -0.02575965 -0.056632202 -0.06444962 -0.025086453 -0.14855379 -0.22521651
0.06711188 0.05954961 -0.056095112 -0.10972145 -0.024683129 -0.10798313 0.13632862 -0.01798226
-0.14607199 0.009804035 0.13628311 0.14343493 0.060765296 -0.09214428 -0.0564907 -0.016787963
0.04199638 0.07358735 0.13160324 0.08115374 -0.08094071 0.010352443 -0.075583965 -0.05377658
0.0068502026 0.033554886 -0.16542841 -0.009900593 0.0029684394 0.062728696 -0.11159919 0.13051431
0.035060734 0.061444268 0.03306554 0.1081911 -0.11610263 0.04312874 0.05774184 0.06816188
0.00049743673 -0.1426165

net.8.weight f4 [2, 50]
00000000: f5b1 bc3d 1131 ef3c 4652 2d3d d995 213c
00000010: cc0d 1cbc aa25 dcbc dd0f 603d 5cf1 92bc
00000020: 5fb3 f3bc a7b4 a43d 7781 4bbd 2184 963d
00000030: fa01 c5bb 5d10 03be f8aa 683a 67ed a83c
00000040: 366f d1bc f334 03be 027c cbbd dd6d b0bd
00000050: 778e 99bc 94fd f9bd 7ea3 09be c104 e3bd
00000060: 15a7 13be d70d 2b3d d61c 54bc d5cd 8abc
00000070: 2d79 913d d2a3 89bd 7e6a 01bd 57f8 93bd
00000080: 19cd 1cbd 54b2 edbd b9bd b4b9 6b95 8e3d
00000090: 1990 873d 88d1 963d fc6d b0bc 5955 aabd
000000a0: c82b 1bbd 4a62 89bd 2fdb e43c 8108 8bba
000000b0: 7987 8e3d 36c6 523d bf10 983d c433 a63d
000000c0: 9024 da3d 170b 04bc d02c 36bd 8dd4 0b3e
000000d0: 6f43 6a3d ef38 9cbd b470 213e a1df cebd
000000e0: 6a7f 303e d127 81bd 0a5e e7bd dac1 cc3c
000000f0: ceed 40be 7ef4 2abe 3f46 97bd 91c0 f93b
00000100: 6034 80be 45e1 0b3d a609 e83d 5e63 f93d
00000110: f777 7dbd 97c0 07be 5cf0 f73d 6c55 983d
00000120: f80b 053e b9c1 3e3e a60f 12be a9fb adbd
00000130: 3f38 0abe 9222 d0bd f16e 593c f350 6ebd
00000140: 664a 6abd 8fb9 f23d 54ce 06be 6863 0b3c
00000150: 918f 3fbd 83a4 90bd 7f5b 983d b16c 84be
00000160: 92d9 153d af80 ecbb 750c 153b 2cfc 77bd
00000170: ffe5 85bd 068d 88be ae88 243e eb7c 243d
00000180: 95cf 97be e918 f5bd 2d1c 8fbc 6f6d e6bd
0.0921363 0.029198201 0.04231479 0.009862387 -0.009524774 -0.026873428 0.05470263 -0.017937355
-0.029748617 0.08042269 -0.049684014 0.0734942 -0.0060121985 -0.12799211 0.0008875574 0.020621015
-0.025565725 -0.12813167 -0.09935762 -0.08614705 -0.01874469 -0.12206569 -0.13441274 -0.11084891
-0.14419205 0.041761246 -0.012946328 -0.016943851 0.071031906 -0.06720699 -0.0315957 -0.072251014
-0.038281534 -0.11606279 -0.0003447363 0.06962093 0.06619281 0.07364184 -0.02153682 -0.0831706
-0.03788355 -0.067082 0.027936546 -0.0010607393 0.06959433 0.05145856 0.07425069 0.08115342
0.10651505 -0.008059285 -0.04447633 0.136553 0.057193216 -0.07628047 0.15765649 -0.101012476
0.17236105 -0.063064225 -0.112972334 0.02499478 -0.18840715 -0.16694829 -0.07386445 0.0076218327
-0.2503996 0.03415038 0.11329965 0.12177156 -0.061881986 -0.13257061 0.12106392 0.07438168
0.12992847 0.18628587 -0.14263782 -0.08495266 -0.13498019 -0.10162844 0.013271079 -0.058182668
-0.057199858 0.11851799 -0.13164645 0.008507587 -0.046767775 -0.07062628 0.074393265 -0.25864175
0.036584444 -0.0072174887 0.002274302 -0.060543224 -0.06538009 -0.26670092 0.16067764 0.040158194
-0.2965056 -0.11967642 -0.01746949 -0.112513416

net.8.bias f4 [2]
00000000: 94fd d4bd a891 abbd
-0.10399929 -0.08377391
