week1/1.3/closed_loop_trained_model_finer.pth (torch, 24835 bytes, 8 tensors)

net.0.weight f4 [50, 4]
0	0xbedacd5f	-0.4273481
1	0xbeace877	-0.33771107
2	0xbe0b4190	-0.13599229
3	0x3f543419	0.82891995
4	0xbf136ed7	-0.57591003
5	0xbf43b711	-0.7645121
6	0x3ee92e8d	0.45543328
7	0x3f275ca5	0.6537574
8	0x3f8deca9	1.1087848
9	0xbf2b5aa1	-0.66935164
10	0x3defef21	0.11715532
11	0xbf1a013d	-0.6015814
12	0x3f01f785	0.5076831
13	0xbf490c2d	-0.78534204
14	0x3ec989c6	0.39362925
15	0xbeed5e00	-0.4636078
16	0x3f3b2f29	0.73118836
17	0xbf069444	-0.52569985
18	0x3e792ffb	0.2433471
19	0xbeebd474	-0.46060526
20	0x3f804912	1.0022299
21	0xbe863c4a	-0.26217872
22	0x3d1a4562	0.037663825
23	0xbe4bea1c	-0.19913524
24	0x3f87df74	1.0615067
25	0xbc32bcc2	-0.010909261
26	0x3d604951	0.05475742
27	0xbd7faef3	-0.062422704
28	0x3f906f16	1.1283901
29	0xbf574a7c	-0.8409803
30	0xbe975807	-0.29559347
31	0xbea1b514	-0.31583464
32	0xbf866a4c	-1.0501189
33	0x3e08aebf	0.1334791
34	0xbed78122	-0.42090708
35	0x3f58cca6	0.8468727
36	0xbf1b343d	-0.60626584
37	0xbe2230be	-0.15838906
38	0xbe5f6a54	-0.21817905
39	0x3f180850	0.59387684
40	0xbf8a30d6	-1.0796154
41	0xbe646b39	-0.22306527
42	0x3e32b19e	0.17450568
43	0x3f12e79c	0.5738466
44	0x3f6cc321	0.92485243
45	0xbede2204	-0.43385327
46	0x3db3d624	0.087810785
47	0xbf1ffbef	-0.62493795
48	0xbf73a550	-0.9517412
49	0x3f626290	0.88431644
50	0xbe36bd51	-0.17845656
51	0x3f2a27b8	0.66466856
52	0xbf4a0cda	-0.7892586
53	0x3e8c6f59	0.27428702
54	0x3ed19da4	0.40940583
55	0x3f33fc9a	0.70307314
56	0xbf66fdb6	-0.9023088
57	0xbdc210bb	-0.09475847
58	0xbecd0999	-0.40046385
59	0x3f0fc5c7	0.5616116
60	0x3f7fc79e	0.99913967
61	0xbd092698	-0.03348407
62	0x3eba1ba0	0.363492
63	0xbebeb6cd	-0.3724884
64	0xbeab1389	-0.33413342
65	0xbf9183ce	-1.1368349
66	0xbde42ebc	-0.111417264
67	0x3f579b0d	0.84220964
68	0x3f96c703	1.1779484
69	0xbf0731a0	-0.52810097
70	0x3eda2085	0.42602935
71	0xbe3d689c	-0.18496937
72	0x3f347414	0.7048962
73	0xbe8d1d9a	-0.27561647
74	0x3e87cb68	0.26522374
75	0xbeefb93c	-0.4682101
76	0x3f75af8f	0.95971006
77	0x3cdd65e6	0.027026128
78	0x3e3b1efb	0.18273537
79	0xbf324079	-0.6962963
80	0xbedfc480	-0.43704605
81	0xbe82f5c1	-0.2557812
82	0x3e7abdd1	0.24486472
83	0x3f202a2e	0.6256436
84	0x3f883efe	1.0644224
85	0x3e4ca52a	0.1998488
86	0x3ca2da12	0.019879375
87	0xbe8c6336	-0.27419442
88	0xbf65756c	-0.89632297
89	0x3d62781c	0.055290326
90	0x3e0a811f	0.13525818
91	0x3eb083e4	0.34475625
92	0x3f3421f9	0.7036434
93	0xbf2fcfc5	-0.68676406
94	0x3df79612	0.120891705
95	0xbf00bf7d	-0.5029219
96	0x3f4593b7	0.7717852
97	0xbd1be179	-0.038056824
98	0xbabc2b2c	-0.0014356128
99	0xbf4f1ac7	-0.80900234
100	0xbf79f03b	-0.9763219
101	0xbe21aeb0	-0.15789294
102	0xbce892b9	-0.028390275
103	0x3f50a291	0.81498057
104	0x3f429bcc	0.7601898
105	0x3c06a0a2	0.008217009
106	0x3eeacb46	0.4585821
107	0xbf25d953	-0.64784735
108	0xbf4d512e	-0.80201995
109	0xbe960000	-0.29296875
110	0xbea0ad80	-0.3138237
111	0x3f2e679e	0.6812686
112	0xbf1234a0	-0.5711155
113	0xbf4cf23f	-0.8005714
114	0x3d00c6bb	0.031439524
115	0x3e7f2a3a	0.24918452
116	0x3f33ef79	0.7028728
117	0xbe8e748c	-0.27823293
118	0x3ee074b7	0.43839046
119	0xbf65dce0	-0.89790154
120	0x3f859351	1.0435582
121	0xbeffd43e	-0.49966615
122	0x3ec3289a	0.38116914
123	0xbdb4ee0b	-0.088344656
124	0xbf95d89a	-1.1706727
125	0xbe8e0846	-0.27740687
126	0x3eb861fa	0.3601225
127	0x3f0c8400	0.54888916
128	0x3f3361da	0.70071185
129	0xbec77c5e	-0.38962072
130	0x3ed5c2e3	0.4175025
131	0xbe346951	-0.176183
132	0x3f5461ad	0.8296154
133	0xbf13db4d	-0.577565
134	0xbd54eff9	-0.05198667
135	0xbeb46ec6	-0.35240763
136	0x3f7d4af2	0.9894248
137	0xbe8bbe03	-0.27293405
138	0x3ef718e6	0.48261184
139	0xbe99f291	-0.30067876
140	0x3fa35e3c	1.2763133
141	0xbf70bd17	-0.9403853
142	0xbe672375	-0.2257212
143	0xbf4b7dd3	-0.7948887
144	0x3f686526	0.9077934
145	0xbeeba254	-0.46022284
146	0xbcf84ec7	-0.030311001
147	0xbe3c716f	-0.18402646
148	0x3f3e9460	0.7444515
149	0xbe880a35	-0.26570287
150	0x3e86170a	0.26189452
151	0xbdb99be7	-0.09062939
152	0x3f89f506	1.07779
153	0x3e12b438	0.1432656
154	0x3ebbb074	0.3665806
155	0xbf4cebdb	-0.80047387
156	0x3e00ea6d	0.12589426
157	0xbf95de5a	-1.1708481
158	0xbe46b6ee	-0.1940572
159	0xbef38c49	-0.47567967
160	0xbef86d47	-0.48520872
161	0x3f150cff	0.58222955
162	0x3f070d1b	0.5275437
163	0x3f04f8f3	0.51942366
164	0xbf958d77	-1.1683797
165	0xbed2a7f1	-0.41143754
166	0xbefdf381	-0.4959984
167	0x3f226cf1	0.6344748
168	0x3f4206e6	0.75791776
169	0x3e5822e1	0.21107055
170	0x3e3206db	0.17385428
171	0xbebcc8f4	-0.36872065
172	0x3f9a5431	1.2056943
173	0xbf7beb53	-0.9840595
174	0xbdba54f8	-0.09098238
175	0xbf42a9dc	-0.76040435
176	0x3f6627e8	0.8990464
177	0x3e31e77d	0.17373462
178	0xbe1df08a	-0.1542379
179	0xbf0d3c56	-0.5517019
180	0x3f0620d1	0.52393824
181	0xbf0322f0	-0.51225185
182	0xbd080419	-0.033207033
183	0xbf221143	-0.6330759
184	0xbf80b773	-1.0055984
185	0x3eb4e0d7	0.3532779
186	0xbee34ed3	-0.44396076
187	0xbd8e8d81	-0.069605835
188	0x3f95c551	1.1700841
189	0xbf41aaca	-0.7565123
190	0x3e9be0d0	0.30444956
191	0xbf3d2edb	-0.7389962
192	0x3f622efc	0.8835294
193	0xbf08529f	-0.5325107
194	0x3c8f9fc1	0.017532231
195	0xbedfa0d9	-0.43677405
196	0x3f07aabd	0.529949
197	0xbee3ae82	-0.44469076
198	0x3f3e3ba4	0.74309754
199	0x3e6b2117	0.22961842

net.0.bias f4 [50]
0	0x3e9bcc2a	0.30429202
1	0x3f00c254	0.5029652
2	0x3d571aba	0.052515723
3	0xbef2edea	-0.4744714
4	0xbdbafb87	-0.09130006
5	0x3d28f26f	0.041246828
6	0xbeeb42d6	-0.4594943
7	0xbe323836	-0.17404255
8	0xbe870947	-0.26374266
9	0x3d785af7	0.060633626
10	0x3d89cb24	0.06728199
11	0xbe17d632	-0.14827803
12	0xbe569693	-0.20955877
13	0xbd88d973	-0.066821
14	0xbd27e603	-0.04099084
15	0xbe3123b3	-0.17298774
16	0x3cd14368	0.025544837
17	0x3db0dce7	0.08635884
18	0xbdb7895e	-0.089617476
19	0xbeb5749b	-0.35440525
20	0xbea1f790	-0.31634188
21	0xbeb01795	-0.34392992
22	0x3e612522	0.21986821
23	0xbef9c053	-0.48779544
24	0xbe86e87a	-0.2634924
25	0x3e657d8f	0.22411178
26	0xbeabf3b1	-0.3358436
27	0x3d858418	0.065193355
28	0xbe918e19	-0.28428724
29	0xbe09e96a	-0.13467947
30	0xbe6a00f3	-0.22851925
31	0x3ed92f50	0.4241891
32	0x3b5781c8	0.0032883752
33	0x3e07ec37	0.13273703
34	0xbd9fcba3	-0.078025125
35	0xbc7417a2	-0.014898213
36	0xbee41998	-0.44550776
37	0x3da5171e	0.0806105
38	0xbe3cdbbb	-0.18443196
39	0xbf0d6c52	-0.5524341
40	0x3e5a2e49	0.21306719
41	0xbddff4f6	-0.109353945
42	0xbf1174f0	-0.5681906
43	0x3d75165f	0.059835788
44	0xbf0b2b7f	-0.54363245
45	0xbef60b26	-0.4805538
46	0x3e698f97	0.22808681
47	0x3e51ff2e	0.205075
48	0x3e0e19d8	0.13877046
49	0xbd343f86	-0.044005893

net.2.weight f4 [50, 50]
0	0xbe1d81af	-0.15381502
1	0xbd70e838	-0.05881521
2	0xbe98c4c5	-0.29837623
3	0xbe309bde	-0.17246959
4	0xbe7c590b	-0.24643342
5	0xbe8132b9	-0.2523401
6	0xbda11331	-0.078649886
7	0xbe3e4dcd	-0.18584366
8	0x3da98f0b	0.082792364
9	0x3bdb6074	0.0066948477
10	0xbab4287f	-0.0013744979
11	0xbe85dcd5	-0.26145044
12	0xba8b40fb	-0.0010624224
13	0xbd9170b5	-0.07101575
14	0xbdad268c	-0.08454618
15	0xbe952289	-0.2912791
16	0x3dd6953f	0.10477685
17	0xbe56d832	-0.2098091
18	0xbdaeb192	-0.085299626
19	0xbd258723	-0.04041208
20	0x3ddc318c	0.10751638
21	0xbe8af30f	-0.27138564
22	0x3d8addc9	0.067805834
23	0xbdf44638	-0.11927456
24	0xbd9b1892	-0.07573046
25	0xbd7856fb	-0.060629826
26	0xbc50afd5	-0.012737234
27	0x3d5b3200	0.05351448
28	0xbd217301	-0.039416317
29	0xbe7b2a5e	-0.2452788
30	0xbe6a3882	-0.22873119
31	0x3d2258a1	0.039635304
32	0x3cfd7b2b	0.03094252
33	0xbdbf9147	-0.09353881
34	0xbde25d9d	-0.110530116
35	0xbe931391	-0.28725865
36	0xbb06c7a9	-0.0020565784
37	0xbd8752e7	-0.06607609
38	0xbe8ab01b	-0.27087483
39	0xbd81c707	-0.063367896
40	0xbdb70fec	-0.08938584
41	0x3e07ceba	0.13262454
42	0xbd3d2dc4	-0.046186224
43	0xbe586c5e	-0.21135089
44	0xbe21f6d6	-0.15816817
45	0xbe56e915	-0.20987351
46	0x3d9c940c	0.07645425
47	0xbe45538d	-0.19270153
48	0xbe273dd8	-0.16332185
49	0x3d3e3957	0.046441402
50	0x3ea69334	0.32534182
51	0x3ecc6aaf	0.39925143
52	0xbd61783f	-0.055046316
53	0x3e0fe921	0.14053775
54	0xbd04ccde	-0.03242194
55	0xbe248cb5	-0.160693
56	0xbea82da0	-0.3284731
57	0xbdd0684b	-0.10176142
58	0x3ec07e78	0.37596488
59	0x3e9da19f	0.3078737
60	0x3ebe38a3	0.37152585
61	0xbe9c8146	-0.30567378
62	0x3cdab99e	0.026699837
63	0x3e958511	0.29203084
64	0x3e8f4f16	0.27990025
65	0xbebb8cd2	-0.36630875
66	0x3f20f714	0.6287701
67	0xbe48e736	-0.1961945
68	0xbe2a9e0d	-0.16661854
69	0xbeccfe54	-0.40037787
70	0x3ed0c46f	0.40774867
71	0xbe864e31	-0.2623153
72	0x3e5a4115	0.2131389
73	0xbe1be01b	-0.15222208
74	0xbe8e68b1	-0.27814248
75	0x3eb05194	0.3443724
76	0xbe4cd7d1	-0.20004202
77	0x3ea24e39	0.31700304
78	0x3f06bf9c	0.5263612
79	0xbdd595ef	-0.10428988
80	0xbe7701ce	-0.24121782
81	0x3eb40295	0.3515822
82	0x3c334853	0.010942536
83	0xbd505ac1	-0.0508678
84	0xbd8ab830	-0.06773412
85	0xbeaee367	-0.3415787
86	0xbd86f0a3	-0.065888666
87	0xbdebbb62	-0.1151035
88	0xbedbedc2	-0.42954832
89	0x3e0b318e	0.13593122
90	0x3e2c1029	0.1680304
91	0x3f05492b	0.5206477
92	0xbea72bfa	-0.3265074
93	0xbe89b229	-0.26893738
94	0xbea60994	-0.32429183
95	0xbd817960	-0.063219786
96	0x3e2cc541	0.16872121
97	0xbe742929	-0.23843826
98	0xbe0556ac	-0.13021344
99	0xbc855b53	-0.016278898
100	0x3ea3e991	0.32014135
101	0x3ea44815	0.32086244
102	0xbee49f01	-0.4465256
103	0xbdc36d44	-0.09542325
104	0xbe91eb85	-0.285
105	0xbe2f9477	-0.17146479
106	0xbed781d2	-0.42091233
107	0xbea75c91	-0.3268781
108	0x3e9db097	0.3079879
109	0x3e5308f0	0.20608878
110	0x3e798bd4	0.24369746
111	0xbece4697	-0.4028823
112	0x3eb14fcf	0.34631202
113	0x3e68b922	0.22726873
114	0x3e9c9881	0.305851
115	0xbe44d7e2	-0.19222978
116	0x3e0f85e2	0.14015916
117	0xbec9e504	-0.39432538
118	0xbdfa02df	-0.12207579
119	0xbec04373	-0.3755146
120	0x3d5448d0	0.051827252
121	0xbebe3ddf	-0.3715658
122	0x3ea95122	0.33069712
123	0xbea7ae14	-0.3275
124	0xbe52cefb	-0.2058677
125	0x3e9eb354	0.30996192
126	0xbe347f63	-0.17626719
127	0x3ea3051b	0.31839833
128	0x3e331a1f	0.17490433
129	0xbe1c6210	-0.15271783
130	0xbe4c8da5	-0.19975908
131	0x3e946b1e	0.28987974
132	0xbe613cb8	-0.21995819
133	0xbe63338a	-0.2218763
134	0xbe6bf3cf	-0.23042224
135	0xbe5d0997	-0.2158569
136	0xbe9d4806	-0.30719012
137	0xbc94926d	-0.018136228
138	0xbece8ed1	-0.40343335
139	0xbd82f528	-0.06394416
140	0x3dd68a3d	0.104755856
141	0x3ebfb93c	0.3744601
142	0xbe8dec9a	-0.27719575
143	0xbe63aeeb	-0.22234695
144	0xbed40964	-0.41413414
145	0xbdab6801	-0.083694465
146	0x3eb7a66a	0.3586915
147	0xbe95c4cd	-0.2925171
148	0xbe964173	-0.2934681
149	0x3b04c923	0.0020261488
150	0x3dbf1aaf	0.09331261
151	0xbdf34a7b	-0.118794404
152	0xbe3fc5cd	-0.18727799
153	0xbe37430e	-0.17896673
154	0xbe254a2d	-0.16141577
155	0xbe2b0ff3	-0.16705303
156	0x3d7340b7	0.05938789
157	0xbd070788	-0.032966167
158	0xbe2dd1ea	-0.16974607
159	0x3d941ada	0.07231684
160	0xbd529a3e	-0.051416628
161	0xbe319921	-0.1734357
162	0xbd1a7640	-0.03771043
163	0x3d829af5	0.06377212
164	0xbe43ec19	-0.19133033
165	0xbd43fda7	-0.047849324
166	0xbe603631	-0.21895672
167	0x3cbb3ed2	0.022857103
168	0xbddcd713	-0.1078321
169	0xbe25f735	-0.16207583
170	0x3da8f8c9	0.08250577
171	0xbb8954f2	-0.0041910345
172	0xbe1fb979	-0.15598096
173	0xbe0a6cad	-0.13518019
174	0x3d56b78f	0.05242115
175	0xbe194cc2	-0.14970687
176	0xbd541a26	-0.05178275
177	0xbdcc57c6	-0.09977679
178	0x3c67c9ae	0.014147205
179	0x3c32853c	0.010896023
180	0xbd841fbf	-0.064513676
181	0xbdb6154f	-0.08890783
182	0xbd33bb42	-0.043879755
183	0xbe1824dc	-0.1485781
184	0xbe0ba312	-0.13636425
185	0x3c83b6f6	0.016078454
186	0x3c959057	0.018257303
187	0x3bacd4c6	0.005274388
188	0xbbce5e24	-0.0062978435
189	0x3c930d8c	0.017950796
190	0xbcb77c5d	-0.022398168
191	0xbe1878d1	-0.14889838
192	0xbd666b12	-0.056254454
193	0xbdcd6838	-0.10029644
194	0xbda3c239	-0.079960294
195	0xbdaa0c9a	-0.08303185
196	0xbe12cc62	-0.14335778
197	0xbe5038df	-0.20334195
198	0x3d1603a3	0.036624562
199	0xbe0d5aec	-0.13804215
200	0xbc99f7b2	-0.018794868
201	0xbcd077f1	-0.025447818
202	0xbe3da37d	-0.18519397
203	0xbd618dbe	-0.055066817
204	0xbea0282f	-0.31280658
205	0xbe6d55cf	-0.23177265
206	0xbe8683b3	-0.26272354
207	0xbe81cd53	-0.25351962
208	0x3e09391e	0.13400695
209	0x3dafda4b	0.08586558
210	0x3d6780c7	0.056519296
211	0xbe0740bb	-0.13208286
212	0x3da5b805	0.080917396
213	0x3d6bcfb6	0.057571135
214	0x3d9ae14e	0.07562505
215	0xbe1f85bf	-0.15578364
216	0xbc86fd9f	-0.016478358
217	0xbe6dc521	-0.2321973
218	0xbe14f07b	-0.14544861
219	0xbe5b9a6f	-0.2144563
220	0x3db0243d	0.08600662
221	0xbe87fabc	-0.26558483
222	0x3e21e8db	0.15811484
223	0xbea640ad	-0.3247122
224	0xbde07a45	-0.10960821
225	0x3e1b3c95	0.15159829
226	0xbe5ee997	-0.21768795
227	0x3d7db13d	0.061936606
228	0xbce2a095	-0.027664462
229	0xbe9bb507	-0.3041155
230	0xbea3e794	-0.32012618
231	0x3e63da36	0.2225121
232	0xbb7ead67	-0.003886068
233	0xbe05c668	-0.13063967
234	0xbea9847c	-0.3310889
235	0xbe2bab14	-0.1676448
236	0xbe3bff6b	-0.18359153
237	0xbe0f5aa5	-0.13999422
238	0xbe4fea45	-0.2030421
239	0xbdfea048	-0.12432915
240	0x3dd8e327	0.10590201
241	0x3e4a3687	0.19747363
242	0xbe26ae8b	-0.1627752
243	0xbeb56cb3	-0.35434493
244	0xbe277104	-0.16351706
245	0xbd8877e6	-0.06663494
246	0xbba1d453	-0.004938641
247	0xbef3ec94	-0.47641432
248	0xbea14e9b	-0.31505284
249	0xbd4adf94	-0.049529627
250	0x3e84f53e	0.25968355
251	0x3e8643a4	0.2622348
252	0xbed0df91	-0.40795568
253	0xbe039e50	-0.1285336
254	0xbe64d02b	-0.22345035
255	0xbe826d61	-0.25474074

net.2.bias f4 [50]
0	0xbc05936d	-0.008152825
1	0x3e62c363	0.22144847
2	0x3e3ca582	0.18422511
3	0xbe2dd814	-0.16976959
4	0xbc9f47a7	-0.019443346
5	0xbd80a41e	-0.06281303
6	0x3dda5132	0.10660018
7	0x3d9f1504	0.0776768
8	0xbd891b95	-0.06694714
9	0x3d25820c	0.040407225
10	0x3dbdf4ad	0.09275184
11	0x3bb1bb63	0.0054239496
12	0xbe56925d	-0.2095427
13	0x3da9ee58	0.082974136
14	0x3d45034f	0.04809886
15	0xbda7778b	-0.08177098
16	0x3cf3462c	0.029696546
17	0xbdb4c699	-0.08826942
18	0x3cff8c51	0.031194838
19	0x3dc1d3a3	0.094641946
20	0x3df4f18a	0.119601324
21	0xbd3b3a86	-0.04571011
22	0xbdc16e26	-0.09444837
23	0xbd407e1e	-0.046995275
24	0xbd198adf	-0.037485953
25	0xbdced82f	-0.100998275
26	0xbde0f3fb	-0.109840356
27	0xbdac8f97	-0.08425825
28	0x3d495202	0.049150474
29	0x3e8eac6f	0.2786593
30	0x3c47b7a6	0.012189781
31	0xbd85012a	-0.06494363
32	0x3cb2a89c	0.021808915
33	0xbc908344	-0.017640717
34	0xbc81f8b2	-0.015865657
35	0x3d3546cf	0.04425698
36	0xbe45ff61	-0.193357
37	0x3e19ca89	0.15018667
38	0x3d485609	0.048910175
39	0x3df3da98	0.11906928
40	0xbdfe7355	-0.124243416
41	0xbd7589da	-0.05994592
42	0x3e1f4eb3	0.15557365
43	0x3e4322c9	0.19056238
44	0x3deddf2a	0.11614831
45	0x3cf59663	0.029978937
46	0xbcc6864d	-0.024233961
47	0x3cd48fc9	0.025947468
48	0x3d6df308	0.0580931
49	0x3d35075d	0.044196475

net.4.weight f4 [50, 50]
0	0xbd817334	-0.063208014
1	0x3e35988f	0.17733978
2	0x3e250c4d	0.16117974
3	0xbd99edda	-0.0751607
4	0x3db2a140	0.08722162
5	0x3e6aead1	0.22941138
6	0x3e81b20e	0.25331157
7	0x3e2e82ba	0.17042056
8	0xbcf84a46	-0.030308854
9	0xbddb73ff	-0.10715484
10	0x3e948985	0.2901117
11	0xbd4fdf9b	-0.050750356
12	0xbdf3e7c7	-0.119094424
13	0x3d845af0	0.064626575
14	0xbdf282a3	-0.11841323
15	0xbdf20743	-0.11817791
16	0x3de53625	0.11191968
17	0x3d4b7625	0.04967322
18	0x3e09b4bc	0.13447851
19	0x3e4ddedb	0.20104544
20	0x3e0e1d90	0.13878465
21	0x3c53bc1e	0.012923269
22	0x3e81f26d	0.2538027
23	0x3ddf59ca	0.10905798
24	0xbc39cdb7	-0.01134055
25	0x3d85669c	0.06513712
26	0x3d6a8b03	0.05726148
27	0xbdb5145b	-0.08841773
28	0x3dafd704	0.08585933
29	0x3e654121	0.22388126
30	0x3cb7c483	0.022432571
31	0x3dfec075	0.12439052
32	0xbe480fcb	-0.19537275
33	0x3e0a6ec7	0.1351882
34	0x3d2b25b8	0.04178402
35	0xbda7e26e	-0.08197485
36	0xbd4e1192	-0.050309725
37	0x3e84ae30	0.25914145
38	0x3e3958f1	0.18100335
39	0x3d6c56e1	0.05770004
40	0xbe174e56	-0.14775977
41	0x3bb03fa4	0.0053786803
42	0x3daa78b2	0.08323802
43	0x3e41d2f0	0.18928123
44	0x3da8eb65	0.08248023
45	0x3e160b41	0.1465273
46	0xbe343f65	-0.17602308
47	0xbe2d099a	-0.16898194
48	0x3df0ab7c	0.11751458
49	0xbc2fed24	-0.010737691
50	0xbbac2b2a	-0.005254169
51	0xbd9fd8ba	-0.07805009
52	0xbe69487a	-0.22781554
53	0xbb89ff5e	-0.0042113503
54	0xbe2716a7	-0.16317235
55	0xbe4fd5bb	-0.20296375
56	0xbe31e7c5	-0.1737357
57	0x3d8ca1d2	0.06866802
58	0xbc29d215	-0.010365029
59	0xbe23a357	-0.15980278
60	0xbc25ebd3	-0.010127026
61	0xbe62d8ef	-0.22153066
62	0xbdd188f8	-0.10231203
63	0xbddcd78b	-0.10783299
64	0xbd1be3a6	-0.0380589
65	0x3db2e09f	0.08734249
66	0xbd96d946	-0.0736566
67	0x3c8c18b1	0.017101618
68	0xbe16a3fb	-0.14710991
69	0xbe66c54c	-0.225362
70	0xbde42311	-0.11139501
71	0xbd116b54	-0.035502747
72	0x3ca97f8f	0.020690707
73	0xbe24d719	-0.16097678
74	0x3da95ce9	0.08269674
75	0xbd836d67	-0.06417351
76	0x3d815c00	0.06316376
77	0xbe02b025	-0.12762506
78	0xbe5ad773	-0.2137125
79	0xbd7cf62d	-0.06175821
80	0xbc6fb715	-0.0146310525
81	0x3c6d4ebe	0.014484106
82	0xbda8fba7	-0.08251124
83	0xbe2d702f	-0.16937326
84	0x3aba5878	0.001421704
85	0xbcdf05b0	-0.027224392
86	0x3d8734f9	0.066019006
87	0xbe879e7f	-0.2648811
88	0xbd1aac67	-0.037762072
89	0x3ce9e6ea	0.028552491
90	0xbd7f6c2a	-0.062359013
91	0xbd0cbd63	-0.0343603
92	0xbe12c032	-0.14331129
93	0xb956f90d	-0.00020501409
94	0x3cf16837	0.029468639
95	0xbdf12b19	-0.11775798
96	0xbd0ca121	-0.034333352
97	0x3dba8d32	0.09108962
98	0xbe4af02a	-0.19818178
99	0xbca69030	-0.020332426
100	0x3dbef11d	0.093233325
101	0x3dbfefc8	0.093719065
102	0x3d676b72	0.056498952
103	0xbe193fa0	-0.14965677
104	0xbd9410ff	-0.07229804
105	0x3e808021	0.25097755
106	0x3e241efc	0.16027445
107	0x3ddc0666	0.10743408
108	0x3cd6b419	0.026208924
109	0xbc1e0679	-0.009645098
110	0x3e46ec61	0.19426109
111	0x3e230c44	0.15922648
112	0xbd4d8532	-0.050175853
113	0x3dff1f39	0.12457127
114	0xbd97a318	-0.074041545
115	0xbe198d4f	-0.14995311
116	0x3e4b4b94	0.1985305
117	0xbc91a1a5	-0.017777273
118	0x3d0fe6ba	0.035132147
119	0x3e4ada77	0.198099
120	0x3d814052	0.06311096
121	0x3ca71d8e	0.020399835
122	0x3e289e43	0.16466622
123	0xbd89f7cc	-0.06736717
124	0x3d75ab8c	0.059978053
125	0xbe407d82	-0.18797877
126	0xbdc29292	-0.09500612
127	0x3d9acffb	0.075592004
128	0x3db5e759	0.08882017
129	0x3d452218	0.048128217
130	0x3bc9ca56	0.0061581535
131	0x3dd3e2fa	0.10346027
132	0xbd63707d	-0.0555272
133	0x3e2107b6	0.15725598
134	0x3dc21ee4	0.09478548
135	0x3d197b23	0.037470948
136	0xbe431eeb	-0.19054763
137	0x3d69fa53	0.057123493
138	0x3cef4489	0.029207485
139	0xbb0a5814	-0.0021109628
140	0xbe332549	-0.17494692
141	0xbe15b3c2	-0.14619353
142	0x3e76122f	0.24030374
143	0x3e4d1de8	0.2003094
144	0x3df7ca10	0.12099087
145	0xbe06758a	-0.13130775
146	0x3b9444d5	0.004524807
147	0xbe1a0a5a	-0.15043011
148	0xbd49148d	-0.049091864
149	0x3d888018	0.06665057
150	0x3d5f4540	0.0545094
151	0xbe193c71	-0.14964463
152	0xbd156353	-0.036471676
153	0x3d331f84	0.043731228
154	0xbdc6973a	-0.09696813
155	0x3a1167da	0.0005546786
156	0xbd061f6a	-0.032744803
157	0x3b9d11c7	0.004793379
158	0x3d9ca91c	0.076494426
159	0x3d9c9a08	0.07646567
160	0xbd92773d	-0.07151649
161	0x3dd973a0	0.10617757
162	0x3ce3c37a	0.027803171
163	0x3e023b68	0.12717974
164	0x3e104e9e	0.1409249
165	0xbcfc8ef3	-0.030829882
166	0x3e06e77b	0.1317424
167	0x3d6261e6	0.055269144
168	0x3ded1954	0.115770966
169	0x3e323d01	0.17406084
170	0x3d93856a	0.07203181
171	0xbd6086cc	-0.054816052
172	0xbd9ae35b	-0.07562896
173	0x3c1dd744	0.009633843
174	0x3e2f078a	0.1709272
175	0x3d6a449d	0.05719434
176	0xbd9043be	-0.07044171
177	0x3ddd614d	0.10809574
178	0x3deae070	0.11468589
179	0xbc5bcc6f	-0.01341544
180	0x3d9da6e3	0.07697847
181	0x3df975e5	0.1218069
182	0xbb18bcd2	-0.0023305905
183	0x3e358a0e	0.17728445
184	0x3e1d2f69	0.15350117
185	0xbcf471d3	-0.029839432
186	0x3d763d93	0.060117316
187	0x3dc41647	0.095745616
188	0x3d3fb41c	0.046802625
189	0x3da334c1	0.079690464
190	0x3d89d115	0.06729332
191	0xbdc2c07e	-0.09509371
192	0x3e13fa4a	0.14450946
193	0xbc5dd9f3	-0.013540733
194	0x3e221f6e	0.15832302
195	0x3d595447	0.05305889
196	0x3d3787d2	0.044807263
197	0x3df6b08a	0.12045391
198	0xbc92dbc6	-0.017927062
199	0x3e43aca9	0.19108833
200	0xbe1a2756	-0.15054068
201	0xbdaf86de	-0.08570646
202	0x3c8fb45e	0.01754206
203	0xbda49846	-0.08036856
204	0xbd7b2414	-0.061313704
205	0xbe62cb64	-0.221479
206	0x3d233ab1	0.039850894
207	0xbdca51c1	-0.098788746
208	0xbe0227b1	-0.12710454
209	0x3bdf2ede	0.006811007
210	0xbe222554	-0.15834552
211	0xbe3e1cfa	-0.18565741
212	0xbceb125e	-0.028695282
213	0x3d370232	0.044679828
214	0xbd754327	-0.059878495
215	0xbd808dec	-0.062770694
216	0xbdd6ae52	-0.10482468
217	0x3de8245a	0.113350585
218	0xbc0f150f	-0.008733048
219	0xbdfc8c97	-0.12331503
220	0xbdb4319a	-0.08798523
221	0xbe2b075f	-0.1670203
222	0xbe448503	-0.19191365
223	0xbdb11b95	-0.08647839
224	0x3d9ce807	0.07661443
225	0xbdbbf754	-0.091780335
226	0xbd3c4ff7	-0.045974698
227	0xbc643767	-0.013929225
228	0xbdb5fea5	-0.0888646
229	0xbdec1207	-0.11526876
230	0xbde790c7	-0.11306911
231	0x3dbea348	0.09308487
232	0x3d9f562d	0.077801086
233	0xbd5c4af4	-0.05378242
234	0xbe6840a2	-0.22680905
235	0xbdfad52f	-0.12247693
236	0x3d1b5e21	0.037931565
237	0xbe371530	-0.17879176
238	0x3c5ba338	0.013405614
239	0x3c95ef33	0.018302536
240	0x3d3a665b	0.04550777
241	0xbe188e10	-0.14897943
242	0xbde22f5d	-0.1104419
243	0xbe6816c3	-0.22664933
244	0xbe4dc349	-0.20094027
245	0x3c3a6555	0.0113766985
246	0x3dc871a3	0.097872995
247	0x3d7ad1d0	0.06123525
248	0xbbd54368	-0.0065082796
249	0xbe3211bc	-0.17389578
250	0xbd814d35	-0.06313554
251	0x3cfb6502	0.030687813
252	0x3dbe1e9f	0.09283184
253	0x3dafb2d4	0.08579031
254	0xbdbd7f57	-0.09252804
255	0x3e61c46a	0.22047582

net.4.bias f4 [50]
0	0xbcb4c7f7	-0.022068007
1	0xbd86f2be	-0.06589268
2	0xbe0991c6	-0.13434514
3	0xbc660a88	-0.014040597
4	0xbb69814d	-0.0035630048
5	0x3df3140a	0.118690565
6	0xbdf8ac8d	-0.121422864
7	0xbe17caa0	-0.14823389
8	0x3dd9b344	0.10629895
9	0xbd81f8ee	-0.06346308
10	0xbc1f8c41	-0.009738029
11	0xbd30f374	-0.043200925
12	0x3d8c3737	0.06846469
13	0xbe01cac1	-0.12675
14	0xbd0858fc	-0.033287987
15	0x3d95b354	0.07309595
16	0xbd2857ce	-0.041099362
17	0xbd1ce0cc	-0.03830032
18	0x3dd81407	0.10550695
19	0xbd02c60b	-0.03192715
20	0xbd70f0eb	-0.058823507
21	0x3c88aa49	0.01668276
22	0x3b659b72	0.003503528
23	0x3d43566b	0.047689836
24	0x3d64cbfe	0.055858605
25	0xbe061c0b	-0.13096635
26	0xbe7afcf8	-0.24510562
27	0xbdb48e92	-0.08816256
28	0xbd0afbcd	-0.033931542
29	0xbd8c4518	-0.06849116
30	0xbdc61891	-0.096726544
31	0xbd52e154	-0.05148442
32	0x3cb7bd13	0.022429025
33	0x3d0c6560	0.034276366
34	0xbe090e24	-0.133843
35	0xbe1e4110	-0.15454507
36	0xbd833be6	-0.06407909
37	0x3d7223c7	0.05911615
38	0x3a781093	0.0009462919
39	0xbe07914b	-0.13239019
40	0xbd4080dc	-0.04699789
41	0x3dd3d6ca	0.10343702
42	0xbe169834	-0.14706498
43	0xbdaf6bb1	-0.085654624
44	0x3db71c91	0.089409955
45	0xbd9ce2fe	-0.07660483
46	0xbd6c8513	-0.057744097
47	0x3d99699d	0.07490847
48	0xbd19c0d1	-0.0375374
49	0x3d806ab6	0.062703535

net.6.weight f4 [2, 50]
0	0xbc017495	-0.0079013305
1	0x3d407028	0.04698196
2	0x3d04a3ca	0.032382764
3	0xbe136119	-0.14392509
4	0x3da4bbce	0.080436334
5	0xbd1b399e	-0.037896745
6	0x3d39d018	0.04536447
7	0xbd88c9bd	-0.066791035
8	0xbc8aed4b	-0.016958853
9	0x3cf35bf3	0.02970693
10	0xbd9a6e20	-0.07540536
11	0x3c97a08f	0.018509177
12	0x3daa6500	0.083200455
13	0xbe0556ef	-0.13021444
14	0x3b8f624a	0.0043757306
15	0xbcb26360	-0.021775901
16	0x3d80b40e	0.06284343
17	0x3d936828	0.071976006
18	0xbd8f814c	-0.07007083
19	0xbc78b8c0	-0.015180767
20	0xbdf50d49	-0.119654246
21	0x3d4f8c1a	0.05067072
22	0xbce8add6	-0.028403204
23	0xbd035582	-0.03206397
24	0xbdcb06b4	-0.09913388
25	0xbc9a12ee	-0.018807855
26	0xbbab4c18	-0.005227577
27	0xbd7fdb9c	-0.062465295
28	0xbe04a95c	-0.1295523
29	0x3aee8035	0.0018196168
30	0xbdd20fba	-0.10256906
31	0xbe0256d1	-0.1272843
32	0x3b95e3af	0.004574261
33	0xbd4da2c8	-0.05020407
34	0xbd8da5e1	-0.069164045
35	0x3ca143d6	0.019685667
36	0x3da9cd3c	0.082910985
37	0x3d24b239	0.04020903
38	0xbc82b85f	-0.015957056
39	0xbd806beb	-0.06270584
40	0x3d360b39	0.044444297
41	0x3db46d49	0.08809907
42	0x3cd776ec	0.026301824
43	0xbe0c86db	-0.13723318
44	0x3dbb1431	0.091347106
45	0x3d8951d8	0.067050636
46	0xbd305dd3	-0.043058228
47	0x3c9d716b	0.019219121
48	0xbca98161	-0.020691575
49	0x3dbdd8fa	0.092699006
50	0x3dd0e78c	0.10200414
51	0xbe28aeec	-0.16472977
52	0x3e02e37a	0.12782088
53	0x3d99c915	0.075090565
54	0xbe62f780	-0.22164726
55	0x3daf9779	0.08573813
56	0xbe479dad	-0.19493742
57	0xbc111d1e	-0.00885704
58	0xbe847f75	-0.25878492
59	0x3e113d30	0.14183497
60	0x3dc94c28	0.09828979
61	0xbe1fc03b	-0.15600674
62	0x3d5e8cc3	0.05433346
63	0x3d23079e	0.039802186
64	0xbd977a4a	-0.07396372
65	0xbe51b5d3	-0.20479517
66	0xbde064aa	-0.109567
67	0x3d01ade2	0.03165997
68	0x3d2b8239	0.041872237
69	0xbe383ad2	-0.17991188
70	0xbe509e43	-0.20372872
71	0xbe30b715	-0.1725734
72	0xbe0f4a2c	-0.13993138
73	0xbd1e44b8	-0.038639754
74	0xbe635a5a	-0.22202435
75	0xbe00ada7	-0.12566243
76	0xbdbcc5f5	-0.09217445
77	0xbdc71313	-0.09720435
78	0x3e24b64a	0.16085163
79	0xbe54f7dd	-0.20797677
80	0xbe270772	-0.16311434
81	0x3dfb4d79	0.12270636
82	0xbe30ccee	-0.17265674
83	0x3d04bd7e	0.032407276
84	0x3b51ce79	0.0032013936
85	0x3e066e24	0.13127953
86	0xbd3d029d	-0.04614507
87	0xbe363cad	-0.17796583
88	0x3de97955	0.114000954
89	0xbe03a9b9	-0.12857713
90	0xbdf83a46	-0.1212049
91	0xbe29d20b	-0.16584031
92	0x3c49e6b6	0.012323072
93	0x3e055b21	0.13023044
94	0xbd76ba72	-0.0602364
95	0xbd52d778	-0.05147502
96	0xbe273b5e	-0.1633124
97	0x3db18345	0.08667616
98	0xbe6aa5f2	-0.22914866
99	0xbe3129bf	-0.17301081

net.6.bias f4 [2]
0	0xbdcad9a9	-0.09904797
1	0x3dc352a6	0.09537248
