week1/1.3/closed_loop_trained_model.pth (torch, 2635 bytes, 4 tensors)

hidden.weight f4 [30, 4]
00000000: 5fdc 0ebf 261b 153d 079a 643f 4f4d 513e
00000010: ac4c 1cbd 2835 2bbf 5e2a e93e dbe6 a1be
00000020: 3cd1 253e 0eee dabe 3301 11bf 478f 95bd
00000030: 65bc 26bf 79e2 e13d b3de 8fbf 9604 7d3e
00000040: 537b 113f 2598 603e 0d29 8c3f ea56 693e
00000050: ef61 ccbe 5395 eb3e d4ad a93c 4729 113d
00000060: d159 41be 0116 92bb e031 ad3e 42c7 15bf
00000070: d65f 33bd 09cb 8dbe f665 723f 0b96 143e
00000080: d718 473f 641e 35be 41f9 443f 5218 78be
00000090: 92bc 1cbf ccd1 ba3e 61c9 80bf 118e 92be
000000a0: 9524 3b3f ba10 a03d 8798 18be 1baf c3be
000000b0: 796d 183d 29c0 e43d b18e 2c3f 0a97 20be
000000c0: 1737 1d3f 022e 0a3b 49ef 8cbf 47d9 6f3e
000000d0: 2599 32bf 8f86 ab3e b98e 6e3d 7005 4fbd
000000e0: 1872 823f d999 1dbf 0590 1bbf 6cec 0e3f
000000f0: 01dc 843e b49d e4bd 399e 5dbe 1b1d 7d3e
00000100: 363e 3e3f 600a 193e 25a2 a2be ed25 633d
00000110: b820 fdbe 06f2 163f ed12 a23e a487 963e
00000120: b1a0 0cbf fe8a 923d c54c 353f b7db 083e
00000130: 62c2 473e 1bcb ef3e 2468 72be b383 45bd
00000140: 1064 07bf 0108 203e 5d44 213f d8d8 dbbd
00000150: 7263 683f 4238 653d aad2 d7be 8dc1 aa3b
00000160: 4cdd e3be 1111 063f 4b4a 663f 4a5f e53e
00000170: 6f26 403f 5a91 06bf 86f8 20be c63b 85be
00000180: 9b5b 0bbf 9a2d cf3e 583c 173f 513c 783e
00000190: 949f fabe 80e1 df3e f8df 4ebf 2b08 38be
000001a0: 4416 453f 27f0 23be 5e83 7f3f 3a63 3d3e
000001b0: f476 d4be dda6 2e3e 8ea4 86be e42f 9a3d
000001c0: 9d27 143f 57d3 973e b8fa f23e 29b3 a83e
000001d0: ade2 c63c a16a 383d 2c60 023f d57b 253f
-0.5580501 0.036402844 0.8929753 0.20439647 -0.038159057 -0.66877985 0.45540136 -0.3162144
0.16193098 -0.42759746 -0.56642455 -0.073027186 -0.6513122 0.11029524 -1.1239837 0.2470878
0.568288 0.21933039 1.0950028 0.22787061 -0.39918467 0.46012363 0.02071277 0.035439756
-0.18881918 -0.0044581895 0.33827114 -0.5850717 -0.04379257 -0.27693966 0.9468683 0.14510362
0.7777228 -0.17687374 0.7694283 -0.24228027 -0.61225235 0.36488187 -1.0061456 -0.28624013
0.73102695 0.0781569 -0.14901935 -0.38219532 0.037213776 0.11169464 0.6740523 -0.15682617
0.61412185 0.0021084552 -1.1010524 0.23422728 -0.6976493 0.33501098 0.05824158 -0.050542295
1.0191069 -0.6156288 -0.6076663 0.558295 0.259491 -0.11162892 -0.21642388 0.24718134
0.74313676 0.14945364 -0.3176433 0.05545609 -0.49439025 0.5896305 0.31655064 0.2940036
-0.54932696 0.07155417 0.70820266 0.13365065 0.19507745 0.46834645 -0.23672539 -0.0482213
-0.5288706 0.15628053 0.6299494 -0.10734719 0.9077674 0.055961855 -0.4215291 0.0052110613
-0.44504774 0.5236979 0.8995711 0.44799262 0.75058645 -0.5256554 -0.15719804 -0.26022166
-0.54436654 0.4046448 0.5907645 0.24241759 -0.48949873 0.4372673 -0.808105 -0.17971866
0.769871 -0.1600958 0.99809825 0.18494883 -0.41497004 0.17055841 -0.2629742 0.07528666
0.57872945 0.29653427 0.47456908 0.32949188 0.02427801 0.045023564 0.50927997 0.6464208

hidden.bias f4 [30]
00000000: f1a0 7c3e 659f 633e 5d51 a83e c7cd 673e
00000010: 9998 14be e499 ea3d ecde 073f 7124 dfbe
00000020: 9bdb a93e b012 84bd 4efd babe 7193 d2be
00000030: 99bd 7dbe 780c 163e a573 d5be cf1f bc3c
00000040: cb77 e13e 63fc 83be e395 333e 4c61 d1be
00000050: ee59 c93d 02b8 863e 9e71 82bd 1e0d bdbe
00000060: 16f7 28be 0572 a8be 3c9b a23e b586 ddbe
00000070: b7f4 53be 67aa 903e
0.2467077 0.22228773 0.32874575 0.22637092 -0.14511336 0.114551336 0.53074527 -0.4358249
0.33175358 -0.06448877 -0.3652138 -0.41128114 -0.24779357 0.14653194 -0.41689792 0.022964386
0.44036707 -0.25778493 0.17537646 -0.40894544 0.09831606 0.26312262 -0.06369327 -0.3692407
-0.16500506 -0.3289949 0.3175906 -0.43266836 -0.2069882 0.28255007

predict.weight f4 [2, 30]
00000000: 2f10 c23e febd 133e fc16 8dbe 8364 99be
00000010: 55cf fe3e dd94 f13b de1b 253e c619 ad3e
00000020: 800e 8b3e fdd7 87be 008f cdbc 214f a23e
00000030: 6abd bebe 6a62 af3b 687f 98be e21b 16be
00000040: d392 d5bd f89c 5bbc f87b 363e 4722 64bd
00000050: ffa3 243e 362c 70bd c94f 0d3e e910 61bd
00000060: 59fb b63d b40c a0be 994c ca3e 93ef 2fbe
00000070: fc2f 763e 7bc4 c93d 1413 cf3e 13fc 353c
00000080: cd07 08be 4db2 cc3e 1fcc 73be 152c c53d
00000090: 2fa0 7e3d 6ea7 8c3c 9ab6 bfbe 7839 a03e
000000a0: 29f8 e3be befd 43bd 172a 81be 43bb 833e
000000b0: 6f18 dfbe 6540 9ebd 676b b0be 5348 a33e
000000c0: ceb0 a73e 4bc9 81bd f6be 503e 9410 e2be
000000d0: dc57 8b3e 337f b4be 897a 9d3e e255 7c3e
000000e0: 4323 c5be 84a0 7b3e f62e 10be 605b b3ba
0.37902972 0.14427945 -0.27556598 -0.29959497 0.49767557 0.007372482 0.16123912 0.33808726
0.271595 -0.26531973 -0.025092602 0.31700996 -0.37253886 0.005352308 -0.29784703 -0.14659074
-0.10428395 -0.0134041235 0.17820728 -0.055696752 0.16078185 -0.058635913 0.13799967 -0.054947767
0.089346595 -0.31259692 0.39511564 -0.17181234 0.24041742 0.09851929 0.40444243 0.011107462
-0.13284226 0.39979783 -0.23808335 0.096275486 0.06216448 0.01716968 -0.37444 0.31293845
-0.4452527 -0.04784941 -0.25227425 0.25728807 -0.4357333 -0.07727126 -0.3445694 0.31891116
0.3275208 -0.06337222 0.20385346 -0.44153273 0.2721547 -0.35253295 0.3075755 0.24642137
-0.38503465 0.2457295 -0.14080414 -0.0013683848

predict.bias f4 [2]
00000000: 3ca8 04bd fdc1 183e
-0.032387003 0.1491775
