week1/1.3/trained_model.pth (torch, 2115 bytes, 4 tensors)

hidden.weight f4 [30, 2]
000000 4e 84 33 3f cd 9a e7 be bc 68 44 3f 69 c9 22 be
       0.70123756 -0.4523529 0.7672231 -0.15897144
000010 a0 58 a3 3e 6c 0d c3 bc 88 84 95 be f9 b4 de 3e
       0.31903553 -0.023810111 -0.29202676 0.43497446
000020 9b 05 12 3f c5 d4 5c 3f 31 2a 19 3f e7 37 28 3e
       0.57039803 0.8626216 0.59830004 0.16427575
000030 5c 35 2c bf ba 0d c0 3e 86 c9 f4 be 3e 91 11 3f
       -0.6726892 0.37510473 -0.4781 0.56862247
000040 57 3f 1a bf 8a 7a 6c bf 23 ed 97 be f6 ff 9b 3c
       -0.602529 -0.9237448 -0.29673108 0.01904295
000050 7d c7 23 3e 23 0d 4a bf 5a 44 79 bf 9d b8 00 be
       0.15994067 -0.78926295 -0.9736992 -0.12570424
000060 9d 5c 1c bf 2c 44 37 3f 50 57 9a 3e da 44 38 bf
       -0.61078817 0.715884 0.3014474 -0.7198006
000070 10 64 aa bc 0c 57 1e 3e 6b f7 b6 3e c7 6a f8 be
       -0.020799667 0.15462893 0.3573564 -0.48518965
000080 27 ff 4c bf 69 77 6c bd 1c 33 7d bf 7a 33 1f bf
       -0.8007683 -0.057731066 -0.9890611 -0.6218792
000090 2a 10 45 3f 61 71 7b 3e 59 8b a3 bf b3 bd 36 3f
       0.7697779 0.2455497 -1.27769 0.7138321
0000a0 5f 74 88 bf bc ab 42 3e 4d 49 ad bf a9 66 9b 3f
       -1.0660514 0.19010824 -1.3537995 1.2140704
0000b0 9c 23 e9 3e ef 35 e0 be 7c 69 5a 3c 4a 7f 9b bd
       0.4553498 -0.43791148 0.0133308135 -0.07592638
0000c0 8c 9e a7 3d 5f a3 4e 3e ea 86 a4 bf 55 a1 ab be
       0.08184537 0.20179509 -1.2853673 -0.33521524
0000d0 85 64 99 3f 41 92 1b bf e9 ef 88 bf 78 54 39 3d
       1.1983801 -0.6077004 -1.0698215 0.04524657
0000e0 30 89 37 3f a7 cc 10 be f2 5c 5a 3e 62 1b 6e bf
       0.71693707 -0.14140569 0.21324518 -0.9301053

hidden.bias f4 [30]
000000 76 4a 33 be 9d 49 78 bd 84 b7 6c 3d a7 c1 41 bf
       -0.17508873 -0.060617078 0.0577922 -0.75686115
000010 c3 a1 f6 3e cd 09 16 bf 1d 8d 32 3d 6c 6b f5 be
       0.4817029 -0.58608705 0.043591607 -0.4793352
000020 de 61 16 3f f4 15 24 bf 5d b4 aa 3e 79 84 f1 3e
       0.58743083 -0.64096 0.3334073 0.4717138
000030 dc d2 34 be 6a 34 31 be 93 57 1b bf 1f c6 8b 3e
       -0.17658561 -0.1730515 -0.606805 0.27299592
000040 e9 53 63 bd 2d fc a3 be 82 15 cd be c7 1e 70 be
       -0.055499945 -0.32028332 -0.40055472 -0.2344924
000050 fc dc f5 3e ff 3a 9d bd e0 62 7c 3b 97 8a 13 bf
       0.4802016 -0.07677268 0.0038511083 -0.57633346
000060 4a 8b 8c be 96 18 ed 3e 9f c2 ab 3e 09 19 c2 be
       -0.2745002 0.4630782 0.33546922 -0.37909725
000070 35 72 4a bf c6 d9 b6 3d
       -0.79080516 0.08928256

predict.weight f4 [2, 30]
000000 75 37 3d bd 54 41 f7 3d 94 d0 0f be 79 d7 76 3c
       -0.046195466 0.12073007 -0.1404441 0.015066021
000010 a1 55 69 3d 5e d6 00 3b 3a 1c c1 bd a8 f1 96 bd
       0.056966428 0.0019659023 -0.09429212 -0.07370311
000020 f9 e9 72 be 8d a3 53 be 50 d1 91 3c 6a 5d 8b 3c
       -0.23722066 -0.20667858 0.017800003 0.017012317
000030 ef 53 83 3d db f1 15 be 4a 86 6a bd fa 24 6e be
       0.064124934 -0.14643042 -0.057256974 -0.23256293
000040 b1 65 a2 3d d4 bd c2 bd 2b 87 c9 3d b3 0d aa bb
       0.07929552 -0.09508863 0.09840234 -0.0051896214
000050 85 82 75 bd 69 74 11 3d b2 d3 63 bd 30 a7 de 3d
       -0.059938926 0.035511408 -0.05562181 0.10871732
000060 d8 c8 03 be 72 6e 7b bc 48 ab ac 3d 5b 7d a1 3c
       -0.12869585 -0.015346156 0.08431107 0.019713094
000070 78 ec 18 bd b5 d5 90 bd 54 41 62 be 0d f6 97 be
       -0.03733489 -0.070720114 -0.22095233 -0.2967991
000080 ca bd 17 be 94 2c f1 3d 43 68 d0 bd 1b c5 45 be
       -0.14818493 0.11776081 -0.10176136 -0.19313471
000090 4f 90 09 3e f7 d7 95 3d 03 17 83 3d 10 af 85 3d
       0.13433956 0.07316583 0.064008735 0.06527531
0000a0 63 e9 f9 bd 37 94 70 3e 1b 96 d6 3d a9 62 b4 bd
       -0.12202718 0.2349404 0.10477849 -0.088078804
0000b0 98 de 07 3d fd d9 3b be 26 ee 63 3e 87 c6 c7 3e
       0.033171266 -0.18344875 0.22258815 0.39018652
0000c0 d0 fa 82 be e9 9d db 3e dd c9 59 3e 8f 8c 00 3f
       -0.2558198 0.42893913 0.21268411 0.50214475
0000d0 d5 67 bc bd 9a 5d ff bb 41 02 6e 3b c8 de aa 3e
       -0.09199492 -0.0077931406 0.0036317261 0.33373094
0000e0 ea 1e b3 be 76 06 9b 3e ea 5f 1d be aa d3 9e bd
       -0.34984523 0.30278367 -0.1536862 -0.077552155

predict.bias f4 [2]
000000 69 c5 a1 3c 7d a8 1b bd
       0.019747453 -0.03800248
