week1/1.3/trained_model.pth (torch, 3587 bytes, 4 tensors)

hidden.weight f4 [100, 2]
-0.11616213 -0.30387777 -0.50803465 -0.53271306 0.5629925 -0.7266691 0.28513765 -0.37596807
0.48395833 -0.03524016 0.089757934 -0.5931049 -0.068040706 -0.6749752 0.37342715 0.59593886
0.045263253 0.37264585 0.47021383 0.3346467 0.548761 -0.56200457 -0.1783834 0.1166937
0.24353957 0.49253574 -0.56282836 -0.8069065 -0.556854 -0.5347038 0.38317725 0.05726244
0.41987848 -0.81995887 -0.4282433 0.08786039 -0.25459766 -0.6417597 -0.7065507 0.6162363
0.41148508 -0.4866595 -0.17836548 0.54407513 0.076234184 -0.6192652 -0.6848516 -0.1272928
0.28815684 -0.7240312 0.6964028 -0.24273443 -0.41573113 0.3874504 0.4460285 0.24175
0.3830291 -0.025600512 0.39990318 0.33265024 0.3144248 0.25862196 -0.5994814 -0.22214678
-0.121080466 -0.80173546 -0.48850822 -0.4581885 -0.6543031 0.53461087 0.24616429 -0.08290484
-0.50451016 0.06789129 0.40713567 -0.016934399 -0.09817459 -0.7511814 -0.020833025 0.8210612
-0.6774324 -0.4787631 0.64057916 0.35105523 -0.24919008 0.39249277 0.060383137 0.51758707
-0.35903183 0.29723108 -0.6049164 -0.537994 -0.17300558 0.31798232 -0.25772133 -0.43494445
0.63375413 -0.6841098 0.54594916 0.25675496 0.0027437601 0.19907321 0.62476397 -0.8740858
0.19312347 0.35379097 0.07060838 -0.2463545 0.52452075 0.6404015 0.5655252 -0.3600186
0.6314842 0.15559305 -0.5721914 -0.2052842 -0.08375024 -0.24566925 -0.45699933 -0.75155777
-0.38685125 0.4790683 0.1938489 -0.6298248 -0.26971638 -0.46610528 0.62849766 -0.7134377
0.6783031 0.031084115 0.12352994 -0.8393499 -0.46066383 -0.8406735 -0.2432421 0.65595955
0.34597832 0.41989264 -0.24078998 -0.5518027 0.003079636 0.3686625 0.4564346 0.5151867
0.2769002 -0.41825837 -0.57885474 -0.60916144 0.37261018 0.18166542 0.30044234 -0.46067417
-0.52289045 0.3622967 -0.4065937 -0.6235636 -0.38237384 0.12660503 0.14790712 0.50398016
0.62474835 -0.7982001 -0.05649356 -0.89780664 0.14227842 -0.30457476 -0.3372302 0.63137203
0.13311489 -0.1338469 0.29581195 -0.059187602 -0.17700759 -0.44408596 0.25001138 0.8284336
0.58293396 0.32267034 0.3695781 -0.14342335 -0.07292935 0.12866236 -0.6508457 -0.25047064
0.11691748 0.064003155 -0.3890442 -0.7823038 -0.55983543 -0.2735896 0.17107214 -0.8239731
0.2215555 0.60960084 -0.0023311642 -0.639477 -0.18773003 -0.724471 -0.2835984 0.20132853
00000000: 69e6 edbd de95 9bbe 8f0e 02bf e25f 08bf
00000010: 4720 103f fc06 3abf 90fd 913e e37e c0be
00000020: 63c9 f73e fc57 10bd 02d3 b73d b9d5 17bf
00000030: ed58 8bbd 2dcb 2cbf d831 bf3e 738f 183f
00000040: f665 393d 70cb be3e debf f03e d056 ab3e
00000050: 9a7b 0c3f 88df 0fbf 23aa 36be 1bfd ee3d
00000060: 7062 793e a52d fc3e 8515 10bf 6d91 4ebf
00000070: fc8d 0ebf 59e2 08bf cf2f c43e 058c 6a3d
00000080: 50fa d63e d3e8 51bf b542 dbbe 26f0 b33d
00000090: a05a 82be 5d4a 24bf 82e0 34bf aac1 1d3f
000000a0: 2cae d23e 6f2b f9be 71a5 36be 8248 0b3f
000000b0: ab20 9c3d 2a88 1ebf 6f52 2fbf 0b59 02be
000000c0: 4b89 933e 1c5a 39bf 7447 323f 608f 78be
000000d0: b6da d4be e65f c63e d95d e43e 508d 773e
000000e0: 641c c43e 2ab8 d1bc 1cc0 cc3e 2251 aa3e
000000f0: 4afc a03e 196a 843e 9d77 19bf 727a 63be
00000100: 09f9 f7bd 893e 4dbf c01d fabe af97 eabe
00000110: 6880 27bf 42dc 083f 7e12 7c3e 03ca a9bd
00000120: 9427 01bf 970a 8b3d 1674 d03e 02ba 8abc
00000130: c20f c9bd 6d4d 40bf 05aa aabc 1131 523f
00000140: 366c 2dbf 7020 f5be fffc 233f 83bd b33e
00000150: af2b 7fbe d0f4 c83e 4f54 773d 9680 043f
00000160: 05d3 b7be ac2e 983e cddb 1abf fab9 09bf
00000170: 6028 31be 94ce a23e 0df4 83be 0ab1 debe
00000180: b63d 223f d221 2fbf 53c3 0b3f 6375 833e
00000190: a8d0 333b d9d9 4b3e 88f0 1f3f 16c4 5fbf
000001a0: 29c2 453e 1724 b53e 209b 903d 5b44 7cbe
000001b0: fe46 063f 5af1 233f 42c6 103f 5c54 b8be
000001c0: f3a8 213f c953 1f3e 237b 12bf 0536 52be
000001d0: 3f85 abbd b890 7bbe d1fb e9be 1766 40bf
000001e0: 5e11 c6be 7148 f53e 5380 463e 333c 21bf
000001f0: 4418 8abe 5aa5 eebe 39e5 203f daa3 36bf
00000200: 46a5 2d3f 1da4 fe3c 44fd fc3d a3df 56bf
00000210: 21dc ebbe 6136 57bf 7514 79be f7ec 273f
00000220: 1224 b13e 2bfc d63e a691 76be f142 0dbf
00000230: b8d3 493b 55c1 bc3e ccb1 e93e 47e3 033f
00000240: ddc5 8d3e f625 d6be d32f 14bf 01f2 1bbf
00000250: c3c6 be3e 8006 3a3e 94d3 993e 7cdd ebbe
00000260: 26dc 05bf f47e b93e 0d2d d0be dda1 1fbf
00000270: 81c6 c3be c0a4 013e f774 173e d804 013f
00000280: 82ef 1f3f d756 4cbf cb65 67bd a8d6 65bf
00000290: 6fb1 113e 39f1 9bbe 70a9 acbe 99a1 213f
000002a0: 454f 083e 290f 09be aa74 973e b36e 72bd
000002b0: 7a41 35be 3c5f e3be 7e01 803e 3914 543f
000002c0: 293b 153f 0c35 a53e 5739 bd3e 92dd 12be
000002d0: fc5b 95bd 11c0 033e d39d 26bf b03d 80be
000002e0: 6f72 ef3d 1614 833d cd30 c7be 1045 48bf
000002f0: 6051 0fbf f013 8cbe 892d 2f3e e7ef 52bf
00000300: 72df 623e cd0e 1c3f 72c6 18bb c4b4 23bf
00000310: 4d3c 40be ee76 39bf cf33 91be 1129 4e3e

hidden.bias f4 [100]
-0.44815654 -0.45431378 -0.034457866 0.43878058 -0.39165807 0.48336625 -0.3725044 -0.06823853
-0.5522409 -0.32696617 0.114916384 0.35681307 -0.34582898 0.27050242 0.22858416 0.19646774
0.28333953 0.40663096 -0.45858544 0.16040117 -0.3645338 0.21062955 -0.16461341 -0.03850182
0.29491588 0.5451663 0.68590784 -0.30628186 -0.6028336 -0.70939535 0.30258036 0.4687869
-0.018243903 -0.3004002 -0.63272023 0.2633428 -0.4823712 0.013956016 -0.023251092 -0.28566262
-0.5271648 -0.49062708 -0.683859 -0.23486234 0.24769975 -0.56959575 -0.6305738 0.65110976
0.6781228 -0.5672787 -0.48029187 0.54906195 -0.4521737 0.17851324 0.04023107 -0.09876187
0.1604308 -0.64768606 -0.109539784 -0.04775405 0.085069 0.56648046 0.26923117 0.53310657
0.082759164 -0.35304686 -0.29082194 0.018497963 -0.26149806 -0.34147635 -0.66918975 -0.077740654
-0.42290512 -0.14044674 -0.54151726 0.6949933 -0.6818334 0.651127 0.37650344 -0.46168858
-0.3991101 -0.6884241 -0.105273485 -0.63263327 -0.2569786 0.43399474 -0.19118485 0.15028182
0.5493983 -0.021823049 0.31615952 -0.07625854 -0.6086934 -0.6748794 0.453315 -0.22178158
-0.40531355 0.050293345 -0.14629738 0.10914623
00000000: c674 e5be d19b e8be b123 0dbd d9a7 e03e
00000010: 6887 c8be c87b f73e e6b8 bebe a4c0 8bbd
00000020: a95f 0dbf 1c68 a7be 4859 eb3d 34b0 b63e
00000030: 7f10 b1be 4b7f 8a3e f711 6a3e d72e 493e
00000040: e111 913e ef31 d03e b6cb eabe 3440 243e
00000050: 2da4 babe 46af 573e 6b90 28be 16b4 1dbd
00000060: 37ff 963e 0590 0b3f a897 2f3f fad0 9cbe
00000070: 4e53 1abf ef9a 35bf d0eb 9a3e d604 f03e
00000080: 3d74 95bc 0ece 99be f4f9 21bf ded4 863e
00000090: 5cf9 f6be c6a7 643c 1379 bebc 5f42 92be
000000a0: 46f4 06bf 7933 fbbe 6211 2fbf c17f 70be
000000b0: 01a5 7d3e 07d1 11bf 496d 21bf 21af 263f
000000c0: 7599 2d3f 2d39 11bf d1e8 f5be 538f 0c3f
000000d0: 5083 e7be 2dcc 363e 56c9 243d aa43 cabd
000000e0: f947 243e c1ce 25bf 6556 e0bd c099 43bd
000000f0: a838 ae3d dd04 113f abd8 893e ac79 083f
00000100: a37d a93d 8fc2 b4be 9de6 94be 0a89 973c
00000110: 13e3 85be fdd5 aebe 0550 2bbf 7e36 9fbd
00000120: 0587 d8be 45d1 0fbe e0a0 0abf 15eb 313f
00000130: a28c 2ebf 42b0 263f 0fc5 c03e 7262 ecbe
00000140: 2958 ccbe 903c 30bf a099 d7bd 41f4 21bf
00000150: b392 83be 8f34 de3e f6c5 43be 7ae3 193e
00000160: 5ea5 0c3f 40c6 b2bc a9df a13e 702d 9cbd
00000170: 55d3 1bbf e5c4 2cbf e718 e83e b61a 63be
00000180: 4285 cfbe 6500 4e3d fbce 15be 0f88 df3d

predict.weight f4 [2, 100]
0.018503018 0.10540279 0.15489084 0.041053593 0.004369437 0.12719747 0.018964047 -0.064431846
-0.0050780764 -0.060687255 0.13274975 -0.026711248 -0.06360995 0.14775307 0.07630857 0.013715948
0.11855231 0.016728383 0.049322043 0.0064588482 0.016380366 -0.030576454 0.092904694 0.10804562
0.15567303 -0.020150917 0.037145555 0.049377937 -0.043319512 -0.074116066 -0.020627378 0.10340724
0.11346156 0.15797131 -0.05145314 0.033649936 0.04720029 0.10855332 0.081549 -0.08763498
0.0634561 0.061536886 -0.08843849 0.015374563 -0.010520336 0.16236529 -0.0561366 0.1302648
0.18095563 -0.06443667 0.032246325 0.12679344 -0.07550317 0.09896878 -0.0958492 0.14930923
0.031250846 0.09015497 -0.032083426 0.1054691 -0.01718164 0.15272899 -0.01955443 0.15868935
0.018241322 0.057851087 0.098699234 -0.06479918 0.06614592 -0.017152123 -0.06728091 0.03129582
0.18240291 0.023195717 -0.03978697 0.09001671 -0.01567347 0.031930275 0.11337193 -0.07540928
0.11165294 0.14616135 0.091691054 -0.09628967 0.118944705 0.021610497 0.10470281 -0.066372715
0.08663789 0.06919527 -0.0420289 0.029283978 0.05415362 0.17388274 0.0538625 0.19072546
-0.0438034 0.0054729683 0.14405817 0.08601195 0.039808534 0.099071585 0.018906033 0.01920479
0.04856513 -0.058072638 -0.06671203 -0.018328413 0.022554342 -0.0026224244 0.02135538 0.023582784
0.06631411 0.07864747 -0.0678817 0.12507243 0.017616197 0.009554129 0.07697555 0.1494637
-0.08223414 -0.030556288 0.108086996 0.025600482 -0.0044540903 -0.015311165 0.14319411 0.031880993
-0.033010833 -0.011359466 0.07532209 0.010140857 0.029283717 -0.073907726 0.027947737 0.01341772
0.079053424 0.06884659 0.07203234 0.05829947 0.075871624 0.09484703 -0.013307598 0.05088774
-0.0010992165 0.079147995 0.083511986 -0.030076506 0.03246046 0.102161124 -0.041622832 0.0051155156
0.003846099 0.060232937 0.041263662 0.054836098 0.12563133 -0.05416815 -0.040362146 -0.06409471
0.13244198 0.086569436 0.08479572 0.04226857 0.034029294 0.06410575 -0.04671668 0.13288641
0.067846 0.047319368 -0.002718609 0.022585781 0.017305711 -0.07447084 0.07757126 0.025045345
-0.029002104 0.065741844 0.10152775 0.11946736 -0.0562119 0.040563527 0.028182749 0.06107296
0.041483626 0.07133006 0.10074911 0.15925534 0.106632926 0.019094627 0.043460783 0.082012475
0.06177999 0.0315062 -0.04264102 0.058631413 0.15851116 -0.0239422 0.10741223 -0.032548644
00000000: a493 973c 6bdd d73d b49b 1e3e d027 283d
00000010: 7f2d 8f3b 0e40 023e 7d5a 9b3c d8f4 83bd
00000020: fe65 a6bb 3393 78bd 8def 073e 8cd1 dabc
00000030: ef45 82bd 954c 173e ab47 9c3d dbb8 603c
00000040: 8ecb f23d f609 893c e905 4a3d bfa4 d33b
00000050: 1e30 863c 797b fabc d144 be3d 0647 dd3d
00000060: c068 1f3e 8913 a5bc f025 183d 8540 4a3d
00000070: cd6f 31bd 2aca 97bd bffa a8bc 2dc7 d33d
00000080: 895e e83d 3bc3 213e 87c0 52bd 84d4 093d
00000090: 1755 413d 3451 de3d 2a03 a73d f879 b3bd
000000a0: 46f5 813d 1a0e 7c3d 3d1f b5bd 97e5 7b3c
000000b0: 7d5d 2cbc 1643 263e 7eef 65bd 2364 053e
000000c0: 6f4c 393e 5ff7 83bd b914 043d 24d6 013e
000000d0: 68a1 9abd 25b0 ca3d 964c c4bd 85e4 183e
000000e0: e300 003d 2ba3 b83d e969 03bd 2f00 d83d
000000f0: 83c0 8cbc fd64 1c3e 9d30 a0bc 767f 223e
00000100: d36e 953c 43f5 6c3d d322 ca3d 6fb5 84bd
00000110: 8377 873d 9c82 8cbc 93ca 89bd 0c30 003d
00000120: d4c7 3a3e f204 be3c a9f7 22bd ae5a b83d
00000130: a665 80bc 52c9 023d 8b2f e83d 2e70 9abd
00000140: 4caa e43d 52ab 153e 85c8 bb3d 8533 c5bd
00000150: 4899 f33d 7f08 b13c 6d6e d63d 6bee 87bd
00000160: 356f b13d 40b6 8d3d 7f26 2cbd f4e4 ef3c
00000170: 30d0 5d3d 510e 323e ed9e 5c3d 894d 433e
00000180: 326b 33bd 9656 b33b fc83 133e 0927 b03d
00000190: 460e 233d 0be6 ca3d d3e0 9a3c 5d53 9d3c
000001a0: 3bec 463d 93dd 6dbd 51a0 88bd 7825 96bc
000001b0: e2c3 b83c fbdc 2bbb 7af1 ae3c af30 c13c
000001c0: b1cf 873d ed11 a13d 9005 8bbd fd12 003e
000001d0: d84f 903c ec88 1c3c 5ba5 9d3d 030d 193e
000001e0: 5f6a a8bd 2e51 fabc b75c dd3d 1ab8 d13c
000001f0: 9ef3 91bb aedb 7abc 7aa1 123e a595 023d
00000200: 5e36 07bd 0e1d 3abc 7842 9a3d d625 263c
00000210: 68e4 ef3c ef5c 97bd a7f2 e43c ffd5 5b3c
00000220: c3e6 a13d 71ff 8c3d b185 933d 6dcb 6e3d
00000230: 9562 9b3d 293f c23d 1d08 5abc aa6f 503d
00000240: 9613 90ba 5818 a23d 5508 ab3d 0163 f6bc
00000250: 42f5 043d da39 d13d b47c 2abd 0ea0 a73b
00000260: d50e 7c3b d0b6 763d 1604 293d d19b 603d
00000270: 80a5 003e 6cdf 5dbd c752 25bd 1644 83bd
00000280: df9e 073e 514b b13d 61a9 ad3d cf21 2d3d
00000290: 4d62 0b3d e049 833d fd59 3fbd 6013 083e
000002a0: d8f2 8a3d f4d1 413d b12a 32bb d105 b93c
000002b0: b5c4 8d3c 2b84 98bd aedd 9e3d e52b cd3c
000002c0: d295 edbc a9a3 863d c8ed cf3d 4eab f43d
000002d0: 733e 66bd f125 263d 82df e63c a427 7a3d
000002e0: bcea 293d 7f15 923d 8d55 ce3d d513 233e
000002f0: 5d62 da3d 566c 9c3c ef03 323d 28f6 a73d
00000300: 040d 7d3d a50c 013d 5aa8 2ebd 7e27 703d
00000310: c050 223e 6f22 c4bc f1fa db3d ba51 05bd

predict.bias f4 [2]
-0.04130749 -0.04522412
00000000: 0b32 29bd ed3c 39bd
